AdvancedToolsMachineLearningUnity/Assets/NNModels/CoopJumping/SecondTry/BlueAgent-324768.onnx (onnx, 77181 bytes, 10 tensors)

network_body.linear_encoder.seq_layers.0.weight f4 [128, 4]
000000 94 03 18 bf 7f cb 49 3f 07 4c 37 be 6d aa 2d 3e
       -0.5938046 0.78826135 -0.17900096 0.16959544
000010 ee 1e fc 3e dd 37 91 bf c8 3e 18 be 50 a6 40 3f
       0.49242347 -1.1345173 -0.14867699 0.7525377
000020 2d 57 2e 3f 86 98 a1 3e c8 d9 10 3d f5 2b 50 3f
       0.6810177 0.3156168 0.035363942 0.81317073
000030 2e 2f b5 3f 60 07 10 bf 45 da 2b be e6 fe 25 be
       1.4155023 -0.56261253 -0.16782482 -0.16210517
000040 18 30 f8 be 12 6b 3c bf af fd b3 3f 38 94 9f be
       -0.48474193 -0.73600876 1.4061793 -0.3116777
000050 df 80 6a bf 9b 71 35 3f f1 31 cd be 4b 4f 0d b9
       -0.9160289 0.70876473 -0.40077165 -0.00013476347
000060 94 cd 16 bf c3 bc 38 bf d6 56 8b 3e 93 09 59 bc
       -0.5890744 -0.7216303 0.27214688 -0.013246912
000070 db 15 91 be 9a ec cd 3d db b9 9f be 64 f1 e5 3e
       -0.28336987 0.10054894 -0.31196484 0.4491073
000080 de 09 9d be 79 e1 e7 3c 6b 58 02 bf 05 f5 a3 3c
       -0.3067159 0.028305756 -0.50916165 0.020014295
000090 52 82 8e be 93 b1 06 3e cb d0 e8 be d5 bf 1b 3e
       -0.27833802 0.13153677 -0.45471796 0.15209897
0000a0 5b 1f 00 3f 14 10 ec 3a cb b0 cc be c6 0f a2 bd
       0.50047845 0.0018010163 -0.39978632 -0.07913165
0000b0 f0 13 81 3c f8 71 f3 3e d7 c0 7a 3c 21 d1 47 3e
       0.015756577 0.4754789 0.015304766 0.1951337
0000c0 25 14 73 3f cb dc dc 3e d1 3b 0b bc 82 1f 29 bf
       0.94952613 0.43137202 -0.008498148 -0.660637
0000d0 01 92 19 3f 55 3b 7e bd 79 25 35 3e c6 3b 0b bf
       0.5998841 -0.062068302 0.17690076 -0.5438808
0000e0 7d 45 9a 3d 12 6c 35 3f 20 36 b8 3f 6a 9c 25 bf
       0.07532785 0.7086803 1.4391518 -0.64691794
0000f0 54 48 2c be 8b a7 9c 3e 71 8e 25 3e fd cd 68 3e
       -0.16824466 0.30596575 0.16167618 0.22734828
000100 07 4c 4b bf b4 6b de be c4 0e 45 bf 1e 3b a8 3d
       -0.79412884 -0.43441546 -0.76975656 0.08214401
000110 f0 b1 0a bf ff 86 32 3c 38 7d 5e 3f 25 1d 14 be
       -0.5417776 0.010896443 0.8690982 -0.14464243
000120 a5 d4 45 3d b5 bc 87 3e fc b7 7d 3d 92 30 42 3e
       0.048298497 0.2651116 0.06194304 0.1896384
000130 f7 22 49 bf a5 e9 9a bf 02 a4 09 be 56 41 18 bf
       -0.7856898 -1.2102553 -0.1344147 -0.59474695
000140 3f 91 9a 3f 98 81 24 be 7c 25 e1 bd 3c 46 81 be
       1.2075576 -0.16065061 -0.10993478 -0.25248897
000150 8a 3c 9c be 2e cd 9e bf f0 11 c7 be d5 48 1c 3f
       -0.30514938 -1.2406366 -0.38880873 0.6104863
000160 b4 5d 32 3e 0e 3d 5f 3e 82 d8 f9 3d b6 fe e1 be
       0.17418557 0.21800634 0.12199499 -0.44139642
000170 d1 52 d3 bd 09 62 cc bd 92 26 25 be 5f 7e 1d 3f
       -0.1031853 -0.09979636 -0.16127995 0.6152095
000180 2c f0 89 3d 4e 25 d3 3c a7 5f a4 be 93 29 5b 3e
       0.06735262 0.025774624 -0.32104227 0.21402578
000190 30 d2 45 3f b1 d1 ef 3e f1 87 46 3e 96 8b 86 bf
       0.77273846 0.4683967 0.19387795 -1.0511348
0001a0 bd 6b cd be c5 cd 9b be c0 9d 0d bf 74 e8 30 3f
       -0.4012126 -0.30430427 -0.5531883 0.69104695
0001b0 6e e7 c6 3c 21 74 d1 be 3f e7 b7 bf 4e 5e 15 be
       0.024280276 -0.40908912 -1.4367446 -0.14586756
0001c0 9d 72 0c bd e6 74 10 3f d8 10 96 3e b7 a6 92 3d
       -0.03428899 0.5642837 0.29309726 0.071607046
0001d0 d4 f4 c3 3e b2 0d 31 bf de d1 34 bf d4 14 de 3d
       0.38272727 -0.6916152 -0.7063273 0.108438164
0001e0 37 9f 36 be 91 07 29 3e 85 38 8c 3e b6 b1 1d 3f
       -0.17834173 0.16506793 0.2738687 0.6159929
0001f0 8d 9b 97 bf 9b b6 f7 bd 2b dd 45 bd e1 5c f9 3d
       -1.1844345 -0.12095376 -0.048306625 0.12175918
000200 64 6c e0 3e 1d c8 13 bf ab 41 60 3e 96 8d db bd
       0.43832695 -0.57727224 0.2190005 -0.10720365
000210 32 ed 00 be c1 46 4e be db 26 16 3f df 9c 40 be
       -0.12590483 -0.20144178 0.5865304 -0.18809842
000220 98 1d 70 3e 1a 72 1f 3f 8c 8e f9 3e 34 97 ff 3e
       0.23448789 0.6228348 0.48741567 0.49920046
000230 57 fa 81 3e 50 9c ac 3d d3 c5 f8 bc ba b4 8e 3d
       0.25386307 0.08428252 -0.030367767 0.069680646
000240 52 da 3e 3c 98 81 87 3e 03 1f 91 bc 41 04 a5 be
       0.011648731 0.2646606 -0.017714983 -0.32229808
000250 64 65 08 3d 57 14 9e bd 9f 4a e5 bc 6b ec bc be
       0.03329982 -0.07718723 -0.027989684 -0.36899123
000260 0d 0d 7e be 33 df e7 be 64 5f b9 be f6 8b db be
       -0.24809666 -0.45287475 -0.3620559 -0.4288022
000270 97 5c 20 bf 6b ae bf be f9 bb fc 3e 81 6b 4d 3e
       -0.6264128 -0.37437758 0.49362162 0.2006054
000280 e5 7f 52 3e 60 c1 f4 3e 7d 02 46 bf bf 26 b8 3e
       0.205566 0.47803783 -0.77347547 0.3596706
000290 94 31 db bd 29 1e 08 bf bd 2e cc bd 87 4d 71 be
       -0.10702816 -0.5317102 -0.09969852 -0.2356473
0002a0 64 88 a0 3e ed 1c c7 3d 27 ef 85 bf ff ba 65 3e
       0.31354058 0.09722314 -1.0463609 0.22434615
0002b0 37 19 17 bf 8a 6b a5 3e 7a 52 47 3f 7d f8 a9 bd
       -0.5902285 0.32308608 0.77860224 -0.082993485
0002c0 ef 5f 6e 3e b6 19 16 3f 65 b0 e8 3c 38 de 53 3c
       0.23278783 0.5863298 0.028404424 0.012931399
0002d0 58 f9 49 3f 1c 39 87 3f 1c f1 54 3e 6d 7e 9c 3e
       0.78896093 1.0564303 0.20795101 0.30565205
0002e0 ff 0c 0b 3f 0b 2e 16 3e 7d e3 5b 3f 34 89 6c be
       0.54316705 0.14666001 0.85893995 -0.23099214
0002f0 61 6e b6 3e de d6 7d bf 5f d0 c9 3e 99 4c 29 3f
       0.35631087 -0.99155986 0.39416787 0.66132504
000300 e2 4d 84 3f c4 b3 91 3e d6 a0 0f be 5c b7 f4 3d
       1.0336268 0.28457463 -0.14026198 0.119490355
000310 80 3f e7 3e c7 c2 31 bf f1 30 d0 be ac 98 fa 3d
       0.45165634 -0.6943783 -0.4066234 0.12236151
000320 08 71 67 3e 42 98 86 3f 05 94 50 bc 26 5d ff 3e
       0.22601712 1.0515215 -0.012730603 0.49875754
000330 1d 90 79 3e a3 d4 1d 3e 13 0a 34 3f d6 13 12 bf
       0.24371381 0.15413146 0.7032787 -0.5706152
000340 c1 80 45 be b4 19 3c bf 05 05 3f 3d 3f 76 87 3e
       -0.19287397 -0.7347672 0.046635646 0.26457402
000350 f5 8a 10 3e 38 36 ec 3e be 59 a2 3c d9 4e 00 be
       0.14115508 0.46135116 0.019818183 -0.12530078
000360 4a dd 37 bf 4e 92 0d 3f 00 21 04 3f f0 97 7f 3e
       -0.71822035 0.5530137 0.51612854 0.24960303
000370 9b 70 82 3f 5a 85 39 be f0 af 82 3d cf 0f d7 be
       1.0190614 -0.18117276 0.06381214 -0.42004248
000380 29 2c 76 3e e2 24 d1 be 2a 6d 8f 3f a6 b0 5b bd
       0.24040283 -0.40848452 1.1205189 -0.053635262
000390 97 4a a8 3e 3f c6 18 bf a6 51 f3 3e b1 08 c1 3e
       0.32869408 -0.596775 0.4752323 0.37701944
0003a0 3d d5 29 3f 91 60 d0 3e 73 3a 66 3d 09 05 f0 bc
       0.66341 0.40698674 0.056208085 -0.029299276
0003b0 c0 6a 49 3d 95 b6 3b 3e 68 f1 2a bf e2 ee ff be
       0.04917407 0.18331368 -0.66774607 -0.4998694
0003c0 ca 1c 25 bf c0 4f 6a 3d 1e f0 85 3d 9f 2b 79 3e
       -0.64497054 0.05720496 0.06539939 0.24333046
0003d0 5a 5d b1 3e 9d fa 25 3f 24 31 1a bf a4 19 2c 3e
       0.34641534 0.6483553 -0.6023123 0.16806656
0003e0 4d 5b d0 be 4e 84 50 3f fc b2 d9 3e cf 28 e6 3e
       -0.40694657 0.8145188 0.42519367 0.4495301
0003f0 b5 13 41 3e 50 24 3e 3f c7 73 08 be 83 71 de be
       0.18855174 0.7427416 -0.13325416 -0.43445978

network_body.linear_encoder.seq_layers.0.bias f4 [128]
000000 ec ad 5c bc 22 10 6b bb 07 48 7f bb ef bc fe 37
       -0.013469201 -0.003586777 -0.0038952844 3.0367139e-05
000010 89 23 21 bb 32 1e fd 3a 45 9c de 3b 3f 5f ec 3b
       -0.002458783 0.0019311367 0.006793531 0.0072135027
000020 13 a3 01 bc 3e f8 9a 39 22 a3 43 3c 1e a4 93 bb
       -0.007912415 0.00029558124 0.011940749 -0.0045056483
000030 57 86 ae 3b 51 d8 6f bc 26 cc b6 3b c9 d6 1a 3a
       0.005326073 -0.014638976 0.0055785356 0.0005906639
000040 74 b9 fe ba 2a 9c a4 ba 79 cd 48 3b df 83 40 3b
       -0.0019433931 -0.0012558748 0.003064005 0.0029375476
000050 72 47 0f 3b c6 fb 92 3b b3 0b b2 3a 03 c0 c5 bb
       0.0021862653 0.00448558 0.0013583809 -0.0060348525
000060 2a 4c 10 bb 8c 55 02 39 5e b7 37 ba 10 8c d9 bb
       -0.0022018054 0.00012429635 -0.000700822 -0.006639011
000070 71 58 84 bc 93 03 7a 3b 87 c5 34 ba b4 1f 3b 3c
       -0.016155453 0.0038149103 -0.0006895889 0.011421133
000080 f5 21 d6 bb a9 4d 03 3b ce f0 c4 bb fb a7 b9 3a
       -0.0065348097 0.0020035303 -0.0060101515 0.0014164442
000090 50 65 e2 3b ec ac 05 3c e5 76 0f bb ed 7a 0c bb
       0.00690905 0.008158904 -0.0021890935 -0.0021435574
0000a0 d2 1f 39 ba 14 72 81 bb d8 c6 c9 bb 45 dd 42 3b
       -0.00070619315 -0.0039503668 -0.006157737 0.0029733938
0000b0 a7 f0 4a bb 4b b3 f4 b9 c6 a7 1e bc 14 14 95 3a
       -0.0030966194 -0.0004667289 -0.009683555 0.0011373782
0000c0 34 d3 4a b9 1d 6c f0 38 68 9b c6 3b 9e 5e 8d bb
       -0.000193429 0.000114642295 0.0060610063 -0.0043142578
0000d0 b9 1c 3b 3c e9 eb f1 ba b8 9c e8 3b 24 cb 64 bc
       0.011420422 -0.0018457148 0.0070987605 -0.013964448
0000e0 6e a1 9c bb 4d a8 b3 3b 93 63 84 bb c0 8a 88 3c
       -0.004779986 0.0054827095 -0.0040401905 0.016667724
0000f0 0d d6 d5 3b 4f e2 2e b9 8d 66 3d 3b d8 47 98 bb
       0.006525761 -0.0001667824 0.0028900236 -0.0046472363
000100 10 b7 d5 bb d5 65 a0 3b 82 67 61 bb 4f d3 89 bb
       -0.006522067 0.004894952 -0.003439397 -0.004206098
000110 43 34 58 ba 66 5f 7f 3b 59 42 80 bb da d4 5e 3a
       -0.00082475337 0.0038966774 -0.0039141593 0.0008500345
000120 0f 33 94 ba 9d 9a 59 bb 9b d3 9d 3b 05 92 c7 39
       -0.001130672 -0.003320373 0.004816485 0.0003806503
000130 22 d9 fb 3a ef a9 17 39 bd 8c c6 bb 1b 87 ab bb
       0.0019214491 0.00014463787 -0.006059258 -0.0052346117
000140 f7 86 ae 3a 42 ad 40 bb 5b cb bc 3b 84 7a 93 39
       0.0013315369 -0.0029400145 0.0057615465 0.00028129306
000150 12 2e 7b bb 7e e8 c1 38 b4 54 dc 3a 10 b0 85 3a
       -0.003832702 9.246262e-05 0.0016809911 0.0010199565
000160 90 f8 60 bb 28 f0 23 bb 5e 98 02 bb 94 6a 56 bb
       -0.0034327842 -0.002501497 -0.0019927244 -0.0032717334
000170 ea ba 65 b7 72 3c 52 bc 1d 36 5b 3b d1 ec b5 bb
       -1.3692983e-05 -0.012831794 0.0033449002 -0.0055519124
000180 af 49 99 bb 87 05 08 bc a1 ca a3 b9 a1 2e 02 3b
       -0.004677973 -0.008302099 -0.00031240753 0.0019864219
000190 50 ee 1e bc 8b 38 41 ba 99 48 c1 3b 71 27 6d 3a
       -0.009700373 -0.0007370791 0.005898547 0.000904671
0001a0 66 c8 6d bb 64 2c 21 bb d6 a4 63 3b 9c 8e 68 bb
       -0.0036282777 -0.002459311 0.00347357 -0.0035485392
0001b0 f0 d4 48 3a c1 a5 88 3b ed 8e 9a 3b 1f e9 85 ba
       0.00076611247 0.00417015 0.004716745 -0.001021657
0001c0 5e d1 33 bb c8 01 9d 3b 0d 7c 74 3a 3e 71 a4 bb
       -0.0027438025 0.004791472 0.00093263463 -0.0050183823
0001d0 d0 f7 61 ba b1 42 ea bb 42 12 00 bc 06 44 8a 3b
       -0.0008619996 -0.0071490635 -0.007816853 0.004219535
0001e0 8a a7 0b 3b 7a 64 f3 3b 18 17 b1 ba f5 8e 8c 3b
       0.0021309578 0.007427749 -0.0013510911 0.0042895027
0001f0 e9 e5 fd 3a 27 ef 83 3a d1 b5 2c 3b da 16 6e bb
       0.0019370887 0.001006578 0.0026353488 -0.0036329539

network_body.linear_encoder.seq_layers.2.weight f4 [128, 128]
000000 48 af 69 bd 31 f5 9b 3d e1 9e 54 bc 4c c0 72 bd
       -0.057051927 0.07615126 -0.012977333 -0.05926542
000010 48 3e ae bc ae 6e 58 3d ca e5 e5 3d 86 e5 63 be
       -0.021269932 0.052839927 0.112254694 -0.22255525
000020 de 32 01 be 37 21 0c be 1c 66 15 3d ac ea 07 3d
       -0.1261706 -0.13684545 0.036474332 0.033182785
000030 3b 83 92 3c 3b 58 6d bd c8 cc da 3d 18 ca 3b 3b
       0.017884841 -0.05794547 0.1068359 0.0028654393
000040 38 2a c3 bd 5e 70 65 3c 65 5a da bb cf a3 96 be
       -0.09529537 0.014003841 -0.006663608 -0.2942185
000050 4e b2 93 3d 7f 0e c7 bb 24 e0 0e bc 15 23 0f 3e
       0.07211743 -0.006074726 -0.0087204315 0.13978226
000060 24 3f 16 3d ce 8d 25 3c e2 c8 d4 bc 7c 35 60 3c
       0.03668131 0.01010461 -0.025974695 0.013684627
000070 34 10 09 3c 6d 67 9e 3d e6 89 0f be d1 03 02 be
       0.0083656795 0.07734571 -0.14017448 -0.12696768
000080 e4 88 50 3d a2 d6 73 bd e7 c0 f3 bd 05 4d 69 ba
       0.0509118 -0.05953086 -0.119020276 -0.00088997214
000090 8c c0 96 bc dc 8c 25 3d 5a f2 c0 bc 2c 08 c0 bd
       -0.01840236 0.040417537 -0.023553062 -0.09376559
0000a0 80 9f d5 bd 50 fb d3 bd ba c6 44 bd e7 df 06 bc
       -0.10430813 -0.103506684 -0.048041083 -0.008232093
0000b0 6e d4 4a 3c d5 09 10 3e c4 af 3e 3d 7f e0 a2 3c
       0.012379749 0.1406625 0.046554342 0.019882439
0000c0 8a ec 9e bd 29 ad 2e bd 2d 53 21 3e 6d 5b 56 3d
       -0.0775996 -0.042645607 0.15754385 0.052333284
0000d0 c1 41 ea bd 8a 6f 52 3c a6 03 86 3d 8d 6c 61 3d
       -0.11438323 0.012843976 0.06543665 0.055035163
0000e0 db 03 d9 3c 54 96 b2 3b 4c 55 ab 3c 32 03 92 bc
       0.026491096 0.0054500494 0.020914696 -0.01782379
0000f0 ff e6 17 be ed eb 24 be 04 1d a8 3c 67 bd a9 3d
       -0.14834212 -0.16105624 0.020521648 0.08288079
000100 f3 3c 9e 3d 4e fc bf 3b 13 8c e4 bd 97 27 33 bd
       0.07726469 0.0058589345 -0.111595295 -0.043738928
000110 0e 2d b1 3d fa 80 4c bd 3d 10 01 be 61 2b 77 bc
       0.086511716 -0.04992769 -0.1260385 -0.015086026
000120 f5 86 40 3d 38 da b5 3d 89 5e 5d 3d 0d 62 ad 3d
       0.047003705 0.088795125 0.054045234 0.08465967
000130 b3 98 49 3d 1f bf 85 bd cc 19 b0 bc 83 21 80 3e
       0.04921789 -0.06530594 -0.021496676 0.25025567
000140 c7 4e 53 3d c0 6b bf 3d e4 a2 21 bd 6d 1c 82 bd
       0.0515888 0.093467236 -0.039461985 -0.06353078
000150 36 8a ce 3d c3 4b 6b bd 3f bd d9 ba f4 2b fe bd
       0.100849554 -0.0574453 -0.0016612186 -0.12410727
000160 dd 1b a9 39 c1 20 c2 3d 99 ae 04 bc 9a 9a 1b 3e
       0.00032254952 0.094789036 -0.008098268 0.15195695
000170 ef 59 0f bd f9 64 e8 3b f1 eb 0f 3e e4 4a 76 3d
       -0.034997877 0.007092115 0.14054848 0.060130015
000180 ba 88 6b bc 46 c8 f1 bd 5d 11 98 3b 52 41 55 bc
       -0.01437586 -0.11805777 0.0046407417 -0.013016062
000190 71 fd 0f bc 21 e9 09 be bd 83 f6 3a 60 29 17 3d
       -0.0087884525 -0.13467838 0.0018807572 0.036904693
0001a0 5c 28 2f be 0e 79 1b 3d 11 45 41 3e ae 52 23 3e
       -0.1710524 0.037957244 0.18874003 0.15949509
0001b0 4e b4 0f be 58 1d ab bc 30 10 0f 3e 60 59 8f 3c
       -0.14033625 -0.020888016 0.13971019 0.017498672
0001c0 6a d9 60 bd c0 ee 4c bd 16 59 41 be 94 de 23 3e
       -0.054894842 -0.050032377 -0.1888164 0.16002876
0001d0 98 9e d9 bd 8e 6a d6 bd f1 09 41 bd f0 eb 9e 3c
       -0.106259525 -0.104695424 -0.04712862 0.019399613
0001e0 fb 34 40 3d bd 21 90 3d 2e 20 85 be d5 60 8e bc
       0.046925526 0.07037685 -0.26001114 -0.017380157
0001f0 18 f1 04 3d a3 dc 21 be 10 e9 0d 3e 3f 31 11 3c
       0.032456487 -0.15806822 0.13858438 0.008861839
000200 fd 1b eb 3d bf e3 7d bd 22 63 98 bd 4e 2d 64 bc
       0.11479948 -0.061984774 -0.07440783 -0.013926817
000210 16 e5 d7 bd cd 77 5a 3d 4d fd 8e bc a9 e2 ea 3c
       -0.105417415 0.053336907 -0.017454768 0.028672533
000220 52 6d 83 3b c4 f9 04 3c 0f bb 1d 3d b4 58 43 be
       0.0040108347 0.008116189 0.03850847 -0.19076806
000230 bd aa 3b be 90 8a 18 bd ac df 95 bc 07 44 b4 3d
       -0.1832685 -0.03724152 -0.018295132 0.08802038
000240 e4 75 f7 bd 33 7c 0a bc 09 c2 41 bd 7b 5e 20 3d
       -0.12083033 -0.008452463 -0.047304187 0.039152604
000250 29 f9 0a bd 96 51 bc 3c cc 4b 18 be 08 8f e6 bc
       -0.033929024 0.022988122 -0.14872664 -0.028144374
000260 68 9e ae bc 2d 5a a4 bd 66 de 14 3e b5 f8 44 3e
       -0.021315768 -0.08025012 0.14537963 0.19235499
000270 1c 2c 17 3e 01 10 c3 bd 42 05 cb 3d 74 63 e8 3c
       0.1476292 -0.09524537 0.09913112 0.028367735
000280 2d ed a1 bc 99 6f 48 bd 52 b2 22 3e 2c d7 94 3d
       -0.019766415 -0.048934553 0.15888336 0.07267603
000290 50 d1 1b be c3 3d 12 3e 2d 28 27 3e 04 81 d2 bc
       -0.15216565 0.14281373 0.1632392 -0.025696285
0002a0 23 80 b2 3d fa 4b 3d bd d2 19 1b 3b a6 49 be 3d
       0.087158464 -0.046215035 0.0023666513 0.09291391
0002b0 ae c8 f2 bc 16 44 09 3e 49 61 1b be 2f fe 23 3d
       -0.029636707 0.13404879 -0.1517383 0.04003733
0002c0 77 f0 79 3d 9c 6d 7d bd 6f 4f f4 3d 97 90 98 3c
       0.06102034 -0.06187211 0.11929213 0.018623633
0002d0 d8 26 1d bd d3 12 ba bd 4e 56 c5 bc 42 71 51 bb
       -0.038367122 -0.09085622 -0.024089005 -0.0031958376
0002e0 90 32 56 3d eb 37 67 3c a4 3e e9 bd 93 57 56 be
       0.052294314 0.014112453 -0.11388901 -0.20931844
0002f0 a7 eb a4 bc 46 1b 2b 3d c4 3a 06 3e cb 2a 78 bd
       -0.020131899 0.041774057 0.13108355 -0.060587686
000300 cb a6 62 bc 5f 17 24 bd 4a ef 30 3d 6f d2 00 3e
       -0.013833712 -0.04006135 0.043196954 0.12580274
000310 0a 9e 2a 3e 54 7f 60 3d 28 03 4b 3e 9b 29 9c 3d
       0.1666185 0.05480893 0.19825423 0.07625123
000320 63 eb f6 3c 53 2a b2 3c 35 9b fb bd 77 ac f2 3d
       0.030141538 0.021748697 -0.12285463 0.11849301
000330 61 86 a7 3d 3e e5 f4 3d bf 9c 46 be cb 01 e9 bb
       0.081799276 0.11957787 -0.19395731 -0.0071108094
000340 26 56 e9 3d 06 fe 44 bd c8 60 97 bd 3a cf c8 bc
       0.11393385 -0.048093818 -0.073915064 -0.024512876
000350 35 a0 1b be 65 fb 6d bc 99 df 72 bd 54 18 78 3c
       -0.15197833 -0.014525269 -0.05929527 0.015142519
000360 1a 7e ab bc da 40 13 3e e0 ba bc 3d 34 ae 12 3e
       -0.020934153 0.14380208 0.09215331 0.14324266
000370 91 c7 ff bc eb 88 52 3d 2d 22 d4 3d c4 17 09 bd
       -0.03122309 0.051400106 0.10358081 -0.03346993
000380 45 5c f9 bd 39 14 00 3e a2 95 15 be 3b a5 59 bd
       -0.12175802 0.12507714 -0.14607862 -0.05313609
000390 9c 7b 19 3e 75 e8 b3 3d 72 66 37 3e c3 7e be 3d
       0.1498856 0.08784572 0.17910174 0.09301522
0003a0 0f 3f 2c 3e 62 59 8f bc a5 f4 b0 3d 49 64 96 bd
       0.1682093 -0.017498676 0.08640412 -0.073433466
0003b0 bc 8f be bd d0 d1 f6 bd bc 09 25 bc b6 20 dc 3d
       -0.09304759 -0.12051737 -0.010073122 0.107484266
0003c0 8b 35 a8 bd 2e f0 e3 bd 43 43 4d bd f0 b1 b1 3d
       -0.082133375 -0.11129795 -0.050112974 0.08676517
0003d0 31 bd aa bd bc 58 39 3d 37 24 1b 3e 88 36 08 bb
       -0.08336867 0.04525064 0.15150534 -0.0020784456
0003e0 1f f0 dd bc a2 f5 a6 bd 54 fa b7 3d cc cd 82 ba
       -0.027092038 -0.081523195 0.08983293 -0.0009979545
0003f0 e4 4c 67 3d 3c 60 b5 bc 8d 33 8d 3d 58 a2 e9 bd
       0.056469813 -0.022140615 0.06894598 -0.11407918

network_body.linear_encoder.seq_layers.2.bias f4 [128]
000000 2f 73 1e 3b 81 7a 2d bb c9 07 60 3b c0 2c 38 3b
       0.0024177541 -0.0026470723 0.0034184328 0.0028102845
000010 8b 5b be 3b 4d d2 f5 3a 5e 3f fc 3b 96 7b 0d bc
       0.0058092526 0.0018754691 0.0076979836 -0.008635422
000020 80 4b 4f 3b ef 8e 94 bb 15 5d b2 bb 13 00 ba 3a
       0.0031630695 -0.0045336406 -0.005443225 0.0014190696
000030 d1 59 db ba 76 b5 7b bb c5 36 f2 ba 57 0d d7 ba
       -0.0016735141 -0.003840772 -0.0018479457 -0.0016407174
000040 82 8c 54 3b 0f 7e f0 3a ee b7 b0 b9 c7 4e 19 ba
       0.0032432382 0.0018348115 -0.00033706374 -0.00058482256
000050 91 15 82 3a f3 a7 9b 3b be 08 17 3c e8 c9 50 3b
       0.000992464 0.0047502457 0.009218393 0.0031858627
000060 1a bf b7 3b 2d 83 eb 3b 56 5a 97 3b c9 8e 23 bb
       0.005607498 0.007187268 0.004618923 -0.0024956933
000070 26 0e 53 ba b6 01 f3 bb bb aa 52 bb ca 01 11 bc
       -0.00080511195 -0.0074159754 -0.003214522 -0.008850524
000080 a5 40 9f 39 0f d0 8b 3b d9 e9 d2 bb 36 c1 eb 3b
       0.00030375007 0.004266746 -0.006436568 0.0071946634
000090 7c d6 dc 3a 39 d7 86 ba 46 f0 9b 3b 1f 94 90 3a
       0.0016848589 -0.001028753 0.0047588674 0.0011030472
0000a0 9b eb 00 bc df 81 b0 3b 7f b0 09 3c 2a d1 3e bc
       -0.007868673 0.0053865756 0.008403896 -0.011646548
0000b0 d8 4a a2 bb 53 60 cb bb fe 98 2f bb bf 9f 71 bb
       -0.0049527697 -0.006206551 -0.0026794071 -0.0036868898
0000c0 b4 5e f0 bb 14 be 62 bb 2b fb 0b bc dc dd 5f bc
       -0.0073355082 -0.0034598159 -0.00854377 -0.013663735
0000d0 55 06 b1 3b 78 db ca 3a e7 c7 cf 3b db 26 cb 3a
       0.005402366 0.0015476784 0.006340969 0.0015499251
0000e0 db 47 f9 bb 72 b6 40 bb 65 65 8e 3b ce 86 04 3a
       -0.007607443 -0.002940562 0.0043455833 0.0005055488
0000f0 b8 f6 89 bb 9a 87 f9 b9 a2 ba 73 3a e6 0a dc 3b
       -0.0042103194 -0.00047594012 0.0009297525 0.0067151664
000100 34 7f 18 39 87 2f 90 ba db 1c a7 3b 09 e2 d5 bb
       0.00014543236 -0.0011000492 0.0050998754 -0.0065271896
000110 4f 7f 9c bb 5f 14 b2 bb b4 e6 07 bc 6d 38 70 bb
       -0.0047759186 -0.0054345573 -0.00829475 -0.0036654726
000120 8d d6 14 3b c0 84 f3 ba 2e ce 3c bb a9 19 df ba
       0.002271089 -0.0018578991 -0.0028809416 -0.0017021197
000130 ab ce 2b 3c 87 84 c0 bb 9b 38 88 3b ea d5 6c 3b
       0.010486285 -0.0058751735 0.0041571385 0.0036138245
000140 26 fd 1c bc d9 3d c6 3b dd ae 8a 3b 31 59 b4 3a
       -0.00958184 0.0060498533 0.004232271 0.0013759491
000150 6d af 97 3b 03 2f 93 3a 82 5f f2 ba 03 b0 d3 39
       0.0046290667 0.001122922 -0.0018491598 0.00040376195
000160 d3 4b b7 3b 6c 9b d3 b9 4d 8d b5 b9 a6 cd 85 ba
       0.0055937557 -0.00040360854 -0.00034628288 -0.0010208383
000170 83 b9 36 3a 3a 2d a5 bb ec d7 83 3b c0 71 30 bb
       0.00069703924 -0.005040792 0.0040235426 -0.002692327
000180 1d ad ba bb 9b 7f 7a bb 36 28 f8 bb ec 9c 85 3b
       -0.0056969062 -0.0038223031 -0.007573153 0.0040775444
000190 05 2f 30 bb 83 3f a2 ba 77 82 22 3b 79 56 93 3a
       -0.0026883495 -0.0012378547 0.0024797001 0.0011240981
0001a0 48 f5 82 3b ee 70 c1 3b ae f6 2c 3b c8 b2 37 bb
       0.003996525 0.005903355 0.002639215 -0.0028030146
0001b0 f3 51 97 ba 96 bd e3 bb ce 74 84 3c ea 96 fa 3b
       -0.0011544809 -0.0069500906 0.016168978 0.007647385
0001c0 09 76 95 3b 74 cf 7f bb 50 11 be bb 0b 96 58 3c
       0.00456119 -0.0039033564 -0.0058004037 0.013219367
0001d0 48 4c ba bb a4 be af bb ba 77 44 39 a7 56 46 bb
       -0.005685363 -0.0053633023 0.00018736618 -0.0030264051
0001e0 00 5e dc 3b d5 02 f2 bb 15 12 3e 3c 06 5a bc bb
       0.006725073 -0.0073855915 0.011600991 -0.0057480363
0001f0 4d d5 82 bc 1b 5c d0 39 09 f5 48 bb 03 86 ae 3a
       -0.01597085 0.00039741475 -0.003066363 0.0013315085

action_model._discrete_distribution.branches.0.weight f4 [3, 128]
000000 e3 77 93 3c 73 51 65 bc 10 0a bf 3c f3 4e 11 3b
       0.018001502 -0.01399647 0.023320228 0.0022172302
000010 72 ed 74 3c 3b 43 29 bc 9f c1 f6 3b 25 85 e5 bb
       0.0149491895 -0.01033097 0.0075304057 -0.0070043975
000020 f8 50 80 3c 9c 7b 23 bc 62 c2 bd bb a4 3a dd bb
       0.015663609 -0.009978201 -0.0057909945 -0.0067513753
000030 1f 3b a7 3a 33 61 27 3b a5 b5 66 ba a5 73 51 bc
       0.0012758708 0.0025540113 -0.0008800871 -0.012783919
000040 31 d9 a4 bb ed e2 a9 3c 13 d4 44 bc 70 9f ed 3a
       -0.005030774 0.02073809 -0.012013453 0.0018129181
000050 9b 59 2b bc 3d ef 80 3c 58 61 8d 3b 82 fe a3 3b
       -0.010458375 0.015739078 0.004314583 0.005004705
000060 37 c7 a2 bc d7 ca be bb 73 a5 cd 3c f6 b4 b4 3b
       -0.019870384 -0.0058225202 0.025103306 0.0055147363
000070 1c 30 c8 bc ae 05 ae bc e8 45 71 bb c4 19 27 bc
       -0.024437003 -0.021242943 -0.003681535 -0.010199014
000080 0b 2d d0 3c 4c 18 23 bc 9d 25 14 bc 93 20 ed 3b
       0.025412103 -0.009954523 -0.009042171 0.007236549
000090 6b 14 03 3b 9a b5 85 bb 83 d1 06 bc 6a 50 89 3b
       0.0020001184 -0.0040804865 -0.008228662 0.0041904943
0000a0 1c a8 32 bc 0c 5b ab 3c d7 a6 71 3a c1 8d e9 3b
       -0.010904338 0.020917438 0.00092182815 0.007127494
0000b0 bd 70 36 3c e8 3c f9 37 b7 15 22 bc 05 73 21 3c
       0.011135277 2.9711475e-05 -0.009892873 0.009854083
0000c0 fb a8 87 bb e4 49 1d bb f3 d0 c3 bc eb ff e0 3b
       -0.004140017 -0.002400034 -0.023903346 0.0068664453
0000d0 30 5d c8 3b 24 0d 4e bc 3a 45 a9 3c eb 4b 54 3b
       0.0061146244 -0.012576375 0.020662893 0.0032393883
0000e0 eb 09 8c bb 4c 39 2a bc c8 3e 92 3c 35 89 c5 bb
       -0.0042736433 -0.010389637 0.017852202 -0.0060283192
0000f0 6b ae 8a bb 94 19 21 bc 73 32 8a 3a e0 e1 52 3c
       -0.004232218 -0.009832758 0.00105436 0.012871236
000100 dc 7c 9c bb c0 9a 24 3b be b1 8e bb 8d f7 bc ba
       -0.0047756266 0.0025116652 -0.0043546846 -0.0014417038
000110 30 56 8d 3b 2f 07 90 bc 26 81 8e bc ce d8 57 bc
       0.004313253 -0.01758155 -0.017395567 -0.013174249
000120 09 47 aa bb 43 7c 09 3c 12 3f b8 bc d1 b1 15 bc
       -0.0051964563 0.008391443 -0.022491012 -0.009136633
000130 73 f2 f2 3b 4a 24 d1 3b b6 cf 56 bb 4e ee 57 3c
       0.007414156 0.0063825 -0.0032777614 0.013179375
000140 f2 a4 eb 3a 41 e5 be 3c 09 6c 1b bc 6c 57 4d bc
       0.0017978235 0.023302676 -0.009486207 -0.01253305
000150 37 a3 b3 3c 14 e0 82 3c ca 89 9f bc 88 9d 13 3c
       0.021928413 0.01597599 -0.019474883 0.009009726
000160 64 a3 06 3c 5c ad da 3b fd 12 1e 3c 9c a0 43 bc
       0.008217666 0.006673498 0.009648082 -0.011940148
000170 81 b3 13 bc 89 6a ad bb f2 04 7c 3b 63 06 64 bc
       -0.009014965 -0.005292241 0.0038455096 -0.013917538
000180 bb 97 81 3b e0 f0 05 bb ab 92 7a bb de 4f e2 bb
       0.0039548553 -0.0020437762 -0.0038234394 -0.0069064936
000190 77 72 b9 bb e1 92 09 bc c7 29 8c 3c e6 54 dd bb
       -0.005659397 -0.008396835 0.017109765 -0.0067545054
0001a0 22 8d 89 3b 78 f0 82 bb 79 2c 0b 3c 60 1f 67 3b
       0.0041977325 -0.0039959513 0.00849449 0.0035266504
0001b0 9c be 04 bc de 85 09 bb 5b 88 78 bb 79 38 0b bb
       -0.008102085 -0.0020984332 -0.003792307 -0.0021243377
0001c0 b7 26 8e 3c 56 5c 5f bb 52 12 1f bc 07 38 51 3c
       0.017352445 -0.0034082136 -0.009708958 0.012769706
0001d0 d0 39 89 3a 7d 40 91 bc de d3 6c bc 7b 51 6c 3b
       0.00104695 -0.017730946 -0.01445481 0.0036059308
0001e0 48 ed 21 bc 01 24 9b 3c 1b db c8 bb 51 5b de bb
       -0.009883232 0.018938066 -0.006129635 -0.006785788
0001f0 2e 4c ef bb 72 95 66 bb dc 30 2f 3b d4 9c 61 ba
       -0.0073027825 -0.0035184291 0.0026732003 -0.0008606438
000200 92 69 75 bc 93 70 29 bc e6 28 3f bc ec dc 81 bc
       -0.014978783 -0.010341781 -0.011667466 -0.015852414
000210 83 67 42 39 48 4a 7b 3c 20 83 80 bb 31 97 90 bb
       0.00018539843 0.015337534 -0.0039218813 -0.0044125547
000220 dd 47 c7 bb 61 7f 9a 3c d9 85 10 3c 61 ca 9d 3b
       -0.006081565 0.018859567 0.008820974 0.004815385
000230 50 a4 3a 3c f0 22 7d 3c 7e ba 11 bc 18 eb 7f 3c
       0.011391714 0.015450224 -0.008894561 0.015620016
000240 ce c7 4a bc 37 1c 8a bc 6b b1 6b bc 3e a0 49 bc
       -0.012376739 -0.016859157 -0.014385561 -0.012306271
000250 53 4e 15 3c be 74 a7 bc e2 be b2 3c 2c 35 94 bc
       0.009112912 -0.02044141 0.021819536 -0.01809176
000260 63 11 47 3c 41 8c 03 bc d9 51 7c bc 46 78 4e 3c
       0.012150141 -0.008029045 -0.015400373 0.012601918
000270 2c ed 11 3c a0 db 50 3c 0b 4d b5 bb e9 37 f1 ba
       0.008906644 0.012747675 -0.005532866 -0.0018403503
000280 ba 75 e2 3b 6c ef 69 bc 46 7a a3 3c fe 68 1b bc
       0.0069110068 -0.014278274 0.019955765 -0.009485481
000290 b8 43 e8 3b 0c 18 62 3b d8 96 a6 3a 70 47 90 bc
       0.007088151 0.0034499196 0.001270975 -0.017612189
0002a0 fc b6 a5 bb c9 a4 70 bc 98 90 f8 bb 92 72 b4 3c
       -0.005057214 -0.014687725 -0.0075855963 0.022027288
0002b0 2c 10 9e 3c 85 34 51 3b 83 74 82 3c 31 5c 1f bb
       0.01929482 0.0031922173 0.015924698 -0.0024316425
0002c0 9b 3e d9 bb ca ad ba 39 e8 15 81 3c e8 78 57 3c
       -0.0066297776 0.00035606168 0.015757516 0.013151385
0002d0 a1 f7 dc bc 58 d4 e2 3b b7 5f b5 bc d0 07 61 bb
       -0.026973547 0.006922286 -0.022140367 -0.0034336932
0002e0 78 d9 ec bb 83 9f d9 3b 09 71 51 3c 59 d6 24 3b
       -0.0072280727 0.0066413297 0.012783297 0.0025152175
0002f0 ce 95 a6 39 55 28 b9 3c 31 15 d7 3c bb 7f ab bc
       0.000317736 0.02260224 0.026255222 -0.02093493
000300 72 5d d0 bb 9f 0b 2d bb dc 6b 52 bc f8 b2 a2 3b
       -0.006358796 -0.0026404632 -0.0128430985 0.0049651824
000310 54 2f 07 3d 35 0d 93 3c 1d b8 a5 3c f6 a9 45 3c
       0.03300412 0.017950634 0.020229394 0.012064448
000320 a4 57 43 3a e6 37 4a 3b b2 ed 41 3c 9b 58 ce 39
       0.0007451719 0.0030856072 0.011836456 0.00039357398
000330 a5 7f 7a 3c d8 05 ad bb e5 09 2c bc c5 70 43 bb
       0.015289222 -0.0052802376 -0.010500406 -0.0029821855
000340 98 44 ab 39 e9 a9 5f bc b7 d9 2d 3c b5 ed 1a 3c
       0.00032666768 -0.01365135 0.010610989 0.009456088
000350 2f 4b e4 3a a7 f0 fd 3a 5e c0 12 3c 56 c9 e6 bc
       0.0017417426 0.0019374088 0.008956997 -0.028172176
000360 82 4e 73 3c 93 c2 63 3c b2 5b 8e bb fe e9 30 3c
       0.014850261 0.013901371 -0.004344427 0.010797976
000370 cb f6 1c 3c 05 e6 c6 bc ff 1f 0c bc 5f b2 b9 3c
       0.009580324 -0.024279604 -0.00855255 0.022668062
000380 aa 49 e6 bb cc be d3 3b a7 5a 50 bc a9 cd 77 3c
       -0.0070278244 0.0064619537 -0.012716926 0.015124717
000390 2f 2c 0b 3c 5f c7 46 3c 82 55 44 bc 14 26 16 3c
       0.008494421 0.012132495 -0.011983277 0.009164352
0003a0 84 49 7f bc c8 6a b4 3c ad cb 6e bc 76 7a fa bb
       -0.015581492 0.022023574 -0.014574927 -0.007643993
0003b0 9d bc 89 bb a3 9a 25 3c f4 bc a0 3c cc 26 e3 3b
       -0.0042033927 0.010107669 0.01962135 0.006932115
0003c0 f0 70 87 bc 14 cd 67 3c 1f 5e f7 3b de 37 10 bc
       -0.016533345 0.0141480155 0.007549062 -0.008802382
0003d0 4e 9f 65 3b 27 b5 5d 3b 96 68 ca 3c cd 72 0f 3a
       0.003503758 0.00338299 0.024708074 0.0005472124
0003e0 dc b2 f2 3b 4a 9c 54 bb 24 68 9d bb f0 21 71 3c
       0.0074065756 -0.0032441788 -0.0048036743 0.014717564
0003f0 22 25 17 3c c6 72 8b 3c e6 a8 bd 3c 7c 40 91 bb
       0.009225162 0.017022502 0.023151826 -0.004432736

action_model._discrete_distribution.branches.0.bias f4 [3]
000000 2a bb 87 3b 0c 79 ed bb d1 b7 3d 3b
       0.0041421847 -0.007247096 0.0028948674

action_model._discrete_distribution.branches.1.weight f4 [3, 128]
000000 ef 9e 09 bc 88 eb 02 3c d0 25 19 bc ef 4e 66 3c
       -0.008399709 0.007990725 -0.009347394 0.014056905
000010 76 16 aa bb b5 8e d9 b8 00 2f ef ba e6 50 d1 3b
       -0.005190666 -0.000103739476 -0.001824826 0.0063878177
000020 57 be f1 bb d4 7b e3 3a 66 47 1a 3a 73 dd e4 bb
       -0.0073774266 0.0017355629 0.0005885273 -0.0069844066
000030 af 74 6f bc 3b 5c 82 bc e3 6f 83 ba b0 d9 06 bc
       -0.014615222 -0.01591312 -0.0010027852 -0.008230612
000040 48 75 4a bc 2b e2 19 bc 6d ca 09 bc 99 0b b2 bb
       -0.012357064 -0.009392302 -0.0084100785 -0.0054335115
000050 09 de e9 3b 74 06 d1 3c 7c e2 21 bb 9c 87 c5 bc
       0.0071370644 0.025515772 -0.0024701646 -0.024112515
000060 1c 3d 88 3b 58 25 23 3c 00 95 6b 39 3a d1 49 3a
       0.0041576754 0.009957634 0.00022466853 0.00076987187
000070 8f ae 95 3b a5 e3 12 bc ae 3a 6c bc 30 16 c5 3a
       0.004567928 -0.0089654075 -0.014418287 0.001503652
000080 fe 43 11 3c 03 30 6e 3c 49 80 94 ba 2e a9 af 3b
       0.008866308 0.014537814 -0.0011329736 0.005360744
000090 e9 31 bf 3b d3 c5 76 bb ac 24 4d bb bc 5a 34 3c
       0.005834807 -0.0037654534 -0.0031302376 0.011007961
0000a0 1b 96 88 ba bc 31 a4 bb 67 3a fe 3a 15 26 aa 3b
       -0.0010420711 -0.0050108116 0.0019396067 0.005192528
0000b0 d8 58 6a 3c e6 b2 49 bb a1 5c 14 bc 39 43 cb 3b
       0.014303409 -0.0030776798 -0.009055288 0.006203082
0000c0 12 82 51 bc b8 6f 72 3c d7 f2 0c 3c f2 43 90 bb
       -0.012787359 0.014797144 0.008602819 -0.004402631
0000d0 7f 6e 94 3b 32 55 2b bb 02 1e 10 bc 0e cb e9 3b
       0.0045297737 -0.002614331 -0.008796217 0.0071348017
0000e0 ab 99 26 3c 20 34 5f 3c e7 88 df bb 60 ac e5 3b
       0.010168473 0.013623267 -0.00682174 0.007009074
0000f0 97 8f 2f 3c 5f 99 6f 3b 4e ed bf 3a ad 10 7e bb
       0.010715387 0.0036559922 0.0014642866 -0.0038767264
000100 7f f1 96 3c 5b ec 2f 3c 5e d3 a3 b9 16 2a 9d bc
       0.018425701 0.010737504 -0.00031247264 -0.019185107
000110 59 a7 53 bc 83 c9 5f 3c 0d f6 0c 3c 64 fa 88 3c
       -0.012918317 0.013658884 0.008603585 0.016720958
000120 da 81 0e 3b 3b e8 47 3c 80 3c 58 3c 66 d0 14 bc
       0.0021744878 0.012201364 0.013198018 -0.009082889
000130 8b f7 08 bc c5 05 1e 3a 9f b6 81 bb 86 44 ff 3c
       -0.0083598 0.00060280814 -0.0039585377 0.031160604
000140 27 7a 51 3c f0 dd 10 bc bc 05 3f bc e7 80 65 3c
       0.012785471 -0.0088419765 -0.011659082 0.0140077835
000150 e6 cc 88 3b ce 73 95 bc b6 51 2d bc 01 5c 2a 3c
       0.0041748164 -0.018243697 -0.010578563 0.010397912
000160 4e 59 fc 3b 31 e1 4a 3c 31 9c 40 3c 06 40 f4 3b
       0.0077010756 0.012382791 0.011755989 0.0074539213
000170 65 99 9f 3c 50 29 48 bb 3d 09 9d bb 7c d7 97 3a
       0.019482324 -0.0030542202 -0.004792361 0.0011584605
000180 a5 ac 9f 3a d9 21 15 3c 71 c1 b0 3b f9 53 06 bc
       0.0012182189 0.009102308 0.0053941538 -0.008198732
000190 7d 27 a1 3b 67 45 77 bc dd eb 51 bc aa 6f 18 3c
       0.0049180374 -0.01509223 -0.012812582 0.009303967
0001a0 c8 5f 9b bc 24 39 31 38 d1 52 31 bc d8 b9 82 3c
       -0.01896657 4.2253305e-05 -0.010822968 0.015957758
0001b0 b2 6e 0c 3c 79 d4 96 bc 68 e4 59 bc d9 2a 13 3c
       0.008571314 -0.018411862 -0.013299085 0.008982384
0001c0 79 e9 83 3c c8 8c 27 bc 8f 8d c4 3a 60 df 9e bb
       0.01610254 -0.010226436 0.0014995801 -0.0048484057
0001d0 76 d8 41 bb ae 28 01 3a 49 df 3c bc 19 76 a6 ba
       -0.0029578484 0.0004927021 -0.011527845 -0.0012699991
0001e0 2f ea 1e bc a2 3b ec 3b 14 c1 8f 3c 8d d8 19 3b
       -0.009699388 0.007209257 0.017548122 0.0023475022
0001f0 10 90 a3 bb 00 45 67 3c 3e db 08 3c a4 b8 75 3b
       -0.004991539 0.014115572 0.008353053 0.0037494088
000200 da 0d 91 bc ea 34 9a bb 5a 88 bf b8 ac 25 45 bb
       -0.0177068 -0.004706015 -9.132987e-05 -0.0030082269
000210 fe 5e 3f bb 62 a0 ad bb 8a ed 7f bb 79 bb d6 bb
       -0.0029200907 -0.00529866 -0.0039051496 -0.00655311
000220 e6 b9 4e 3a ef d3 ca bb bb b3 2e bb 71 f6 1e 3c
       0.00078859774 -0.0061898152 -0.002665742 0.009702311
000230 c2 42 b5 bc 44 3a 15 bc 51 9b e1 ba 9a 78 4f bc
       -0.02212656 -0.00910813 -0.0017212426 -0.012663031
000240 c5 af 06 bc 1e 6c 99 3b 3d 9b cf 3b 51 42 88 3c
       -0.008220618 0.004682078 0.0063356445 0.016633185
000250 b5 48 3b bb 15 80 4b bc 50 88 b0 3b c5 94 b0 bc
       -0.0028577272 -0.012420674 0.0053873435 -0.021555314
000260 55 58 aa bb 81 94 c5 3a df ab 26 bc 25 57 ad b9
       -0.0051985183 0.0015074165 -0.010172813 -0.0003306206
000270 4e 59 d1 38 81 70 45 3b cd 15 58 bb eb 1f 8c bb
       9.982531e-05 0.0030126872 -0.0032971979 -0.004276266
000280 17 82 36 3c a3 72 2b bc 0f 52 09 bb 75 0c 86 bc
       0.011139414 -0.010464343 -0.0020953452 -0.016363362
000290 a1 d6 34 3c ad 85 58 bc e4 02 d9 ba 57 82 35 3b
       0.0110375 -0.013215465 -0.0016556648 0.0027696097
0002a0 16 17 16 3c b5 eb 81 bb a3 f0 9e bb 06 75 2b bc
       0.009160778 -0.003964866 -0.0048504635 -0.010464912
0002b0 1c ca 5f bc 73 3c 27 3c 50 49 30 bc ac d3 cf bb
       -0.0136590265 0.010207283 -0.010759667 -0.006342372
0002c0 b7 98 3e bc c2 36 cf ba 2e 07 59 bc d8 bf bc 3b
       -0.01163309 -0.0015809166 -0.013246341 0.0057601742
0002d0 a9 3d ab 3b 19 dd f4 b9 9e df 95 b8 94 fe 02 bc
       0.0052258563 -0.00046704037 -7.1465256e-05 -0.0079952665
0002e0 82 63 8b 3a ad 73 3d bc c9 86 fd bb 17 3e 2f 3c
       0.0010634514 -0.011563224 -0.007737015 0.010695956
0002f0 ce 5e 8f bc 36 85 35 3c b9 79 e3 3b 2d ff 9c bb
       -0.017501261 0.011079123 0.0069420007 -0.0047911615
000300 81 5f e6 3b 8f 8c be 3b 26 53 ef bb 40 25 da 3b
       0.007030428 0.0058150957 -0.0073036132 0.0066572726
000310 f0 51 8a 3b 8e ca a6 3b c5 af 3b 3b 94 30 5a bb
       0.0042211935 0.0050900644 0.0028638702 -0.0033293115
000320 55 1b 38 3a 60 a2 f9 3a 17 f3 ae b9 fc a3 a0 bb
       0.0007023116 0.0019045584 -0.00033368982 -0.004902361
000330 7c 8f ba b9 42 2f 2e 3c ec 71 c9 3b 61 8f 3d 3c
       -0.0003558359 0.010631384 0.0061476137 0.011569829
000340 ec 86 55 bc 57 91 50 3b f8 28 01 bc bc 2b bc bb
       -0.013032656 0.003182491 -0.007883303 -0.005742518
000350 e5 fd 4b b8 b1 73 e7 3b 18 cc 17 bb 8c 65 35 3c
       -4.863543e-05 0.007063352 -0.002316242 0.011071574
000360 df 9c 31 3b 6a 6a a1 bb 13 17 0f bc ce f1 00 bc
       0.002710156 -0.0049260156 -0.008733529 -0.007870151
000370 3b 0a 16 bc bd f7 7d 3a 5f 47 01 3c b6 ae 36 bc
       -0.009157713 0.00096881 0.007890551 -0.011150053
000380 e7 84 a0 3a dc 93 09 bc 7b fc ad 3b 74 64 fb bb
       0.0012246639 -0.008397069 0.005309639 -0.007671887
000390 b8 57 51 bc 0e 8b df bb 6c bf b7 3a f3 9b ef 3b
       -0.012777261 -0.0068219965 0.001401884 0.007312292
0003a0 99 4b 61 bb ce 12 d9 bb d8 de 73 bb 9d 94 90 3b
       -0.0034377335 -0.006624556 -0.0037211683 0.0044122473
0003b0 8c 2f 1d bc 69 18 63 3b a7 b5 91 bc 2a 91 dc ba
       -0.009593856 0.0034652 -0.017786814 -0.001682793
0003c0 59 b9 82 3b d3 f7 0d bb 38 1c 76 3b 2e 1d 13 3c
       0.0039893803 -0.0021662607 0.003755344 0.008979125
0003d0 1e 0d 8e bc e3 dc 49 3b e5 d1 b5 3b a4 7e 8c bb
       -0.01734024 0.0030801825 0.005548703 -0.0042875577
0003e0 ae 79 0f bc 51 77 35 3c 69 bc 02 b7 2c 23 a8 3b
       -0.008757038 0.0110758105 -7.7924715e-06 0.005131146
0003f0 86 d1 81 3b 85 87 ce bb 54 e3 97 3b 22 fa 1b 3c
       0.0039617447 -0.0063027763 0.004635254 0.0095200855

action_model._discrete_distribution.branches.1.bias f4 [3]
000000 33 1d 55 ba 4d 50 1a 3a bd 9c 0f 3b
       -0.0008129656 0.00058865995 0.0021913492

action_model._discrete_distribution.branches.2.weight f4 [3, 128]
000000 b3 41 9e 3b 45 dd 76 bc ee d2 0a bc 10 ec da bb
       0.0048296093 -0.015067403 -0.008473141 -0.006680973
000010 4e 50 82 bc 87 9e f7 3a b1 78 12 bb e6 e2 50 3b
       -0.015907433 0.0018891849 -0.002234977 0.0031873523
000020 4c 76 ef 3b 8f 9c 80 bc 84 b8 4b 3c 61 e3 1c bc
       0.0073078033 -0.015699653 0.012434129 -0.009575696
000030 5d b4 2a 3b 21 63 43 3c d9 65 5e bc 4c 83 fa ba
       0.0026047446 0.01192549 -0.013574087 -0.0019112616
000040 fd 35 6d bc 23 2e ed b9 2b 92 ab ba b1 aa 4d 3b
       -0.014478204 -0.00045238537 -0.0013089826 0.0031382258
000050 b0 ef 38 3b f1 8e be bc f4 09 2e 3b ec 77 bd bb
       0.0028219037 -0.02326152 0.0026556225 -0.005782118
000060 c1 96 c4 bb 6c a5 02 bc ee b6 d8 bc 88 48 4b 3c
       -0.0059994166 -0.00797401 -0.026454415 0.0124074295
000070 86 99 d7 3a 4c dd 70 3c 5e 74 5e bc ef 7b 20 3c
       0.0016448952 0.014701199 -0.013577549 0.009795173
000080 3b f5 81 bb ac b6 44 bc ee 11 34 3c c4 b5 17 3b
       -0.0039660013 -0.012006443 0.010990603 0.0023149112
000090 e4 63 f4 3b 28 90 2c 3b 0f da c6 3a 7d df f8 ba
       0.007458197 0.002633104 0.0015171188 -0.0018987503
0000a0 43 f6 71 bb 27 4a 93 bc 0d 2c 5c 3c e0 9b 4b 3c
       -0.0036920465 -0.017979695 0.013438237 0.0124273
0000b0 34 7b 81 bb 02 5f 3d bc 29 2e 43 3c c2 99 f9 bb
       -0.0039514545 -0.011558296 0.011912861 -0.0076172063
0000c0 ae 8d ec 3b 0f 65 81 3b c1 b7 36 3c e3 d2 9d 3b
       0.007219038 0.0039488147 0.011152209 0.0048163994
0000d0 8a 9e 8d bc 79 c3 92 3c 27 86 d6 bb 41 7a fa 3a
       -0.017287511 0.017915474 -0.006546754 0.0019109921
0000e0 10 68 8c bc ca 76 29 3c c4 81 11 3c 8a 30 3c 3c
       -0.017139465 0.010343263 0.008881036 0.011486182
0000f0 81 6e 84 3b 3f ce 45 3c c4 bf 36 3c 0d 65 07 bd
       0.0040414934 0.012073099 0.011154119 -0.033055354
000100 f4 21 4e 3a 1d a1 55 3b f0 78 b3 bb f6 41 7a 3c
       0.0007863336 0.0032597252 -0.0054770634 0.015274515
000110 23 98 d8 3a c6 b2 26 3c 22 36 a8 3b 2f 3b ee 3b
       0.0016524832 0.010174459 0.0051334063 0.007270239
000120 bc f5 f4 3b 09 02 b3 3c 46 41 40 3c 17 c1 76 bb
       0.007475583 0.021851556 0.011734312 -0.0037651712
000130 0a bd e3 3c b4 92 29 3c 42 8c 1e bb 8f ea 3c 3c
       0.027800102 0.010349918 -0.0024192487 0.0115305325
000140 3c 66 c0 3b e6 a3 94 bc 08 2f 03 3c ad af b8 3a
       0.0058715623 -0.01814456 0.008006819 0.0014090441
000150 d0 8f 13 bc 06 e5 3c 3b 41 5c 34 3c c3 18 22 bc
       -0.009006456 0.0028823032 0.011008323 -0.009893599
000160 8b 60 4b 3b 0a 50 7c 3c 7e e5 9a ba f6 b2 b5 3b
       0.0031032886 0.015399942 -0.0011817662 0.0055450154
000170 dd 99 1f 3b 92 ff 62 bb 84 9e 8f bc bd f5 ce 3a
       0.0024353184 -0.0034637195 -0.01753164 0.0015789788
000180 11 2c 7b bb 70 f2 36 3c 53 60 e1 bb 38 e7 22 3c
       -0.0038325826 0.0111662 -0.006877938 0.009942822
000190 21 b7 e5 3b 52 8c 89 bb b4 3c 18 3c 2c a4 f1 3b
       0.007010356 -0.0041976357 0.0092918165 0.007374307
0001a0 b6 81 13 bc 0f bc ae bb c3 aa 06 39 f4 73 05 3a
       -0.0090030935 -0.005332477 0.0001284285 0.0005090826
0001b0 93 24 33 bc 8f 87 bb 3c 46 83 44 3c 91 03 cf 3a
       -0.010934013 0.022891788 0.011994189 0.001579391
0001c0 2e 38 3a bc dc be e3 b9 9d 6b ae 3c 4b 0f 54 bb
       -0.011365933 -0.00043439015 0.021291548 -0.0032357748
0001d0 fc 4b 5e 3a 9d 10 7c 3c 79 2a 34 bb af 91 30 3c
       0.00084799505 0.01538482 -0.0027491136 0.010776921
0001e0 e0 e7 0b 3b 40 52 c0 bb 3b b5 96 3b 38 59 89 3c
       0.0021347925 -0.00586918 0.004599241 0.016766176
0001f0 f3 bb d5 ba 69 a7 13 3c 42 52 71 3b 4c 3b 2c 3c
       -0.0016306624 0.009012082 0.003682271 0.010512184
000200 1d 07 ae 3c c5 98 4d 3c 20 75 33 3c 4e bd 9a 3c
       0.021243626 0.01254863 0.010953218 0.018889096
000210 d7 d3 01 3d e7 59 ce bb 7b bf 52 bb 70 1c 68 bc
       0.031696167 -0.0062973383 -0.0032157588 -0.014166936
000220 74 25 27 bb 1e 9f c3 3b 01 c8 14 bb 18 c4 92 3c
       -0.0025504502 0.005969896 -0.002270222 0.01791577
000230 81 6f cc bc f3 15 90 bc 03 69 31 3c 5f f4 2d bc
       -0.024955513 -0.017588591 0.010828259 -0.010617345
000240 4c b1 ab 3a 46 fd 27 3c 44 b2 a7 3c 61 e6 a2 3c
       0.0013099103 0.010253256 0.020470746 0.019885244
000250 0e 37 87 bc e8 f1 a2 3c ae b4 33 bc 70 6b 4c 3c
       -0.016505744 0.01989074 -0.01096837 0.012476787
000260 8c 29 41 bb 0d 8f 10 3d 10 b0 12 3c db 49 7c bc
       -0.0029474227 0.035292674 0.008953109 -0.015398468
000270 e2 e5 59 3b 8b c4 e9 bc 31 ab 24 3b 89 20 ba 39
       0.0033248593 -0.028536102 0.0025126452 0.00035500925
000280 e1 a8 5e 3c 60 37 bf 3c da f9 b5 bc 96 dc c5 bb
       0.013590069 0.023341835 -0.022213865 -0.006038259
000290 d3 57 34 ba 3b 6b 9c bc b0 c0 32 bc 61 45 bf 3c
       -0.0006879542 -0.0190941 -0.010910198 0.023348512
0002a0 15 54 8f b9 78 16 4d 3c 67 a9 c5 bc ce 1b b1 bc
       -0.0002733773 0.012517564 -0.024128629 -0.021619704
0002b0 09 be a8 bc b9 c3 26 3c bf fb 90 bb 3d 91 ea 3b
       -0.020598428 0.0101785 -0.0044245417 0.007158427
0002c0 1d 59 b3 3b 02 bc fe 3b 58 a2 d2 bb 16 27 ca bb
       0.0054732696 0.007773877 -0.0064280443 -0.00616921
0002d0 58 02 0a 3c db 72 83 bb 4d 3e 95 3c eb ed be 3c
       0.00842341 -0.0040114946 0.018218184 0.023306808
0002e0 73 03 56 39 22 b7 ab bc 70 69 34 bb 46 21 76 bc
       0.00020409915 -0.020961348 -0.0027528666 -0.015022581
0002f0 3a 8d d4 bc 23 69 5c bc 3d d6 cf b9 d7 17 d0 3b
       -0.025946248 -0.013452801 -0.00039641737 0.006350498
000300 1e 27 14 bc 89 45 b0 bc 3a e9 d7 3c 7b 37 72 3b
       -0.009042529 -0.021517532 0.026356328 0.0036959338
000310 e8 e5 ef bc 77 90 b9 bc b6 30 87 bc ce e9 d2 bb
       -0.029284433 -0.022651894 -0.01650272 -0.006436563
000320 f2 44 f5 bb 1e 59 b4 bc 9b b2 46 bc d9 82 2e 3c
       -0.0074850256 -0.02201515 -0.012127544 0.010651314
000330 c6 49 5b bc 04 54 73 3c 48 88 e2 3c 38 72 f2 3b
       -0.013384288 0.014851574 0.027652875 0.00739887
000340 26 c5 b4 bc 2a 81 82 3c d1 e3 58 bc 03 a0 5a bc
       -0.022066664 0.01593073 -0.013237909 -0.013343814
000350 d2 39 6c bb bc bd b7 3c b1 0c 88 bc 27 7a e9 3b
       -0.0036045206 0.02242934 -0.016607614 0.0071251574
000360 38 a4 ff bb 6e d8 de bb aa 59 cc 3c 55 19 79 bc
       -0.007801559 -0.006800703 0.024945099 -0.0152037935
000370 ef d2 67 bc 7a a9 2b 3c 53 f1 9b 3c 97 6d c5 bc
       -0.014149412 0.010477418 0.01903597 -0.024100108
000380 62 9a b8 b8 bc 00 00 bd 00 9e 69 3b 05 18 c9 3b
       -8.80256e-05 -0.0312507 0.0035647154 0.0061368966
000390 b7 da bd bc 08 99 dd bc 31 b5 cc 3c 50 72 7e bb
       -0.02317558 -0.02705051 0.024988743 -0.003882546
0003a0 51 29 8f 3c 58 83 9f 3a fa b6 20 bb 49 03 23 bc
       0.017475756 0.0012169881 -0.0024523125 -0.009949514
0003b0 1b c5 7a 3c 89 38 00 bd 6e 7f d8 bb ee 29 2f bc
       0.015305783 -0.031303916 -0.0066069877 -0.010691149
0003c0 fb 35 c3 3c da 6c ea bc 88 1e 69 bc e8 a8 e7 3b
       0.02382945 -0.028616358 -0.014228471 0.0070696957
0003d0 54 f8 eb bb 7c 63 f9 bb f9 ef 8f ba 3b 73 35 bc
       -0.007201234 -0.0076107364 -0.0010981552 -0.011074836
0003e0 45 3c 13 bb 4d f3 28 3b 30 1f 05 3c 88 e3 22 bc
       -0.0022466343 0.0025779784 0.008125111 -0.009941943
0003f0 30 97 05 3c b1 5d 03 bc a1 83 92 bc 7c 0c 76 bc
       0.008153722 -0.008017943 -0.017885031 -0.015017625

action_model._discrete_distribution.branches.2.bias f4 [3]
000000 47 dd ce bb a4 a8 37 3c 2a 2e 9d bb
       -0.0063129994 0.011209641 -0.004796763
