AdvancedToolsMachineLearningUnity/Assets/NNModels/CoopJumping/SecondTry/PurpleAgent-324768.onnx (onnx, 77181 bytes, 10 tensors)

network_body.linear_encoder.seq_layers.0.weight f4 [128, 4]
-0.71769077 -0.41755462 0.19172366 0.48679075 -0.7474485 -0.025994018 0.3972042 -0.1716698
0.7141485 -0.21442652 -0.521963 0.20637453 0.31825024 -0.83525676 0.39681423 -0.8723491
-0.45791838 0.053155735 0.28633747 -0.5284198 -0.25966623 -0.6974045 0.17228837 -0.31239676
0.70477855 0.14724097 -0.40852988 -0.28910857 -0.33804762 -0.37749758 0.3184375 -0.3930963
-0.092354804 -0.19016488 -0.02605896 0.10022935 -1.0153664 -0.4095391 0.6869817 0.18229058
0.36699232 0.057176955 0.012815076 0.001331507 0.06331966 -0.9904724 -0.39285874 0.23541905
-0.3769722 0.054849524 -0.023656698 -0.5677238 -0.14786638 -0.59686184 -1.1961352 -0.009587836
0.3182529 0.47596756 0.060274906 -0.1838114 0.29027256 0.4489102 -1.2642727 0.05480541
0.33425897 0.5956343 0.7565571 -0.020700326 0.39339215 -0.36081508 0.3638472 0.21244267
0.36904868 -0.027192991 -0.36160696 0.6854194 0.4773602 0.15915745 -0.2316112 0.74733126
0.7465783 0.36900058 0.18346992 -0.32524765 0.46196166 0.12060292 -0.007138471 0.42180875
0.043586828 0.5268831 -0.21791239 -0.012744554 0.3536312 -0.6098307 -0.09656203 -0.50948066
0.35851404 0.094075724 0.7187772 -0.2995084 -0.2434009 0.04162439 -0.4541522 0.40923014
0.51767945 -0.91919744 1.2613914 0.92020607 -0.058715433 -0.025434311 0.28931072 -0.611682
-0.5153452 -0.04594319 0.9292608 0.59642315 0.47078618 -0.09772945 -0.5426248 0.14336929
-0.52685195 -0.2770722 -0.5805554 0.29500055 0.07983977 0.2485424 0.4288369 0.5528993
1.2941628 -0.08779324 -0.66498405 0.40440112 0.48160222 0.31657556 -0.7149749 -0.06863242
-0.32505488 0.29869083 -0.35695884 -1.0653313 0.37480277 0.26722586 0.22764286 -0.62116855
-0.30585724 -0.07876272 -0.48215187 -0.71256286 0.44576904 0.5240341 0.47127154 0.09397863
0.38033023 1.4401045 0.45694003 -0.40888655 0.009926741 0.53042006 -0.31131187 -0.09086282
0.2912008 -0.21034329 -0.7975197 0.064440064 -0.09726596 -1.1505469 0.6551022 -0.20060174
0.3868712 0.9456207 0.4931578 -0.7664605 0.4574772 -0.59734845 0.5063447 -0.2937537
-0.029796652 0.86285526 0.34881157 0.09926832 -0.30876237 0.111702055 -0.50728047 -0.24102794
-0.3183884 0.04799981 0.30764562 0.27822623 -0.14008115 -0.7760093 -0.513438 -0.53162575
0.27255517 -0.001488362 0.53324467 0.5370182 0.1513487 -0.23031071 0.19448243 -0.1849762
0.1200628 1.0230546 -1.3656068 -0.028295482 -0.6433933 -0.4326021 0.49235037 -0.09476344
0.22478713 0.572028 0.032095004 0.39627382 0.2160751 0.4521005 -1.0187329 -0.13277358
-0.981575 0.16778368 -0.39176303 -0.021903614 -0.64343584 -0.078753896 0.5146204 0.5356275
-0.25650194 -0.6382049 0.004847951 0.710514 0.22950208 -0.28772414 0.04490184 -0.55970985
0.37764594 -0.1840598 0.17608649 -0.4101989 0.3354081 -0.2236659 0.72977954 -0.41328222
-0.67550665 0.3544171 0.29973355 0.46477753 0.17377412 0.3570264 -0.039338768 -0.14100857
-0.16346462 -0.4288092 0.48742044 -0.3918089 0.30310348 0.3114875 0.9943903 0.7487666
00000000: 95ba 37bf b8c9 d5be 3553 443e a33c f93e
00000010: c958 3fbf 68f1 d4bc 595e cb3e 35ca 2fbe
00000020: 70d2 363f a092 5bbe 5e9f 05bf d853 533e
00000030: b2f1 a23e 63d3 55bf 3c2b cb3e 4552 5fbf
00000040: 4774 eabe d4b9 593d d39a 923e 8546 07bf
00000050: f9f2 84be 1a89 32bf 5d6c 303e 78f2 9fbe
00000060: 5e6c 343f 56c6 163e d42a d1be 0a06 94be
00000070: 9414 adbe 5d47 c1be 3d0a a33e eb43 c9be
00000080: 8424 bdbd 95ba 42be 9a79 d5bc 0c45 cd3d
00000090: 87f7 81bf 1caf d1be 08de 2f3f 62aa 3a3e
000000a0: 6be6 bb3e 6232 6a3d 53f6 513c f685 ae3a
000000b0: bdad 813d 998f 7dbf c824 c9be b111 713e
000000c0: 8002 c1be e5a9 603d b1cb c1bc 5956 11bf
000000d0: 496a 17be f0cb 18bf f51a 99bf 4d16 1dbc
000000e0: 0bf2 a23e 05b2 f33e d2e2 763d 0e39 3cbe
000000f0: 9b9e 943e 8fd7 e53e b0d3 a1bf a37b 603d
00000100: fe23 ab3e 7d7b 183f baad 413f bb93 a9bc
00000110: b26a c93e c1bc b8be 2e4a ba3e 928a 593e
00000120: f3f3 bc3e d6c3 debc 8c24 b9be a577 2f3f
00000130: 8e68 f43e 2cfa 223e 7d2b 6dbe 1a51 3f3f
00000140: c11f 3f3f a5ed bc3e 8adf 3b3e dc86 a6be
00000150: 3d86 ec3e aafe f63d d6e9 e9bb 51f7 d73e
00000160: 1a88 323d d0e1 063f 6d24 5fbe 89ce 50bc
00000170: 260f b53e dd1d 1cbf 50c2 c5bd 536d 02bf
00000180: 278f b73e c6aa c03d c801 383f 2a59 99be
00000190: 163e 79be 567e 2a3d a386 e8be 9d86 d13e
000001a0: a486 043f 8650 6bbf 4675 a13f a092 6b3f
000001b0: 987f 70bd 9e5b d0bc 8920 943e 3197 1cbf
000001c0: aaed 03bf ed2e 3cbd 09e4 6d3f 30af 183f
000001d0: e30a f13e 6126 c8bd 75e9 0abf 66cf 123e
000001e0: c5df 06bf 68dc 8dbe 479f 14bf 500a 973e
000001f0: 0983 a33d e681 7e3e 8390 db3e cf8a 0d3f
00000200: 20a7 a53f f1cc b3bd 653c 2abf aa0d cf3e
00000210: 9194 f63e 3116 a23e 9808 37bf 278f 8cbd
00000220: 986d a6be 01ee 983e 4fc3 b6be c75c 88bf
00000230: 26e6 bf3e d4d1 883e 361b 693e e704 1fbf
00000240: 5299 9cbe 594e a1bd 9cdc f6be 856a 36bf
00000250: d73b e43e 1927 063f 814a f13e de77 c03d
00000260: a5ba c23e 5855 b83f 0bf4 e93e 9459 d1be
00000270: c5a3 223c 9cc9 073f 4564 9fbe 4916 babd
00000280: 4518 953e 3b64 57be 402a 4cbf 27f9 833d
00000290: 6033 c7bd 1f45 93bf c7b4 273f 8b6a 4dbe
000002a0: fb13 c63e 3314 723f 2e7f fc3e c136 44bf
000002b0: 743a ea3e d4eb 18bf ce9f 013f e366 96be
000002c0: 1c18 f4bc 15e4 5c3f 6e97 b23e 304d cb3d
000002d0: 1a16 9ebe 0cc4 e43d 22dd 01bf 07d0 76be
000002e0: ce03 a3be 739b 443d ba83 9d3e ab73 8e3e
000002f0: 6f71 0fbe 8ca8 46bf ac70 03bf a018 08bf
00000300: 5a8c 8b3e 2415 c3ba b982 083f 067a 093f
00000310: 27fb 1a3e 92d6 6bbe 6726 473e 676a 3dbe
00000320: 7ce3 f53d 74f3 823f 34cc aebf edcb e7bc
00000330: 6cb5 24bf 067e ddbe 5915 fc3e 5613 c2bd
00000340: 992e 663e 6d70 123f 0d76 033d 67e4 ca3e
00000350: ca42 5d3e b779 e73e d765 82bf ccf5 07be
00000360: 8048 7bbf 7ccf 2b3e 2a95 c8be 356f b3bc
00000370: 36b8 24bf b949 a1bd 2abe 033f e21e 093f
00000380: 3954 83be 6561 23bf 8fdb 9e3b 3fe4 353f
00000390: 9802 6b3e 9450 93be feea 373d 2549 0fbf
000003a0: cf5a c13e 2c7a 3cbe 0450 343e 9705 d2be
000003b0: 9cba ab3e ac08 65be d5d2 3a3f ba99 d3be
000003c0: 01ee 2cbf 2876 b53e ad76 993e 52f7 ed3e
000003d0: d8f1 313e 2acc b63e b021 21bd 8d64 10be
000003e0: 4563 27be e18c dbbe 2c8f f93e 2d9b c8be
000003f0: 6130 9b3e 4a7b 9f3e 5d90 7e3f 2baf 3f3f

network_body.linear_encoder.seq_layers.0.bias f4 [128]
0.00021103927 0.0124611035 0.0040725316 0.00096688216 0.011322451 -0.001320769 -0.001090904 -0.0012047045
0.0031488882 -0.004230535 0.0021871254 0.002822062 -0.0045229094 0.0038710115 -0.0034094558 0.0022650256
-0.00096337625 -0.006524523 0.00539455 -0.009432738 -0.008877149 0.0042903414 0.0008689354 0.001971523
-0.0043901806 0.005720718 -0.0080903275 0.005860137 -0.0057609705 0.0019729198 0.00095673837 0.0044503077
-0.013106611 -0.007164766 -0.0018507042 -0.003332099 -0.003821496 -0.011165927 -0.007976374 -0.0059666084
-0.00044960843 0.002957958 -0.009773689 -0.008263941 -0.01174663 0.00050593703 -0.009521157 -0.0070082564
-0.0007600096 0.010333178 0.005994085 -0.0011717406 -0.0003890057 0.006543409 0.003602959 -0.002025996
0.010577243 0.00069045427 0.00473829 0.006518928 -0.012420642 -0.0034337048 0.009866609 -0.002514223
-0.009092433 -0.0027012492 0.006279835 -0.003836817 0.006174549 -0.002706962 -0.008224483 0.0052270596
-0.008835001 -0.007780281 0.008419033 0.010006142 -0.008432721 -0.0009708126 0.005061881 0.005617635
0.003295938 -0.0030109086 -0.008483794 -0.0031372001 0.0024319214 -0.0020515004 0.0035630406 -0.0037101249
-0.005548306 0.0034864407 -0.007833428 -0.0015052416 0.004589171 -0.006200809 0.007924994 -0.009210692
-0.008276527 0.003305 -0.0060129976 -0.0029986815 -0.0055778506 -0.0016545687 -0.00015906154 0.0016669049
-0.00319065 -0.0013896094 -0.004599461 0.00075709325 0.004256753 0.006927142 -0.0015906224 -0.0063295825
0.0013690323 0.012724369 -0.01643809 0.01103501 0.0053013936 0.0073809973 -0.007469302 -0.0014053561
0.0008040755 -0.004034462 -0.003619254 0.00023278443 -0.0035401327 -0.0063755536 0.0050625717 -0.0024349166
00000000: 6c4a 5d39 a829 4c3c df72 853b 5d76 7d3a
00000010: cd81 393c a71d adba aafc 8eba 2de7 9dba
00000020: 945d 4e3b 4da0 8abb e055 0f3b 58f2 383b
00000030: ea34 94bb ccb0 7d3b 2d71 5fbb d370 143b
00000040: 168b 7cba aacb d5bb c4c4 b03b c58b 1abc
00000050: 7671 11bc fe95 8c3b 45c9 633a ab34 013b
00000060: 81db 8fbb dc74 bb3b 4b8d 04bc 6406 c03b
00000070: 86c6 bcbb 1a4c 013b a0cd 7a3a e3d3 913b
00000080: 1cbd 56bc 6ac6 eabb 5493 f2ba 585f 5abb
00000090: 1072 7abb 4bf1 36bc 56af 02bc 8a83 c3bb
000000a0: 6cb9 ebb9 4dda 413b d321 20bc 7b65 07bc
000000b0: f074 40bc dca0 043a a0fe 1bbc 84a5 e5bb
000000c0: 623b 47ba 7d4c 293c 086a c43b 1795 99ba
000000d0: 76f3 cbb9 186a d63b 9f1f 6c3b 93c6 04bb
000000e0: 2c4c 2d3c 9aff 343a a843 9b3b bb9c d53b
000000f0: f37f 4bbc 0208 61bb 8fa7 213c aac5 24bb
00000100: 6ef8 14bc 7107 31bb 13c7 cd3b 1c73 7bbb
00000110: df53 ca3b 4967 31bb fbbf 06bc c147 ab3b
00000120: aec0 10bc baf1 febb fcef 093c cdf0 233c
00000130: 6529 0abc 217e 7eba 23de a53b 2314 b83b
00000140: aa00 583b aa52 45bb 9cff 0abc 7c99 4dbb
00000150: df60 1f3b 7772 06bb e781 693b 9125 73bb
00000160: 90ce b5bb c57c 643b c757 00bc 874b c5ba
00000170: c260 963b 2830 cbbb d6d7 013c 71e8 16bc
00000180: 459a 07bc b398 583b ae08 c5bb 8785 44bb
00000190: 67c6 b6bb 1dde d8ba c2c9 26b9 0c7c da3a
000001a0: 391a 51bb 8e23 b6ba 13b7 96bb ab77 463a
000001b0: 3b7c 8b3b 14fd e23b 6e7c d0ba 6368 cfbb
000001c0: 1a71 b33a df79 503c 2ca9 86bc 30cc 343c
000001d0: 50b7 ad3b 4bdc f13b 0cc1 f4bb ed33 b8ba
000001e0: 98c8 523a 8533 84bb 0231 6dbb 9817 7439
000001f0: 9201 68bb 05ea d0bb eee3 a53b 1f93 1fbb

network_body.linear_encoder.seq_layers.2.weight f4 [128, 128]
0.09790639 0.047671735 -0.09178915 0.081161514 -0.046416402 0.06111697 0.010272144 -0.06702826
-0.047648106 0.06813538 0.056142148 0.001663359 -0.057928547 0.021167083 -0.03612915 -0.05347528
0.05846114 0.08188833 0.0070121093 -0.04600046 0.059634227 0.041977342 0.02425671 -0.05238689
0.042204406 -0.07289781 -0.061945517 -0.061160244 -0.039023936 0.038766883 0.08365815 0.07740249
0.10630341 -0.16917479 -0.12891987 -0.028063295 0.025986051 -0.005757937 -0.07440057 0.08104272
-0.12793224 0.022263354 -0.08174979 0.010698815 -0.176456 0.03352225 0.13005994 0.04182145
-0.10292092 -0.029264357 -0.0022400322 -0.045491986 -0.036761988 0.027444249 -0.14061552 0.060617056
0.065790966 0.07655494 0.20800269 -0.08150238 0.08214746 -0.09865859 0.06660153 -0.105998255
-0.027244378 0.006399585 0.22385576 -0.022192579 0.06601757 0.044525117 -0.08552247 -0.012262189
0.068372816 -0.080060706 0.027907906 0.11352665 -0.066578984 0.06898963 -0.15645956 -0.16338855
-0.03942833 0.025375258 0.0053443504 -0.15709363 -0.076642424 -0.02062422 0.078122206 -0.018620076
0.20250116 0.00828789 -0.08224815 -0.02248162 -0.046788022 -0.010951759 0.124174416 0.0768509
-0.061669882 -0.015042482 0.04103024 0.0641343 0.045877915 0.107116304 0.16656905 0.0056557655
-0.011068846 -0.057352882 0.0192987 0.0056253015 -0.08994649 -0.015736455 0.025282057 0.09571392
0.12557541 0.09459855 0.16240768 -0.09671276 0.0312525 0.13913056 -0.0883983 0.04906095
0.14708301 -0.117846504 0.0073623927 0.054678332 -0.05577155 0.104532525 -0.08317846 0.11839333
0.039678853 0.20173316 0.2542863 0.019800983 0.028600585 0.00044890548 0.00465356 0.09472175
0.109635584 -0.0725152 0.08564021 0.04303395 -0.09118451 0.061696902 0.07108749 -0.35602683
0.054848384 -0.10998569 0.11301459 -0.049275365 -0.0010575489 -0.002151594 -0.05525083 -0.10494969
-0.036043763 0.17970742 -0.081385486 0.06400909 -0.013314386 0.07921416 0.07101073 -0.07122147
0.075141095 0.00823357 -0.016848136 0.13294767 -0.267359 0.042997118 -0.003375716 -0.041721877
0.083993845 0.14577264 0.15089479 -0.08332744 -0.025525488 -0.0037410536 -0.20460671 -0.08363865
0.04238685 0.0146314725 0.040748637 -0.014275303 -0.007904628 -0.030970283 -0.041846737 -0.048351835
-0.1749643 -0.053012643 -0.06271316 -0.04499222 0.086435914 -0.21892937 0.15410645 -0.10068318
0.04350564 -0.11225163 -0.0695188 -0.0044260835 0.10692439 -0.024158807 0.14164576 0.029224627
-0.011410825 -0.0042275395 0.014762782 0.21042047 -0.09868651 0.02917371 -0.013283412 0.050499436
0.013641856 0.09284019 0.0723458 0.017536134 -0.11606104 0.08339169 0.083950475 0.06445503
0.03090092 -0.014409125 -0.27356514 -0.072810836 0.043742314 0.01962944 0.056189653 -0.0033714797
0.10310756 -0.057944555 0.075499624 -0.08501905 -0.14707185 -0.089213245 0.10554989 -0.02521336
0.12679994 0.07644339 0.039219823 -0.03698772 -0.04937391 -0.06893654 -0.13548501 0.040303398
0.07381423 -0.049849533 0.03353633 -0.068134114 -0.23495872 0.060778964 0.07814001 -0.08281942
-0.03769181 -0.11993946 0.051424235 0.03521545 0.021060798 -0.040914547 -0.007948048 -0.101579845
00000000: 2583 c83d 7043 433d f3fb bbbd 0238 a63d
00000010: 201f 3ebd ca55 7a3d 7f4c 283c 1d46 89bd
00000020: a92a 43bd 908a 8b3d 4ff5 653d 1105 da3a
00000030: 7c46 6dbd 9766 ad3c 29fc 13bd e508 5bbd
00000040: f374 6f3d 12b5 a73d d6c5 e53b fa6a 3cbd
00000050: 0543 743d 6ff0 2b3d 02b6 c63c a393 56bd
00000060: 87de 2c3d 724b 95bd 95ba 7dbd 2a83 7abd
00000070: 90d7 1fbd 06ca 1e3d f754 ab3d 3285 9e3d
00000080: 9ab5 d93d 283c 2dbe 9203 04be ffe4 e5bc
00000090: b3e0 d43c 14ad bcbb 535f 98bd baf9 a53d
000000a0: ab00 03be a361 b63c 6f6c a7bd 154a 2f3c
000000b0: e2b0 34be a04e 093d 6f2e 053e f84c 2b3d
000000c0: 34c8 d2bd cebb efbc 81cd 12bb ce55 3abd
000000d0: bd93 16bd c3d2 e03c 84fd 0fbe 9749 783d
000000e0: 6abd 863d d6c8 9c3d a8fe 543e b8ea a6bd
000000f0: ed3c a83d 840d cabd 6266 883d 9d15 d9bd
00000100: 9a2f dfbc 9cb3 d13b 723a 653e 36cd b5bc
00000110: 3834 873d f85f 363d 6826 afbd 59e7 48bc
00000120: 0c07 8c3d def6 a3bd 1f9f e43c a980 e83d
00000130: 905a 88bd 6f4a 8d3d ef36 20be 544f 27be
00000140: 9a7f 21bd c6df cf3c a91f af3b 27dd 20be
00000150: b4f6 9cbd 20f4 a8bc 89fe 9f3d 2189 98bc
00000160: 775c 4f3e eec9 073c b871 a8bd 602b b8bc
00000170: cca4 3fbd 026f 33bc 284f fe3d 0164 9d3d
00000180: 8f99 7cbd be74 76bc 530f 283d d858 833d
00000190: 7bea 3b3d cb5f db3d 1491 2a3e 0054 b93b
000001a0: 1b5a 35bc dbea 6abd 4f18 9e3c 7354 b83b
000001b0: de35 b8bd bde9 80bc 511c cf3c a905 c43d
000001c0: d796 003e e2bc c13d 334e 263e 5711 c6bd
000001d0: 9f02 003d 3e78 0e3e 2b0a b5bd 22f4 483d
000001e0: ee9c 163e 8259 f1bd 3a40 f13b 63f6 5f3d
000001f0: b570 64bd 2615 d63d 7859 aabd 3478 f23d
00000200: 4b86 223d 2393 4e3e d031 823e ac35 a23c
00000210: c64b ea3c 135b eb39 e47c 983b 7afd c13d
00000220: 9f88 e03d d982 94bd 2264 af3d 5e44 303d
00000230: f2be babd e4b5 7c3d 5196 913d 2649 b6be
00000240: b3a8 603d 2d40 e1bd 3274 e73d f7d4 49bd
00000250: 749d 8aba c201 0dbb b24e 62bd ddef d6bd
00000260: a0a2 13bd 3905 383e 6fad a6bd 3317 833d
00000270: 9524 5abc 093b a23d 136e 913d 90dc 91bd
00000280: 93e3 993d 18e6 063c 1a05 8abc 6f23 083e
00000290: 47e3 88be bf1d 303d 1e3b 5dbb 8fe4 2abd
000002a0: f704 ac3d 6c45 153e 2a84 1a3e 94a7 aabd
000002b0: d41a d1bc 772c 75bb 6c84 51be be4a abbd
000002c0: d59d 2d3d d8b8 6f3c 0be8 263d f6e2 69bc
000002d0: 6a82 01bc 64b5 fdbc 7c67 2bbd 930c 46bd
000002e0: d729 33be c923 59bd c26f 80bd c349 38bd
000002f0: 5005 b13d 052f 60be 15ce 1d3e fc32 cebd
00000300: f832 323d 2fe4 e5bd df5f 8ebd ae08 91bb
00000310: 2dfb da3d b1e8 c5bc 960b 113e 7c68 ef3c
00000320: 78f4 3abc 2c87 8abb 98df 713c 7778 573e
00000330: 271c cabd b4fd ee3c aba2 59bc 7fd8 4e3d
00000340: 1782 5f3c ff22 be3d 092a 943d f0a7 8f3c
00000350: 69b1 edbd 43c9 aa3d 3aee ab3d 0001 843d
00000360: ed23 fd3c 4014 6cbc bb10 8cbe d91d 95bd
00000370: 242b 333d ebcd a03c 1f27 663d 0bf4 5cbb
00000380: 0e2a d33d 4557 6dbd 8c9f 9a3d 781e aebd
00000390: 019a 16be 6fb5 b6bd 8a2a d83d 408c cebc
000003a0: d8d7 013e 5a8e 9c3d f7a4 203d 6f80 17bd
000003b0: 4c3c 4abd 9a2e 8dbd 95bc 0abe 2d15 253d
000003c0: ea2b 973d 062f 4cbd 645d 093d e689 8bbd
000003d0: 0599 70be 5df3 783d df07 a03d 3a9d a9bd
000003e0: ba62 1abd d2a2 f5bd 38a2 523d 133e 103d
000003f0: b287 ac3c 0396 27bd 8838 02bc 1809 d0bd

network_body.linear_encoder.seq_layers.2.bias f4 [128]
0.0067707715 0.0007134536 0.0024226587 0.0011057357 0.004298001 -0.0039104605 -0.006189735 -0.0059608226
0.017212106 -0.0074572004 0.0022339134 -0.00010788992 0.00061152293 -0.023639383 0.007950871 -0.006252151
0.012597271 0.0036579543 0.006660651 -0.0023103177 -0.0005838986 -0.0039772373 -0.0044385735 -0.0047927652
0.0015718784 -0.0030965614 -0.00067296205 0.007836051 0.011627458 -0.001951225 -0.0026096422 0.006019689
-0.0076129893 -0.0021276453 0.0015363302 -0.008195371 -0.004721568 0.0021941152 -0.005146539 0.010242222
0.004079232 0.0068980847 -9.173523e-05 0.0180914 0.0040000295 -0.004739292 -0.0027341642 0.0021614756
-0.0037533622 0.007932438 0.0071703587 0.0012239747 0.003079258 -0.00274666 -0.0013705129 0.003042993
0.0007592205 -0.007126744 -0.0067502805 0.008418684 0.0134884715 -0.001911575 -0.0034667354 0.0045810975
-0.00478004 0.0047015836 -0.00511471 -0.010091678 0.0022066701 0.00073798373 -0.004019543 -0.0027447427
-0.0011366905 0.009739663 0.0020126035 0.00024606468 -0.0041433163 0.008440522 0.016747665 -0.00095160725
0.008269208 0.0012556057 0.0014004956 0.0004763661 -0.0026578763 0.008833225 0.004863262 0.002820199
0.0056911134 -0.00090433157 0.0065882024 0.005207353 -0.006458938 0.000842928 -0.0041577355 0.0021981173
0.007403956 -0.0017358742 0.014497699 -0.0032961958 -0.0014250022 -0.0038298443 -0.0011162322 0.0016616491
0.0018366679 -0.0053188954 -0.009891137 -0.0020157374 -0.0014283669 -0.0013023281 0.003221525 -0.002250145
-0.0007742113 -0.003137156 0.007393345 0.0067098076 0.0150598 -0.001196587 -0.000745607 -0.003219413
-0.0060378634 -0.0074915653 -0.0031500363 0.0016840991 -0.0036166469 0.008941246 -0.0052873367 0.0009833076
00000000: 59dd dd3b 1007 3b3a 78c5 1e3b 55ee 903a
00000010: 3fd6 8c3b 5223 80bb 43d3 cabb 0153 c3bb
00000020: 6700 8d3c 885b f4bb d966 123b f642 e2b8
00000030: 9c4e 203a 61a7 c1bc 5f44 023c d8de ccbb
00000040: c964 4e3c 4aba 6f3b 9741 da3b b368 17bb
00000050: c610 19ba 7c53 82bb 7471 91bb a10c 9dbb
00000060: 7d07 ce3a aeef 4abb b869 30ba c862 003c
00000070: 1881 3e3c 3fc0 ffba 8806 2bbb d040 c53b
00000080: 6276 f9bb f76f 0bbb b05e c93a e145 06bc
00000090: 62b7 9abb 25cb 0f3b 4ca4 a8bb fece 273c
000000a0: 14ab 853b 5409 e23b fa61 c0b8 6a34 943c
000000b0: ae12 833b 104c 9bbb aa2f 33bb 8ba7 0d3b
000000c0: f8fa 75bb 0ef7 013c 54f5 ea3b c76d a03a
000000d0: 60cd 493b 4f01 34bb c8a2 b3ba f36c 473b
000000e0: 6d06 473a 7687 e9bb 7531 ddbb 85ee 093c
000000f0: c0fe 5c3c d08d faba 2b32 63bb 081d 963b
00000100: e2a1 9cbb be0f 9a3b 4c99 a7bb 9157 25bc
00000110: c89d 103b 4075 413a 5fb6 83bb 24e1 33bb
00000120: 01fd 94ba 1c93 1f3c e2e5 033b 3e02 8139
00000130: a8c4 87bb 1d4a 0a3c 6632 893c 4875 79ba
00000140: 927b 073c 2393 a43a d690 b73a c7c0 f939
00000150: c42f 2ebb 3bb9 103c 005c 9f3b 16d3 383b
00000160: 857c ba3b aa10 6dba d9e1 d73b 71a2 aa3b
00000170: 80a5 d3bb f1f7 5c3a 9d3d 88bb 4a0e 103b
00000180: e29c f23b 4686 e3ba c287 6d3c fd04 58bb
00000190: 24c7 baba 20fe 7abb 8a4e 92ba b1cb d93a
000001a0: 59bc f03a 214a aebb 6f0e 22bc 761a 04bb
000001b0: 0a38 bbba e1b2 aaba 3920 533b 2b77 13bb
000001c0: 71f4 4aba be98 4dbb df43 f23b f2dd db3b
000001d0: 61bd 763c ccd6 9cba d774 43ba cafc 52bb
000001e0: 45d9 c5bb ce7b f5bb d770 4ebb fdbc dc3a
000001f0: 4405 6dbb 4e7e 123c 6541 adbb 54e2 803a

action_model._discrete_distribution.branches.0.weight f4 [3, 128]
0.008191926 0.018983696 -0.007455227 -0.018701566 0.005206587 -0.0030796998 -0.006088954 0.009161491
0.011102614 -0.0070526525 -0.00833734 -0.012432783 -0.00893904 -0.005073919 0.006715619 0.0026340378
3.830772e-05 0.017619615 -0.004895534 -0.00012046036 0.011552096 -0.013459002 -0.006387948 -0.012578898
0.015340985 0.008955498 -0.0063422318 -0.01869994 -0.0036940917 -0.003790289 -0.021541435 -0.0007680506
0.00044943675 -0.00083096576 0.011051651 0.00059568766 -0.013341065 0.014052127 0.01201941 0.006388943
0.022608235 0.0034885644 0.0036811589 0.0064941095 0.011018635 0.011033201 0.0039752475 -0.006794196
0.014120976 0.022341084 -0.0028228895 -0.0022176066 -0.0029290593 0.022642655 -0.012854705 0.009628875
0.023793036 -0.010947244 -0.0023956387 0.0031841036 -0.00085264375 -0.003945519 0.002929228 0.017311962
-0.013338158 0.025108477 -0.0014316884 6.4785163e-06 -0.0055969567 -0.0032114096 0.00033992805 0.010567195
0.022603873 0.018427566 -0.009622249 -0.009536422 -0.0070146373 0.006472832 0.008970418 0.0098173525
0.005683137 -0.008978167 0.0015151396 -8.850156e-05 -0.022905726 0.01695141 0.017099494 -0.005797847
0.019017842 0.011699875 0.02886558 0.0025651555 -0.022577032 -0.012217823 0.0056207012 0.021548852
-0.0030793734 0.0019266271 0.005626173 0.0008600943 0.005298933 -0.018128382 -0.00872691 0.005992242
0.0037058115 -0.0071286377 -0.012473749 0.0039813993 0.0070396145 -0.027479194 -0.019583419 -0.00034278302
-0.01195283 0.009857181 0.008544843 0.0018623165 -0.005709883 0.010179818 -0.009156799 -0.013587864
-0.018868208 0.0042329724 0.01633148 0.011939006 0.003773864 -0.0008526632 0.008771663 0.01631095
-0.0061278734 -0.0061648893 0.0074523306 -0.00030172648 0.015786462 -0.001108398 -0.009706515 0.00051646336
-0.012702379 1.2397111e-05 -0.001670621 0.0044505643 0.006059846 -0.012271236 0.013708324 -0.0152271455
0.016177218 -0.013053916 -0.0033712045 0.0023544373 0.009427369 -0.0020441362 -0.009492533 -0.0025381094
-0.008410526 -0.0021590698 0.009222373 -0.012444827 -0.022764968 0.009084866 0.0056117014 -0.00804817
-0.0049327123 -0.007725913 0.0043483647 -0.0038331517 -0.0011406605 -0.005069092 -0.012409597 0.003266045
-0.008283859 0.008489632 0.00921194 0.009314073 0.0056684962 -0.002994928 -0.012086424 -0.021572873
0.0109422095 -0.009764633 -0.0035933496 -0.005461249 -0.0071648234 0.006234712 -0.015562989 -0.000960887
0.025734589 0.009085393 -0.0020740295 -0.011108551 0.0010298442 -0.008157397 -0.0075244647 0.008000251
-0.008761791 -0.00389801 -0.0030684867 0.022347333 -0.0009290463 0.009917779 0.0040975027 0.008387116
0.001934961 -0.013657023 0.00030143408 0.010539562 0.00814386 0.006848092 0.0013776148 -0.000293512
0.021618495 0.00962569 0.0012289061 -0.013575451 -0.00017999377 -0.002002819 -0.016862234 0.014634534
-0.014808618 -0.01291829 -0.008298587 0.0075034737 0.014508544 0.0015266899 0.002708758 -0.015119147
0.0077145477 0.0045672613 0.014443963 -0.014367274 -0.0049270433 -0.004546227 0.0043603964 0.003683179
0.01765961 0.013718001 -0.0019522249 -0.0023539097 -0.0019003606 0.026489101 0.0023257304 0.010889305
-0.0066672084 -0.002360895 0.007193618 0.004386309 -0.0033122208 -0.016502112 0.006872546 0.004073346
-0.00066974614 0.0020720565 0.00920793 -0.007175046 0.0040843757 -0.003874038 0.009341609 0.012753337
00000000: 6e37 063c b283 9b3c fa4a f4bb 0734 99bc
00000010: 049c aa3b cad4 49bb d985 c7bb 141a 163c
00000020: bde7 353c f019 e7bb 5799 08bc dfb2 4bbc
00000030: 0d75 12bc 1e43 a6bb b20e dc3b d29f 2c3b
00000040: 9aac 2038 0357 903c b76a a0bb aa9f fcb8
00000050: 0145 3d3c 2583 5cbc fe51 d1bb b917 4ebc
00000060: c158 7b3c 15ba 123c 7fd2 cfbb 9e30 99bc
00000070: 9318 72bb 7f66 78bb aa77 b0bc 0157 49ba
00000080: 61a2 eb39 2bd5 59ba fc11 353c ec27 1c3a
00000090: 7b94 5abc e43a 663c 0fed 443c 575a d13b
000000a0: e834 b93c 66a0 643b 993f 713b 8acc d43b
000000b0: 8187 343c 99c4 343c cb42 823b d9a1 debb
000000c0: ab5b 673c a604 b73c 3a00 39bb 4455 11bb
000000d0: 76f5 3fbb 177d b93c 8a9c 52bc 6ec2 1d3c
000000e0: 9de9 c23c 125c 33bc 2600 1dbb 65ac 503b
000000f0: f483 5fba 6a49 81bb 4af8 3f3b d1d1 8d3c
00000100: 4a88 5abc 4bb0 cd3c 7ea7 bbba 0862 d936
00000110: ad66 b7bb 8376 52bb 5f38 b239 0722 2d3c
00000120: c22b b93c 68f5 963c a3a6 1dbc a73e 1cbc
00000130: 0bdb e5bb 0d1a d43b a9f8 123c f6d8 203c
00000140: 9c39 ba3b 2919 13bc a697 c63a ea99 b9b8
00000150: caa4 bbbc afdd 8a3c 3d14 8c3c defb bdbb
00000160: 4ecb 9b3c d5b0 3f3c 8277 ec3c 2b1c 283b
00000170: 78f3 b8bc 442d 48bc dc2d b83b 3887 b03c
00000180: 50cf 49bb e186 fc3a c35b b83b f477 613a
00000190: aca2 ad3b f981 94bc 50fb 0ebc 925a c43b
000001a0: 33dd 723b 5997 e9bb b25e 4cbc 6676 823b
000001b0: 91ac e63b 0c1c e1bc 686d a0bc 8fb7 b3b9
000001c0: cdd5 43bc 0480 213c abff 0b3c f918 f43a
000001d0: f819 bbbb 40c9 263c 6606 16bc a29f 5ebc
000001e0: 8091 9abc bfb4 8a3b 99c9 853c d29b 433c
000001f0: ee52 773b 4285 5fba 05b7 0f3c 8b9e 853c
00000200: 54cc c8bb d702 cabb ae32 f43b 0b31 9eb9
00000210: 9c52 813c aa47 91ba 1308 1fbc 4563 073a
00000220: a41d 50bc 30fd 4f37 bdf8 daba 0ad6 913b
00000230: ac91 c63b 4b0d 49bc e198 603c 477b 79bc
00000240: 1686 843c 18e0 55bc 6def 5cbb e74c 1a3b
00000250: 4075 1a3c eaf6 05bb 9286 1bbc 6956 26bb
00000260: 4ecc 09bc 2e7f 0dbb 7019 173c 63e5 4bbc
00000270: 997d babc b1d8 143c 5de2 b73b 79dc 03bc
00000280: 97a2 a1bb a829 fdbb ba7c 8e3b 9d35 7bbb
00000290: 3782 95ba a01a a6bb 9f51 4bbc 240b 563b
000002a0: 06b9 07bc 1918 0b3c aded 163c 0e9a 183c
000002b0: cbbe b93b 8e46 44bb 2306 46bc 98b9 b0bc
000002c0: f446 333c d7fb 1fbc 677e 6bbb 47f4 b2bb
000002d0: e5c6 eabb 8e4c cc3b e8fb 7ebc 09e4 7bba
000002e0: 58d1 d23c e6da 143c 71ec 07bb a400 36bc
000002f0: d6fb 863a 9aa6 05bc c98f f6bb 7c13 033c
00000300: 9d8d 0fbc c175 7fbb aa18 49bb c111 b73c
00000310: 3e8b 73ba 2e7e 223c 5844 863b 1d6a 093c
00000320: 849e fd3a b5c1 5fbc cc09 9e39 21ae 2c3c
00000330: d36d 053c f665 e03b 1591 b43a 84e2 99b9
00000340: 4519 b13c 12b5 1d3c 3f13 a13a 926b 5ebc
00000350: b6bc 3cb9 ba41 03bb ab22 8abc afc5 6f3c
00000360: d99f 72bc 3ca7 53bc ccf6 07bc b3df f53b
00000370: 3eb5 6d3c 361b c83a 6b85 313b 4cb6 77bc
00000380: 51ca fc3b f7a8 953b 5fa6 6c3c b764 6bbc
00000390: 0973 a1bb 84f8 94bb a8e1 8e3b 7d61 713b
000003a0: e3aa 903c 77c1 603c cce1 ffba 0d44 1abb
000003b0: 8515 f9ba acff d83c 486b 183b 0e69 323c
000003c0: 9978 dabb 3fb9 1abb 71b8 eb3b 07bb 8f3b
000003d0: d811 59bb 702f 87bc 1833 e13b b479 853b
000003e0: e791 2fba 57cb 073b dcdc 163c a61c ebbb
000003f0: 3ad6 853b 93e3 7dbb 8c0d 193c 5ff3 503c

action_model._discrete_distribution.branches.0.bias f4 [3]
0.006963247 -0.00046319616 -0.004720367
00000000: f32b e43b 23d9 f2b9 4fad 9abb

action_model._discrete_distribution.branches.1.weight f4 [3, 128]
0.007870663 -0.018402357 0.0027285172 -0.021953912 0.03169104 -0.0013161757 -0.008877908 -0.0052825613
-0.004356986 0.017056065 -0.0056211874 0.008675975 0.005561625 -0.006957801 -0.007008521 -0.006562939
-0.00030103567 -0.008463864 -0.012340187 -0.0069190245 -0.016520763 -0.009773377 -0.00047999888 -0.0033465184
0.002912659 0.012430529 -0.003510687 0.00717412 -0.024517419 0.01940379 0.004060304 0.001493652
-0.012887845 0.00378694 0.008933904 -0.0024327834 -0.005017322 0.0042908206 -8.4251784e-05 -0.0013618863
0.011494717 0.0019373421 0.018625401 0.00222867 0.0054797838 -0.030075148 -0.0022559357 -0.010356797
-0.010979161 -0.0145127885 -0.003910408 0.012473481 -0.006453087 -0.014191256 -0.00016052753 -0.014058713
-0.010875353 -0.00012714075 -0.0014308861 -0.0009985155 0.0020225006 -0.014307357 -0.005798406 0.0033550267
0.004630981 -0.01782398 -0.0072908537 -0.0024083273 -0.0024841742 0.0010811948 0.006093145 -0.008748689
-0.0010865092 -0.012968134 -0.001459288 -0.008660629 -0.00872431 0.0011289095 0.011923833 -4.7702644e-05
0.010976351 0.006401453 -0.010094493 0.0040640403 0.005889842 -0.00018637358 -0.02266806 -0.01892186
0.004127238 -0.016553562 -0.007826744 -0.004960097 0.004647325 0.010891026 -0.012088615 -0.01041951
0.010198827 0.0049555385 0.0054703704 -0.011972086 -0.008251137 -0.0068807863 -0.0068057133 0.01612984
-0.0013773076 -0.0014983648 -0.0022019097 0.008129254 0.00055521535 0.015555964 0.014130438 -0.0033255422
-0.0019390464 -0.000981133 0.0071310163 0.004020768 -0.015631055 -0.0048140734 -0.015634108 0.008479566
0.00561997 0.0021929925 0.0072084633 -0.012420111 0.0033621688 0.0064695077 0.009649052 -0.0070570745
0.002199843 0.011105821 -0.015342601 -0.009408656 0.0072545595 -0.0059771147 0.013957193 -0.009000383
0.016372314 0.0041258824 0.0038327524 -0.012099042 0.014169926 0.007578542 0.009222766 -0.0037325704
-0.0013832637 0.023903772 -0.0095904935 -0.018841404 -0.012114937 -0.012216816 -0.015414998 -0.009105764
0.010542861 -0.0078078243 0.0026844714 -0.01822356 0.0012887113 0.0023171257 -0.004318135 0.012859602
0.003166788 -0.01035602 0.002862199 -0.013148186 0.012772206 0.0010272133 0.0022891732 -0.0014107272
-0.0058763376 -0.014040049 0.0040056887 0.0016713963 -0.00023768001 0.013581432 -0.020413995 0.014847561
-0.014431584 0.014995096 0.020711306 -0.012476625 -0.016455373 -0.007769255 -0.0029823238 -0.003706363
-0.0063493047 -0.01597579 -0.0020113464 -0.0055059725 0.0024610427 0.0074401232 -0.012398486 0.009095412
-0.014239101 0.011500409 0.0049480386 0.008425499 -0.0001131484 -0.009895636 0.0009719854 -0.0067098252
-0.000557668 0.037698917 -0.0027887053 0.01149185 -0.00836936 0.011304568 0.016349005 -0.019564306
-0.008096284 0.007850868 -0.0124489805 -0.010093909 -0.006869206 0.015686993 -0.01069866 -0.0044418047
0.030791733 0.00057875406 0.019017031 0.014432283 -0.020645805 -0.010285026 -0.02193803 -0.011765137
-0.010314633 -0.01859197 -0.001844736 0.017781768 -0.022332184 0.0053975484 0.009244202 6.4303895e-05
-0.0071851453 0.009768269 0.019120265 -0.008927909 -0.0049569937 -0.0069052116 -0.014762562 -0.0011952406
-0.01424408 -0.0071139783 -0.008165768 0.016020805 -0.002903204 0.0003586596 0.006227148 0.0020193146
-0.0059421062 -0.0028921012 0.012855933 0.021940961 -0.007457461 -0.0077153887 -0.0021954167 -0.020089855
00000000: f4f3 003c 8ac0 96bc ecd0 323b b1d8 b3bc
00000010: 77ce 013d 8783 acba a574 11bc 5619 adbb
00000020: 0cc5 8ebb 29b9 8b3c f031 b8bb ad25 0e3c
00000030: 4b3e b63b 44fe e3bb bca7 e5bb ec0d d7bb
00000040: 53d4 9db9 05ac 0abc 7f2e 4abc fcb8 e2bb
00000050: 8d56 87bc 8420 20bc 5ca8 fbb9 4351 5bbb
00000060: 4fe2 3e3b 6ba9 4b3c 8e13 66bb e114 eb3b
00000070: c1d8 c8bc b2f4 9e3c 4c0c 853b a5c6 c33a
00000080: 8a27 53bc 4f2e 783b 825f 123c 556f 1fbb
00000090: 5968 a4bb 039a 8c3b 55b0 b0b8 5281 b2ba
000000a0: 5654 3c3c 6aee fd3a 4c94 983c e10e 123b
000000b0: c28f b33b 2860 f6bc 52d8 13bb 8eaf 29bc
000000c0: f0e1 33bc 0cc7 6dbc e122 80bb 925d 4c3c
000000d0: 6b74 d3bb 7182 68bc 4853 28b9 8456 66bc
000000e0: 892e 32bc 1651 05b9 928c bbba 9fe0 82ba
000000f0: ee8b 043b 6869 6abc 8e00 bebb 02e0 5b3b
00000100: 7cbf 973b 9803 92bc 1de8 eebb 07d5 1dbb
00000110: 87cd 22bb e1b6 8d3a 01a9 c73b a956 0fbc
00000120: 3369 8eba 4c78 54bc 9445 bfba 50e5 0dbc
00000130: 69f0 0ebc ebf7 933a 2e5c 433c 5314 48b8
00000140: 27d6 333c 48c3 d13b 5f63 25bc a42b 853b
00000150: 93ff c03b 476d 43b9 5eb2 b9bc 0402 9bbc
00000160: c83d 873b 569b 87bc be3b 00bc 4f88 a2bb
00000170: 9648 983b 4670 323c 540f 46bc 98b6 2abc
00000180: fb18 273c 1262 a23b cb40 b33b 9126 44bc
00000190: c72f 07bc 3878 e1bb 7602 dfbb ba22 843c
000001a0: c686 b4ba c864 c4ba ea4d 10bb 9030 053c
000001b0: df8b 113a 71de 7e3c 5a83 673c 57f1 59bb
000001c0: 9a27 feba 5c99 80ba 4dab e93b a6c0 833b
000001d0: b30c 80bc 60bf 9dbb 1a13 80bc e1ed 0a3c
000001e0: ba27 b83b 4fb8 0f3b f934 ec3b b97d 4bbc
000001f0: d557 5c3b 2afe d33b 0f17 1e3c 083f e7bb
00000200: 3e2b 103b 30f5 353c 885f 7bbc c326 1abc
00000210: a8b7 ed3b acdb c3bb b6ac 643c 5876 13bc
00000220: 3b1f 863c 6932 873b ea2e 7b3b 0f3b 46bc
00000230: fa28 683c 6b55 f83b 161b 173c 249e 74bb
00000240: a14e b5ba d8d1 c33c 7221 1dbc 4a59 9abc
00000250: bb7d 46bc 0a29 48bc 308f 7cbc 5830 15bc
00000260: f7bb 2c3c c7d8 ffbb f5ed 2f3b 9349 95bc
00000270: fae9 a83a ebda 173b 247f 8dbb 15b1 523c
00000280: e389 4f3b 4cac 29bc bb93 3b3b 7d6b 57bc
00000290: 8442 513c 8fa3 863a f405 163b 26e8 b8ba
000002a0: 4b8e c0bb 3c08 66bc 2742 833b c112 db3a
000002b0: be39 79b9 a884 5e3c 403b a7bc 2f43 733c
000002c0: 7372 6cbc fead 753c c2aa a93c c26a 4cbc
000002d0: 6bcd 86bc 3c95 febb 1773 43bb 74e6 72bb
000002e0: d40d d0bb a9df 82bc cbd0 03bb 726b b4bb
000002f0: 7249 213b 47cc f33b 0523 4bbc ec04 153c
00000300: 1e4b 69bc 366c 3c3c 2823 a23b 1b0b 0a3c
00000310: 164a edb8 4e21 22bc d6cc 7e3a 18de dbbb
00000320: 7730 12ba 2e6a 1a3d b6c2 36bb 5048 3c3c
00000330: a41f 09bc cb36 393c 59ee 853c 5345 a0bc
00000340: 47a6 04bc eda0 003c cff6 4bbc ec60 25bc
00000350: 1417 e1bb 0282 803c 6f49 2fbc 8f8c 91bb
00000360: f23e fc3c 87b7 173a 9bc9 9b3c 6275 6c3c
00000370: 6421 a9bc 8782 28bc 62b7 b3bc 90c2 40bc
00000380: b5fe 28bc 304e 98bc 12cb f1ba 12ab 913c
00000390: fcf1 b6bc ebdd b03b fe74 173c e4da 8638
000003a0: 5e71 ebbb 170b 203c 1aa2 9c3c 5d46 12bc
000003b0: 476e a2bb 1d45 e2bb acde 71bc 9fa9 9cba
000003c0: 0060 69bc 601c e9bb b7c9 05bc 103e 833c
000003d0: ae43 3ebb 7a0a bc39 1b0d cc3b 7a56 043b
000003e0: 00b6 c2bb 6889 3dbb b1a1 523c 88bd b33c
000003f0: b85d f4bb 5fd1 fcbb fbe0 0fbb 7b93 a4bc

action_model._discrete_distribution.branches.1.bias f4 [3]
0.0008978656 -0.0009634843 0.0015304849
00000000: be5e 6b3a 5692 7cba 8d9a c83a

action_model._discrete_distribution.branches.2.weight f4 [3, 128]
-0.002641324 -0.006495404 -0.006966408 0.006326606 0.0016172405 0.0040745777 -0.017274985 -0.003066572
-0.006208514 0.0075702146 -0.004466832 -0.0027628008 -0.007770887 -0.0026075812 -0.007386086 0.023930846
-0.0047741607 -0.006963186 -0.003540775 -0.0068323086 0.0041806665 0.0032642484 0.002178643 0.0016012014
0.014140446 0.002827694 0.014398257 0.004565936 -0.0014222373 0.0030129103 -0.019762963 -0.013615671
-0.0018708735 -0.00041673868 0.0189108 -0.0002309042 0.0058977986 0.0026361805 -0.006150721 0.0020543486
0.0038840682 0.022709705 -0.010127044 -0.010673341 0.0032737737 0.0037528635 0.011878605 0.008387295
0.0029359155 -6.361242e-05 -0.0036774212 -0.011500606 0.007979756 -0.0003444015 0.01787888 -0.008464129
0.0062480825 -0.00040419862 0.0037820449 0.01024821 -0.0142828 -0.00166982 0.015379145 -0.004460634
0.010488401 0.000353443 -0.0029577727 0.0018657765 -0.00092275196 -0.004401743 -0.012235665 0.0004444509
0.0021987301 -0.007684094 0.0011076982 0.0060318597 0.011680889 0.006532581 0.002127274 -0.0034499322
-0.00634117 -0.002807215 0.0048278607 -0.010700175 -0.0021339236 -0.001319586 -0.003337661 -0.0019688632
-0.006867376 -0.006135938 0.011494736 0.007482335 0.007632893 -0.011418249 0.004777827 0.01063427
-0.0012160972 0.0003822762 -0.0007999561 -0.004612782 -0.011035884 -0.010151469 -0.0026040403 -0.004367834
0.0015196671 -0.0010387587 -0.0042068884 -0.00333102 -0.0021851603 -0.003005799 -0.0026478604 0.0010716883
-0.024044864 0.0067225425 0.028495764 0.008273196 -0.022712428 0.004137421 0.010985469 0.019881252
0.0062296777 0.0088349525 0.000441855 0.0043910756 -0.02259445 -0.00016760055 0.0028901394 -0.00047470198
-0.0144944275 0.011718164 -0.0069461595 -0.0059383004 0.0015444667 0.020711536 0.008785825 -0.0037096962
0.011993748 0.012010941 0.0004115226 -0.009761355 0.003647342 0.016051067 -0.014088663 0.009619488
0.0020242245 0.009305151 -0.019160978 -0.0020418898 0.01691473 -0.019475756 -0.010344029 -0.008966037
0.01506363 0.013846692 -0.005476552 0.010961056 0.01621584 0.010729728 0.0040013334 0.009383617
0.009696982 0.0054756026 -0.010268976 2.9475414e-06 -0.023243029 0.0006111847 0.0047882735 -0.003311133
0.03117852 -0.0014438889 0.01362932 0.0045854286 0.011154334 0.00011625218 0.003500696 -0.007053225
-0.0015803798 0.0013964281 0.013416077 0.015790045 -0.0056546126 0.0012815545 -0.008682441 -0.023775734
0.018470686 0.0047902493 0.0018518887 -0.013899384 0.008052335 -0.0030479082 0.0066373385 0.017490974
-0.02194238 -0.009315979 0.0061450275 -0.004639076 -0.012022149 -0.00079960993 -0.0008967755 0.013567658
0.0034750816 0.020166008 0.0002055641 -0.01849959 0.006327635 0.008080732 -0.005106398 -0.0023455939
-0.0059549524 -0.0073300297 -0.0025975178 0.011170396 -0.014917058 0.0021592022 -0.012505434 0.0008808598
0.015444307 0.021815741 -0.00087286177 -0.010616721 -0.00842343 -0.00805919 -0.0081913415 0.0033521187
0.016334554 0.00016532812 -0.0049241893 -4.890731e-05 0.0077242507 -0.015346502 -0.0029405742 -0.022164874
-0.020151185 -0.0049291407 0.00082013675 0.006190991 0.019845951 0.00074989756 -0.00019577052 0.0051080403
-0.0020807541 0.010740301 0.011047714 -0.003377645 0.0019331711 -0.0039533554 -0.017873123 -0.019665603
0.018164998 0.0062966454 -0.0029436352 0.011278082 0.00023608099 0.0047280136 0.005146185 0.00024131546
00000000: 101a 2dbb 66d7 d4bb 7746 e4bb 6b4f cf3b
00000010: 96f9 d33a 0984 853b 4584 8dbc 8af8 48bb
00000020: ca70 cbbb 900f f83b 815e 92bb 1b10 35bb
00000030: eda2 febb f4e3 2abb fb06 f2bb 9f0a c43c
00000040: 9070 9cbb 702b e4bb 590c 68bb 8fe1 dfbb
00000050: f9fd 883b 00ed 553b 90c7 0e3b 67df d13a
00000060: 54ad 673c d550 393b abe6 6b3c d99d 953b
00000070: 5d6a baba 3f74 453b f0e5 a1bc 4314 5fbc
00000080: 1938 f5ba b87d dab9 d2ea 9a3c e01e 72b9
00000090: 5242 c13b c5c3 2c3b fd8b c9bb 40a2 063b
000000a0: da8b 7e3b b409 ba3c e7eb 25bc 3ddf 2ebc
000000b0: cf8c 563b 9af2 753b 7b9e 423c dd6a 093c
000000c0: 7d68 403b a867 85b8 e400 71bb 0a6d 3cbc
000000d0: 86bd 023c c990 b4b9 bb76 923c 21ad 0abc
000000e0: b7bc cc3b 9fea d3b9 2fdc 773b 1ce8 273c
000000f0: 6802 6abc dddd daba cff8 7b3c 832a 92bb
00000100: 8bd7 2b3c 514e b939 31d7 41bb 128d f43a
00000110: d6e4 71ba 7f3c 90bb 1978 48bc 3105 e939
00000120: 9218 103b daca fbbb 2f30 913a e8a6 c53b
00000130: 3361 3f3c 430f d63b bc69 0b3b 4218 62bb
00000140: 97c9 cfbb 41f9 37bb 0833 9e3b c94f 2fbc
00000150: 4cd9 0bbb f5f5 acba a9bc 5abb 0b08 01bb
00000160: ba07 e1bb fb0f c9bb 6b54 3c3c 602e f53b
00000170: 591d fa3b 9c13 3bbc 518f 9c3b 5c3b 2e3c
00000180: 7365 9fba 3e6c c839 25b4 51ba d226 97bb
00000190: dacf 34bc 5952 26bc 8ca8 2abb 0c20 8fbb
000001a0: 912f c73a f526 88ba f0d9 89bb 3e4d 5abb
000001b0: e834 0fbb f0fc 44bb ba87 2dbb e477 8c3a
000001c0: bcf9 c4bc c648 dc3b f36f e93c 4d8c 073c
000001d0: 6a0f babc 3493 873b 66fc 333c 02de a23c
000001e0: 5322 cc3b 7ac0 103c c6a8 e739 03e3 8f3b
000001f0: ff17 b9bc eebd 2fb9 7e68 3d3b 6ce1 f8b9
00000200: 097a 6dbc 8bfd 3f3c 9c9c e3bb 1396 c2bb
00000210: b46f ca3a 3dab a93c 6cf2 0f3c 601e 73bb
00000220: 6d81 443c 8ac9 443c a1c1 d739 17ee 1fbc
00000230: 3f08 6f3b 877d 833c 23d4 66bc 0f9b 1d3c
00000240: daa8 043b a274 183c 7cf7 9cbc 3ad1 05bb
00000250: c390 8a3c 9f8b 9fbc 017a 29bc 49e6 12bc
00000260: 72cd 763c 3cdd 623c a674 b3bb 0096 333c
00000270: 15d7 843c becb 2f3c 9e1d 833b bebd 193c
00000280: 17e0 1e3c af6c b33b 353f 28bc 60ce 4536
00000290: 2a68 bebc e937 203a f3e6 9c3b 98ff 58bb
000002a0: 186a ff3c df40 bdba 834d 5f3c 5d41 963b
000002b0: abc0 363c 6acc f338 ef6b 653b bd1e e7bb
000002c0: bf24 cfba 5a08 b73a 1bcf 5b3c 205a 813c
000002d0: 544a b9bb d5f9 a73a cc40 0ebc 54c5 c2bc
000002e0: d64f 973c 86f7 9c3b 13bb f23a 3eba 63bc
000002f0: f1ed 033c 6abf 47bb 087e d93b 3b49 8f3c
00000300: 82c0 b3bc 0ca2 18bc 3a5c c93b 6403 98bb
00000310: 8cf8 44bc ea9c 51ba 9615 6bba e24a 5e3c
00000320: 32be 633b 2f33 a53c b18c 5739 748c 97bc
00000330: 0d58 cf3b 0c65 043c 9253 a7bb 89b8 19bb
00000340: c321 c3bb bf30 f0bb 1e3b 2abb 0904 373c
00000350: ad66 74bc 6781 0d3b 98e3 4cbc 80e9 663a
00000360: 1e0a 7d3c edb6 b23c c3d0 64ba c1f1 2dbc
00000370: 6d02 0abc b10a 04bc fa34 06bc 38af 5b3b
00000380: 0bd0 853c ee5b 2d39 185b a1bb d321 4db8
00000390: b61b fd3b e56f 7bbc a6b6 40bb 1c93 b5bc
000003a0: 1914 a5bc a184 a1bb 72fe 563a ccdd ca3b
000003b0: fa93 a23c c694 443a c047 4db9 5961 a73b
000003c0: 435d 08bb 16f8 2f3c 7901 353c 7b5b 5dbb
000003d0: 7562 fd3a 268b 81bb a86a 92bc c219 a1bc
000003e0: c3ce 943c 1754 ce3b 01ea 40bb b4c7 383c
000003f0: 828c 7739 74ed 9a3b 54a1 a83b a009 7d39

action_model._discrete_distribution.branches.2.bias f4 [3]
-0.00245312 0.0054087415 -0.0020912788
00000000: 86c4 20bb d03b b13b d60d 09bb
