AdvancedToolsMachineLearningUnity/Assets/NNModels/BouncingBallGame/BouncingBallAgent_02.onnx (onnx, 593652 bytes, 5 tensors)

network_body.linear_encoder.seq_layers.0.weight f4 [128, 1024]
000000 a8 52 17 bd 97 94 9a bc ce d3 32 bc 5b 1d a2 bc
       -0.03694406 -0.018869681 -0.010914756 -0.019789388
000010 d8 00 0e bd 3d 8a d6 bc bc 71 ed bb 48 e3 49 3c
       -0.034668773 -0.026188964 -0.007246224 0.0123222545
000020 a1 13 fe bc 6d a4 29 3d 2f 07 78 3c 8d 01 a2 bc
       -0.03101522 0.041416574 0.015138431 -0.01977613
000030 f6 61 e3 3b b7 eb 88 3d ca 97 12 bd d9 d4 eb bb
       0.006939168 0.06685584 -0.03578929 -0.0071970043
000040 00 d7 e7 3c eb 23 3d 3c 91 ea 46 3d 79 a4 b3 3c
       0.028300762 0.011544208 0.048563544 0.021929013
000050 56 f1 0f 3c 19 74 8c 3c 6f 97 ff bc 83 95 82 bc
       0.008785566 0.017145203 -0.031200139 -0.015940433
000060 7d fc 58 3c 61 5e a4 bb 1b 61 32 bd 01 39 36 bd
       0.013243792 -0.0050161337 -0.04354964 -0.044487957
000070 19 b7 34 3c 1f 0a 65 bb 7d c4 eb bc 5d 67 42 bd
       0.011029982 -0.003494866 -0.028780216 -0.047461856
000080 65 ac 8d bc 91 a5 3f bd 32 0d 66 3c b1 bc b4 bb
       -0.017294118 -0.046788756 0.014041232 -0.005515658
000090 8d 4c 13 bd 85 a8 29 bc 3a 06 57 bd af ee 15 bd
       -0.035961676 -0.01035512 -0.052496172 -0.03660458
0000a0 92 ac 69 3b 39 32 85 bc a5 55 27 3c 80 f5 91 3b
       0.0035655838 -0.0162593 0.01021329 0.0044543147
0000b0 b2 3e d9 3b 02 b6 91 3c 79 ef 85 3b 20 41 8b bc
       0.0066297883 0.017786983 0.0040873853 -0.016998827
0000c0 c0 81 f7 3c 2a 88 ac 3c 51 a2 4a bc 2c ff 47 3d
       0.030213237 0.021061022 -0.012367801 0.048827335
0000d0 b7 02 05 3d ec 2f 29 3d bb ac 3c 3d dd e0 0a 39
       0.032473292 0.041305467 0.046063166 0.00013244474
0000e0 e6 a2 aa 3c 90 81 a5 3c 30 52 14 bd f3 7e 71 3d
       0.02082963 0.020203382 -0.036211193 0.05895896
0000f0 40 f4 e1 bc 1f f9 d5 bc 60 e4 d8 3b e2 00 fe bc
       -0.027582288 -0.026119767 0.0066190213 -0.03100628
000100 7d 17 5d 3c 27 3c b4 ba 77 70 83 3c 6f 7d c4 bc
       0.01349437 -0.0013750837 0.016044838 -0.023985593
000110 a0 bb e4 bc 1f 46 fe bc 2b 18 6e bc 4d 9e 0a 3d
       -0.027921498 -0.031039296 -0.014532129 0.033842374
000120 30 58 98 3c e3 c5 be 3b 38 00 53 3b e1 d3 9d bd
       0.018596739 0.00582193 0.0032196175 -0.07706428
000130 ac ac 9d bc 1a dc 5c bd 91 dc 81 3d a6 72 1f bc
       -0.019247375 -0.053920843 0.06340898 -0.009731924
000140 5e fe 19 bd 16 c1 37 3d e2 50 35 3b a9 fe 0b bd
       -0.0375961 0.044861875 0.0027666618 -0.03417841
000150 41 92 d6 bb cb 66 22 bc 4f 32 40 bd 96 5c b4 3c
       -0.0065481965 -0.009912203 -0.046922978 0.022016805
000160 72 00 c8 3c 88 9c a2 bc 9e eb eb 3c 2e 75 95 3c
       0.024414275 -0.01985003 0.028798874 0.018244352
000170 e6 52 ed bc 87 1c a1 bc 9c a1 59 3d 08 de ec bc
       -0.028970193 -0.019666923 0.05313264 -0.028914467
000180 24 c9 0b 3d 3d 68 89 bc e9 86 98 bc d0 0e b1 3c
       0.03412737 -0.016773337 -0.018619018 0.021613508
000190 91 3d 35 bd f7 e9 0d 3d 2c f2 4c 3d 89 f9 68 bd
       -0.044248167 0.034646954 0.05003564 -0.0568786
0001a0 ae 3d 8c 3b 5f 05 21 bd c3 a3 1d bc c5 7f a7 bc
       0.0042798137 -0.039311763 -0.009621563 -0.020446667
0001b0 f6 c0 d4 3c a0 ff 2c bc 73 e9 04 3b bd 20 61 bb
       0.025970917 -0.010558993 0.0020280748 -0.003435179
0001c0 e9 26 d4 bc c7 8c 80 bd c3 17 2b ba 5c 00 b3 3c
       -0.02589746 -0.06276851 -0.0006526673 0.021850757
0001d0 c5 3f 95 bb 47 b6 82 3c 3a 0e 22 bc 98 fd 55 3c
       -0.004554721 0.015956057 -0.009891087 0.01306095
0001e0 82 a3 03 bd 0d 79 94 bc b6 cd d3 3c 6e 59 07 3d
       -0.032138355 -0.018124128 0.025854927 0.03304427
0001f0 12 28 e8 bc e8 ce 94 3d 44 37 f0 bc 32 37 64 3b
       -0.02833942 0.07266027 -0.029323228 0.0034822938
000200 57 b6 3a bc 6a cf a3 3c 6d 10 39 bc 46 60 e8 bc
       -0.011396012 0.019996364 -0.01129542 -0.02836622
000210 2c 60 ca 3b 49 a0 0c bd 7c dd 58 3d 07 c3 a6 3c
       0.0061760154 -0.034332547 0.0529456 0.020356668
000220 03 86 11 bd 42 06 a6 bc ff 5f 32 bc 29 32 e0 3c
       -0.035528194 -0.020266656 -0.010887145 0.027367668
000230 76 71 70 bd d2 fd 63 b9 14 a5 56 bd e1 89 87 3c
       -0.058701955 -0.00021742962 -0.052403525 0.016545238
000240 04 c5 6f 3d 9b ff 0b 3d 56 0b 2b bc 0c f3 69 bc
       0.058537498 0.03417931 -0.010439714 -0.014279138
000250 eb b0 54 bc 2a 4b af 3c cf 72 e5 3c d3 6c 9d bc
       -0.012981634 0.021398146 0.028008847 -0.01921693
000260 fa b0 b7 bc cf 50 1e 3c 08 ab ab bc f6 1e 5b 3d
       -0.022423256 0.009662821 -0.020955577 0.053496324
000270 5f 98 05 bd 7d 5b 83 3d ce ca 5f bd 2d 34 dc bc
       -0.032616016 0.064139344 -0.05463677 -0.026880348
000280 da 42 dc 3c b6 60 42 3d 95 14 81 3c 76 f9 9c bd
       0.026887346 0.047455512 0.015756885 -0.076647684
000290 01 d9 b0 bc 04 a7 70 3c b4 1f fd bb a2 2b 89 3c
       -0.02158785 0.014688257 -0.0077247266 0.016744439
0002a0 71 07 e1 bc 02 78 a3 3d 68 97 b8 3c 17 fb 58 bc
       -0.027469369 0.07981874 0.022533134 -0.013243458
0002b0 68 97 17 bd bc 52 b4 3c f2 31 d6 bb b2 53 49 3c
       -0.037009627 0.022012107 -0.0065367157 0.012288021
0002c0 a5 da 83 bd e9 ac b8 3c 7c 0f f9 3b b8 29 91 bb
       -0.064381875 0.022543387 0.007600723 -0.004430022
0002d0 e1 e1 d3 3c 1b 60 e4 3c 5f f7 4f bc ac 94 92 bc
       0.025864543 0.027877858 -0.012693255 -0.017893158
0002e0 37 2c c7 39 99 a3 80 bd a8 a2 8b bc 9d e5 1a 3d
       0.0003798918 -0.06281204 -0.017045334 0.037816633
0002f0 a0 14 1d bd d8 7e d8 ba b8 a5 bf bc fd 6a b5 bc
       -0.038349748 -0.0016517295 -0.02339445 -0.022145743
000300 29 ad 03 bc 12 ef 27 3b 5e ea 81 3c ea f6 95 b9
       -0.00803689 0.0025624675 0.015858825 -0.0002860346
000310 f4 5e b2 3c 29 43 68 3d 5b f9 0f bd 6b a7 8d 3c
       0.021773793 0.056704674 -0.035149913 0.017291745
000320 63 7f bf 3c 71 75 37 bc 92 98 d9 3b 73 32 91 bc
       0.023376172 -0.011197434 0.0066405023 -0.017724251
000330 a8 f7 4c bc 07 1b 6a bc e8 3c 00 bd dc ae 46 3d
       -0.012510218 -0.01428867 -0.031308085 0.048506603
000340 af 3a 5c 3c cc fd 29 bd 0e 6f 15 bd b7 8e 13 3d
       0.013441726 -0.041501805 -0.036482863 0.036024775
000350 9d f0 22 3d 78 0b 4f bd 70 33 37 3d 24 75 a2 bc
       0.039780248 -0.050548047 0.04472679 -0.019831248
000360 e1 1b ce 3c 53 94 85 3b 78 85 6c 3c d6 95 d5 3c
       0.025159778 0.0040765195 0.014436118 0.026072424
000370 12 0b 63 bd 62 a8 d4 3c 15 d7 16 3d be e0 a2 3c
       -0.05543048 0.025959197 0.036826212 0.019882556
000380 f0 4d 10 bd af d1 b2 3b a8 7b 63 3c 84 a7 3f bc
       -0.035230577 0.005457125 0.013884462 -0.011697654
000390 05 ef bb bc 37 0f 23 3c b2 14 83 3d 4b 5c ab 3c
       -0.022941122 0.009952358 0.06400432 0.020918032
0003a0 e1 eb 21 bd 63 22 32 3b dd f3 c2 bb 2a cd 16 3d
       -0.039531592 0.002718114 -0.005949481 0.036816753
0003b0 6d f3 11 bc 73 df 1e 3b 17 e5 1e 3d c5 c6 d1 3c
       -0.008908135 0.0024242073 0.038792696 0.025607476
0003c0 29 dc 4a 3c f0 aa 41 3d 0a c9 c5 3b fe c7 b4 bc
       0.012381592 0.04728216 0.0060359286 -0.02206802
0003d0 5b f8 ec 3c 6c 84 c9 bc 15 35 98 3c ee 59 bb bb
       0.028927019 -0.024599276 0.018579999 -0.0057175076
0003e0 c1 5c e3 3c 18 57 2c 3d a2 0a 5e bd f2 5c 96 3c
       0.02775419 0.042075247 -0.05420936 0.018354867
0003f0 9a 58 3e 3d 37 89 f8 bc c3 68 f6 bc 8f c1 8e 3c
       0.046471216 -0.030338867 -0.030079251 0.01742628

network_body.linear_encoder.seq_layers.0.bias f4 [128]
000000 00 00 00 00 00 00 00 00 00 00 00 00 00 00 00 00
       0.0 0.0 0.0 0.0
000010 00 00 00 00 00 00 00 00 00 00 00 00 00 00 00 00
       0.0 0.0 0.0 0.0
000020 00 00 00 00 00 00 00 00 00 00 00 00 00 00 00 00
       0.0 0.0 0.0 0.0
000030 00 00 00 00 00 00 00 00 00 00 00 00 00 00 00 00
       0.0 0.0 0.0 0.0
000040 00 00 00 00 00 00 00 00 00 00 00 00 00 00 00 00
       0.0 0.0 0.0 0.0
000050 00 00 00 00 00 00 00 00 00 00 00 00 00 00 00 00
       0.0 0.0 0.0 0.0
000060 00 00 00 00 00 00 00 00 00 00 00 00 00 00 00 00
       0.0 0.0 0.0 0.0
000070 00 00 00 00 00 00 00 00 00 00 00 00 00 00 00 00
       0.0 0.0 0.0 0.0
000080 00 00 00 00 00 00 00 00 00 00 00 00 00 00 00 00
       0.0 0.0 0.0 0.0
000090 00 00 00 00 00 00 00 00 00 00 00 00 00 00 00 00
       0.0 0.0 0.0 0.0
0000a0 00 00 00 00 00 00 00 00 00 00 00 00 00 00 00 00
       0.0 0.0 0.0 0.0
0000b0 00 00 00 00 00 00 00 00 00 00 00 00 00 00 00 00
       0.0 0.0 0.0 0.0
0000c0 00 00 00 00 00 00 00 00 00 00 00 00 00 00 00 00
       0.0 0.0 0.0 0.0
0000d0 00 00 00 00 00 00 00 00 00 00 00 00 00 00 00 00
       0.0 0.0 0.0 0.0
0000e0 00 00 00 00 00 00 00 00 00 00 00 00 00 00 00 00
       0.0 0.0 0.0 0.0
0000f0 00 00 00 00 00 00 00 00 00 00 00 00 00 00 00 00
       0.0 0.0 0.0 0.0
000100 00 00 00 00 00 00 00 00 00 00 00 00 00 00 00 00
       0.0 0.0 0.0 0.0
000110 00 00 00 00 00 00 00 00 00 00 00 00 00 00 00 00
       0.0 0.0 0.0 0.0
000120 00 00 00 00 00 00 00 00 00 00 00 00 00 00 00 00
       0.0 0.0 0.0 0.0
000130 00 00 00 00 00 00 00 00 00 00 00 00 00 00 00 00
       0.0 0.0 0.0 0.0
000140 00 00 00 00 00 00 00 00 00 00 00 00 00 00 00 00
       0.0 0.0 0.0 0.0
000150 00 00 00 00 00 00 00 00 00 00 00 00 00 00 00 00
       0.0 0.0 0.0 0.0
000160 00 00 00 00 00 00 00 00 00 00 00 00 00 00 00 00
       0.0 0.0 0.0 0.0
000170 00 00 00 00 00 00 00 00 00 00 00 00 00 00 00 00
       0.0 0.0 0.0 0.0
000180 00 00 00 00 00 00 00 00 00 00 00 00 00 00 00 00
       0.0 0.0 0.0 0.0
000190 00 00 00 00 00 00 00 00 00 00 00 00 00 00 00 00
       0.0 0.0 0.0 0.0
0001a0 00 00 00 00 00 00 00 00 00 00 00 00 00 00 00 00
       0.0 0.0 0.0 0.0
0001b0 00 00 00 00 00 00 00 00 00 00 00 00 00 00 00 00
       0.0 0.0 0.0 0.0
0001c0 00 00 00 00 00 00 00 00 00 00 00 00 00 00 00 00
       0.0 0.0 0.0 0.0
0001d0 00 00 00 00 00 00 00 00 00 00 00 00 00 00 00 00
       0.0 0.0 0.0 0.0
0001e0 00 00 00 00 00 00 00 00 00 00 00 00 00 00 00 00
       0.0 0.0 0.0 0.0
0001f0 00 00 00 00 00 00 00 00 00 00 00 00 00 00 00 00
       0.0 0.0 0.0 0.0

network_body.linear_encoder.seq_layers.2.weight f4 [128, 128]
000000 18 98 a6 3d 65 f2 5e 3c fe 31 82 3b 0a 7d a4 bc
       0.08134478 0.013607596 0.0039732447 -0.020079155
000010 34 dc ad 3d 4b ea 83 bc 30 fe ea bd 94 82 fb 3d
       0.08489266 -0.01610293 -0.11474264 0.12280765
000020 5d 81 98 bb 00 87 c3 3d df a9 15 be 50 91 9a 3d
       -0.004654093 0.095472336 -0.14615582 0.075472474
000030 45 ef 13 be e3 7a f1 3c ca cf 56 bc 08 b8 1f bd
       -0.14446743 0.029477542 -0.013111064 -0.038993865
000040 e7 61 82 3d 28 a4 9e ba 31 f9 56 be a0 cb dc 3d
       0.0636633 -0.0012103366 -0.20993496 0.10781026
000050 34 a7 73 3d 07 79 54 3d 95 b0 1f be 99 86 08 3e
       0.05948563 0.051873233 -0.15594704 0.13332595
000060 fc 61 11 3e 77 0d 54 3e 8b 45 08 bd 43 08 8a bd
       0.14197534 0.20708261 -0.033269446 -0.06739857
000070 e1 88 9f 3d b3 fa 99 bd 11 36 2b 3d 0d 07 ed 3c
       0.077897795 -0.0751852 0.04179961 0.028934026
000080 3b 17 cd 3d 38 10 60 bc 85 a7 24 3c 68 b8 32 3c
       0.100141965 -0.013675742 0.010049705 0.010908224
000090 86 bd 95 3d 47 63 79 be cc 90 cc 3c c0 81 af bd
       0.07311539 -0.24354278 0.024971388 -0.0856967
0000a0 6e 37 b8 3d 79 86 ca bc c3 20 45 3b b2 37 5f be
       0.089949474 -0.024722325 0.0030079342 -0.2179859
0000b0 ba ea ac bc d8 f5 c0 bb 04 07 14 3e 51 80 86 bc
       -0.02110802 -0.005888682 0.14455801 -0.016418608
0000c0 9c 1e f2 3c 47 21 3a 3e 89 5e 0e 3d 85 22 f0 3c
       0.029555611 0.18176757 0.034758125 0.029313335
0000d0 c9 a1 26 3d 47 87 01 3c e4 99 f6 3d e2 d4 5b 3d
       0.040681634 0.007905788 0.12041071 0.053669818
0000e0 45 fa 12 be a2 d1 9f bd 61 a6 81 be 58 9b be 3c
       -0.14353283 -0.07803656 -0.2532225 0.023267433
0000f0 be 9e b1 bd ae 2a 43 3d 4c 19 ae 3d b0 a6 b2 3d
       -0.08672856 0.047648124 0.08500919 0.08723199
000100 c0 1a 23 be d5 a3 80 3d d3 dd f0 bd a6 3b bd 3c
       -0.15928173 0.062812485 -0.117610596 0.023099732
000110 0b 61 06 bc b2 88 24 3d 15 e3 de bd 67 5c 1e 3d
       -0.008201848 0.040169425 -0.10883156 0.03866234
000120 4d 7a 38 3d f1 db 9d 3d ad 05 ba 3d e3 b9 53 bd
       0.04503851 0.07707966 0.09083114 -0.051690947
000130 10 00 2a bd 01 d2 04 bd 0f bf cb bd 7b 82 46 bd
       -0.041503966 -0.032426838 -0.09948551 -0.04846428
000140 be 50 a7 3d 78 25 33 3c 04 9d 25 bd 76 88 78 bc
       0.08169697 0.010934226 -0.040432945 -0.015169254
000150 bb e8 03 bc fe 76 1f bd 22 c1 dd 3d cc ac 43 3d
       -0.008051093 -0.03893184 0.10827853 0.047772214
000160 99 9e d1 3d 02 a7 81 3d 24 89 21 3d b8 2a 74 bd
       0.10235328 0.06330682 0.039437428 -0.059611052
000170 a5 00 72 bd a4 8f c0 bd 96 7f 0f 3e 62 95 3b 3e
       -0.059082646 -0.09402397 0.14013514 0.18318704
000180 1f 45 cc 3d 75 f3 66 3d 11 03 96 bd 7c fb 15 3e
       0.09974121 0.056384522 -0.073248036 0.14646715
000190 8f bd 6f 3d a0 3e b1 3c 89 61 6c bc 90 7a 8e 3b
       0.058530387 0.021636307 -0.014427551 0.0043481067
0001a0 60 92 ad bb 3d 50 a1 3d 5b 20 39 3e 55 67 b8 3d
       -0.0052969903 0.07876632 0.18078749 0.09004084
0001b0 b0 f7 1d bd 54 81 99 bd 04 31 a5 bd 71 2b 5a bd
       -0.03856629 -0.074953705 -0.080659896 -0.053264085
0001c0 48 66 2b 3d 3d 6c d1 3d 1c 1d 19 3d 5a cb 11 3e
       0.04184559 0.10225723 0.037381276 0.14237729
0001d0 88 9d b9 3d 1a 19 87 bd 43 3e fd 3d be 62 7e bd
       0.0906325 -0.065965846 0.12365391 -0.062105887
0001e0 eb 60 07 3d b6 2f 00 be a9 f4 85 bd 04 4f 56 39
       0.033051413 -0.125182 -0.06540806 0.00020438066
0001f0 f5 9b 82 bc 76 bf 5f bd aa 02 26 3d b9 98 d6 3c
       -0.015943507 -0.05462595 0.040529884 0.02619587
000200 30 33 5b bd 59 a3 ae bd ea 99 1d 3e 72 ea a0 bd
       -0.053515613 -0.0852725 0.15390745 -0.07857217
000210 dc 98 0e be 49 79 9b 3d 9b 97 42 be 9e 2f d8 3d
       -0.13925499 0.07591493 -0.19003145 0.10555957
000220 11 ac 68 bd 78 d8 7a bc 7f 6f e3 bd 86 77 b1 3d
       -0.05680472 -0.015310399 -0.111052506 0.086653754
000230 e9 a3 ce bb 14 cd 0e 3e 48 0f be bc 2f 93 b5 bd
       -0.0063061607 0.13945419 -0.023200646 -0.08865964
000240 33 d0 0a bd b6 a6 48 3c 86 a3 64 bd 6e 08 96 bd
       -0.03388996 0.012246778 -0.05582001 -0.073258266
000250 0f c8 c1 bd ef 08 8b 3d 1d f8 9b 3d a9 06 d7 bc
       -0.09461986 0.06788813 0.07615683 -0.026248293
000260 85 a6 7d 3c 0e 10 13 3d 91 20 80 bb 53 ef 0e bd
       0.015481596 0.035903983 -0.003910132 -0.034896206
000270 84 b3 5b 3d 06 72 d5 3d 51 55 f2 bd dc 04 de bb
       0.053637996 0.10422139 -0.11832679 -0.0067754816
000280 ad ca 00 be da d0 9f 3d b0 cf 2c bd fd a7 e0 bb
       -0.12577315 0.07803507 -0.042190254 -0.0068559633
000290 cf b4 70 bd 47 33 32 3e dc cb 18 3e 01 5b 5a 3d
       -0.058766183 0.17402373 0.14921516 0.053309444
0002a0 6c 94 ba bd e8 f1 82 bc 00 b6 88 3d b0 21 f2 3d
       -0.091103405 -0.01598449 0.06675339 0.11822832
0002b0 5c 5b 05 3e b0 6a 21 bd c1 cd c4 3d b0 77 de 3c
       0.13023132 -0.039408386 0.09609557 0.02715668
0002c0 18 b3 be bc c1 d8 0d bc 6a 01 36 3c 8a 70 84 3d
       -0.023278758 -0.008657635 0.011108736 0.064667776
0002d0 62 5b a0 3c 94 0f d1 bd f5 d6 1b be 31 67 bd 3d
       0.019574825 -0.102080494 -0.15218718 0.09248198
0002e0 92 92 14 3d b2 62 49 bd 26 f4 f2 3d 2c 17 be 3d
       0.036272593 -0.04916639 0.11862974 0.092817634
0002f0 55 a8 ad bd 85 2e 91 bd cf f9 95 3d cf c3 29 bd
       -0.084793724 -0.07088951 0.07323038 -0.041446503
000300 df 67 c1 ba 91 99 55 bd 26 d3 b3 bc 62 d7 e6 3d
       -0.0014755687 -0.052148405 -0.02195127 0.1127155
000310 a4 56 11 be f8 c5 21 be 4c a7 ca 3c 2d e5 19 3e
       -0.14193207 -0.15798175 0.024737976 0.1502883
000320 a6 9f 42 bd d6 34 41 bd 29 e3 98 bc 0d 3b eb bc
       -0.047515534 -0.04716953 -0.018663006 -0.028714681
000330 99 60 ab 3d 4e b4 5d bd f7 04 db 3d 47 9c 8f 3d
       0.08368034 -0.05412703 0.10694306 0.070122294
000340 3b f7 17 3c 0b ad 3f be 98 29 e6 bc 0e db 3d 3e
       0.009275253 -0.18718354 -0.028096005 0.18540594
000350 53 cc 20 3d d4 8c 7c bd f1 17 17 3d bd 5d 78 bd
       0.03925736 -0.06165774 0.036888067 -0.06063627
000360 29 c7 99 bd ac 1d 76 3d 72 3b 0f 3e f1 22 34 be
       -0.0750869 0.06008689 0.1398752 -0.17591454
000370 99 09 64 bd 98 e0 1d 3e f0 5a 9e 3d 3b fd b2 3d
       -0.055673216 0.15417707 0.07732189 0.08739706
000380 21 1d 1b 3e 89 cf 3a bd 6e c6 9b bd a7 9d 63 3c
       0.1514783 -0.045608077 -0.07606207 0.013892568
000390 ab cc 88 3d 08 4b bf 3d 7f f0 01 be 4c 60 f9 bd
       0.06679662 0.09340483 -0.12689398 -0.1217657
0003a0 14 94 39 3d df 8b 0f be 1b c3 9a 3d e4 cd 95 bd
       0.045307234 -0.140182 0.07556745 -0.07314661
0003b0 69 e8 70 3d 8d 0a 02 bc 6e c4 79 bd 6c 7c ad bd
       0.058815394 -0.007937086 -0.060978346 -0.08470997
0003c0 27 75 eb bd 9a 64 25 be 8b a9 49 bd 28 b7 dc bd
       -0.114969544 -0.16151658 -0.049233954 -0.10777122
0003d0 93 d7 3e 3d f2 5e 13 3e 06 2b 52 3d 85 5e 93 bd
       0.046592306 0.14391688 0.05131056 -0.071957625
0003e0 8a 6b f0 bb fe 65 58 3d 16 d4 a4 bd 0e 49 a2 bc
       -0.0073370384 0.052831642 -0.08048265 -0.019810226
0003f0 1e 35 04 3d d1 02 d5 bd b4 94 5e bd 9a e4 56 be
       0.03227722 -0.10400928 -0.054341033 -0.20985642

network_body.linear_encoder.seq_layers.2.bias f4 [128]
000000 00 00 00 00 00 00 00 00 00 00 00 00 00 00 00 00
       0.0 0.0 0.0 0.0
000010 00 00 00 00 00 00 00 00 00 00 00 00 00 00 00 00
       0.0 0.0 0.0 0.0
000020 00 00 00 00 00 00 00 00 00 00 00 00 00 00 00 00
       0.0 0.0 0.0 0.0
000030 00 00 00 00 00 00 00 00 00 00 00 00 00 00 00 00
       0.0 0.0 0.0 0.0
000040 00 00 00 00 00 00 00 00 00 00 00 00 00 00 00 00
       0.0 0.0 0.0 0.0
000050 00 00 00 00 00 00 00 00 00 00 00 00 00 00 00 00
       0.0 0.0 0.0 0.0
000060 00 00 00 00 00 00 00 00 00 00 00 00 00 00 00 00
       0.0 0.0 0.0 0.0
000070 00 00 00 00 00 00 00 00 00 00 00 00 00 00 00 00
       0.0 0.0 0.0 0.0
000080 00 00 00 00 00 00 00 00 00 00 00 00 00 00 00 00
       0.0 0.0 0.0 0.0
000090 00 00 00 00 00 00 00 00 00 00 00 00 00 00 00 00
       0.0 0.0 0.0 0.0
0000a0 00 00 00 00 00 00 00 00 00 00 00 00 00 00 00 00
       0.0 0.0 0.0 0.0
0000b0 00 00 00 00 00 00 00 00 00 00 00 00 00 00 00 00
       0.0 0.0 0.0 0.0
0000c0 00 00 00 00 00 00 00 00 00 00 00 00 00 00 00 00
       0.0 0.0 0.0 0.0
0000d0 00 00 00 00 00 00 00 00 00 00 00 00 00 00 00 00
       0.0 0.0 0.0 0.0
0000e0 00 00 00 00 00 00 00 00 00 00 00 00 00 00 00 00
       0.0 0.0 0.0 0.0
0000f0 00 00 00 00 00 00 00 00 00 00 00 00 00 00 00 00
       0.0 0.0 0.0 0.0
000100 00 00 00 00 00 00 00 00 00 00 00 00 00 00 00 00
       0.0 0.0 0.0 0.0
000110 00 00 00 00 00 00 00 00 00 00 00 00 00 00 00 00
       0.0 0.0 0.0 0.0
000120 00 00 00 00 00 00 00 00 00 00 00 00 00 00 00 00
       0.0 0.0 0.0 0.0
000130 00 00 00 00 00 00 00 00 00 00 00 00 00 00 00 00
       0.0 0.0 0.0 0.0
000140 00 00 00 00 00 00 00 00 00 00 00 00 00 00 00 00
       0.0 0.0 0.0 0.0
000150 00 00 00 00 00 00 00 00 00 00 00 00 00 00 00 00
       0.0 0.0 0.0 0.0
000160 00 00 00 00 00 00 00 00 00 00 00 00 00 00 00 00
       0.0 0.0 0.0 0.0
000170 00 00 00 00 00 00 00 00 00 00 00 00 00 00 00 00
       0.0 0.0 0.0 0.0
000180 00 00 00 00 00 00 00 00 00 00 00 00 00 00 00 00
       0.0 0.0 0.0 0.0
000190 00 00 00 00 00 00 00 00 00 00 00 00 00 00 00 00
       0.0 0.0 0.0 0.0
0001a0 00 00 00 00 00 00 00 00 00 00 00 00 00 00 00 00
       0.0 0.0 0.0 0.0
0001b0 00 00 00 00 00 00 00 00 00 00 00 00 00 00 00 00
       0.0 0.0 0.0 0.0
0001c0 00 00 00 00 00 00 00 00 00 00 00 00 00 00 00 00
       0.0 0.0 0.0 0.0
0001d0 00 00 00 00 00 00 00 00 00 00 00 00 00 00 00 00
       0.0 0.0 0.0 0.0
0001e0 00 00 00 00 00 00 00 00 00 00 00 00 00 00 00 00
       0.0 0.0 0.0 0.0
0001f0 00 00 00 00 00 00 00 00 00 00 00 00 00 00 00 00
       0.0 0.0 0.0 0.0

action_model._continuous_distribution.mu.weight f4 [1, 128]
000000 aa c1 14 bd a7 20 7d 3b 19 97 2c 3a 1a 92 46 3a
       -0.036317505 0.0038624199 0.00065837946 0.00075748714
000010 0f d5 90 bc d2 7d 81 3c cd b2 46 3c c2 2d de bb
       -0.01767972 0.015807066 0.01212759 -0.006780357
000020 a2 3e 36 bc e0 ca 6a ba 9a 27 d9 3b a9 92 19 3c
       -0.011123331 -0.00089566223 0.0066270353 0.009373345
000030 20 da bb 3c dc b3 08 3c de 8a 42 3c 32 8d 51 bd
       0.022931159 0.008343663 0.011873929 -0.051160045
000040 78 11 42 3a 2d 5d 1d 3c 4b 34 60 bb 10 d9 4e 3b
       0.0007403116 0.009604734 -0.0034210857 0.0031562485
000050 fe 16 1e bd 98 5c ac bb 2b c1 38 3c 1f 40 3e 3b
       -0.038596146 -0.0052600615 0.011276524 0.0029029918
000060 cd b5 36 bc ab 75 dd 3c 3b d6 03 3d 4a ee 9c bc
       -0.011151743 0.027033648 0.032186728 -0.019156594
000070 c0 1e 1a bc df 41 d1 bc cc 55 40 bb ff 55 4d bd
       -0.009406745 -0.025544105 -0.0029348014 -0.05013084
000080 82 4a be 3b ab cd 5c 3b 70 a4 94 3b 2b 95 a3 3c
       0.005807222 0.0033691924 0.004536204 0.01996859
000090 30 fd 63 bc 22 29 23 bd 89 65 c6 3c f9 0f 23 3c
       -0.013915345 -0.03983415 0.024218338 0.009952539
0000a0 8f 0d b3 bb 35 a8 35 3c f7 f0 bc 3b df 92 18 3d
       -0.005464263 0.011087467 0.00576603 0.037249442
0000b0 4b a8 d0 3a 53 a3 05 bd a3 c4 9f 3c d0 6d e0 bc
       0.0015919296 -0.03262646 0.019502943 -0.027396113
0000c0 80 06 b7 bb 03 51 2e bc 73 39 1c 3c ab af 6e bc
       -0.0055854917 -0.010639432 0.009535181 -0.01456825
0000d0 68 e4 19 bc 5f c4 50 ba ef 44 38 3c b7 9c 4b 3c
       -0.009392835 -0.0007963832 0.011246904 0.0124275
0000e0 39 61 a2 ba bd 34 6c 3c 63 30 14 3d 3f 1d 52 3c
       -0.0012388594 0.014416871 0.036178958 0.012824356
0000f0 22 04 e6 ba 87 13 91 3c 9e 52 ab 3c 48 5c 5d 3c
       -0.0017548839 0.017709507 0.020913418 0.013510771
000100 12 a2 4d 3b 83 2e 3e 3d 42 9f 72 3c f7 df 26 3d
       0.003137712 0.046431076 0.014808478 0.040740933
000110 bf ff 65 bb 32 78 f2 b9 fb 7e f0 bc 13 8c f8 3a
       -0.0035095064 -0.0004624739 -0.029357424 0.0018962644
000120 9f a0 27 bc 80 2b 00 3c 6d 6c d6 bb 4b 12 10 3c
       -0.010231166 0.007822871 -0.006543687 0.008793424
000130 82 07 2d 3c 2a 4b 66 3c 2b 0e 95 bc 8d 75 91 bc
       0.010560872 0.014056006 -0.018195232 -0.017756248
000140 b3 90 b8 3c f5 a0 ee bc 31 96 80 3c 7f 66 12 3c
       0.022529935 -0.029129485 0.015696617 0.00893557
000150 35 bc 14 bd 55 9f 6d bd 4b 96 fe bb 1f 67 ca 3a
       -0.0363123 -0.05801328 -0.007769381 0.001544211
000160 0f a7 12 3c c0 c3 7d 3c 57 50 89 bb f3 db be 3c
       0.008950963 0.015488565 -0.0041904855 0.02329824
000170 04 bb 03 3d dd da 62 3c db d2 ad 3c a8 36 ee 3c
       0.032160774 0.013846126 0.021218708 0.029078797
000180 23 b9 e3 3b 61 35 86 bb 20 38 dc bc 79 bf 3d 3b
       0.0069495603 -0.0040957187 -0.026882231 0.0028953238
000190 bf e2 87 3c 57 0e e1 bc 30 23 5e 3b 8b ec 08 3b
       0.016587613 -0.027472658 0.0033895485 0.0020892944
0001a0 ad 72 dd bc 77 19 f3 ba bb 45 ad bc 27 a3 02 3d
       -0.02703222 -0.0018547018 -0.021151414 0.031893875
0001b0 87 a3 12 39 ca db 04 bc 09 68 0e bd af a3 20 3c
       0.00013984564 -0.008109042 -0.034767184 0.00980465
0001c0 49 e5 1d bd 43 e9 65 3c 15 2f d5 3c a3 d3 04 bc
       -0.03854874 0.014032665 0.026023427 -0.008107099
0001d0 7b 84 22 3b df 49 0a 3c 38 ef 8d 3c 78 22 d4 3c
       0.0024798203 0.008440464 0.017325982 0.025895342
0001e0 7b f9 fa ba cd 40 46 bc 72 61 39 3c ad 21 1c ba
       -0.0019147837 -0.012100411 0.011314737 -0.0005955946
0001f0 1d 5c 06 3d 03 38 18 bc fd e9 6a 3c 8d 6b 4b bc
       0.03280269 -0.009290698 0.014338014 -0.012415779
