AdvancedToolsMachineLearningUnity/Assets/NNModels/testScene/TestAgentMoveToShpere.onnx (onnx, 74487 bytes, 7 tensors)

network_body.linear_encoder.seq_layers.0.weight f4 [128, 9]
0	0x3d07fbc3	0.033199083
1	0xbc81ccf1	-0.015844794
2	0xbe170830	-0.14749217
3	0x3ef5e770	0.48028135
4	0x3e9639c2	0.2934094
5	0x3f1d75eb	0.61508054
6	0xbe09f14e	-0.13470957
7	0x3dfc5e7f	0.12322711
8	0xbe7f9cdc	-0.24962181
9	0x3dc7a670	0.09748542
10	0xbd179e68	-0.037016302
11	0xbef89d52	-0.48557526
12	0xbd917ca4	-0.071038514
13	0xbf2d3f36	-0.6767458
14	0xbf10f985	-0.56630737
15	0xbe26f115	-0.16302903
16	0xbe10375b	-0.14083616
17	0xbe188e03	-0.14897923
18	0xbe989718	-0.29802775
19	0x3df4d3a3	0.11954429
20	0xbe9aeddd	-0.302596
21	0xbdcacafa	-0.09901996
22	0xbe5f5a4b	-0.21811788
23	0xbe9bd93e	-0.3043918
24	0x3e7b9c8e	0.2457144
25	0xbde5b2c1	-0.11215735
26	0x3e6bc545	0.23024471
27	0xbe8bb4b3	-0.272863
28	0xbeccad45	-0.39975944
29	0x3d1bb5b4	0.038015082
30	0xbf0676bf	-0.5252494
31	0xbecf0c6a	-0.4043916
32	0xbe74f77d	-0.23922534
33	0x3c91710e	0.017754104
34	0x3e199f97	0.15002285
35	0x3ea026c6	0.31279582
36	0xbd27208f	-0.040802535
37	0xbd99aa66	-0.07503204
38	0xbe072ad3	-0.1319993
39	0x3f20ee7a	0.62863886
40	0xbec0ba68	-0.37642217
41	0xbcbeaa30	-0.023274511
42	0x3e0aeb4e	0.13566324
43	0xbe222062	-0.15832666
44	0xbf703eb7	-0.93845695
45	0xbe1cdcca	-0.153186
46	0x3e5ddad2	0.21665505
47	0xbefd8f20	-0.49523258
48	0x3e260e68	0.16216433
49	0xbe721796	-0.2364181
50	0x3efdf976	0.49604386
51	0x3f285914	0.6576092
52	0xbe8b0695	-0.2715346
53	0xbec4e7a2	-0.38457972
54	0xbf009278	-0.50223494
55	0x3e6c2625	0.23061426
56	0xbdc5aab2	-0.09651698
57	0xbe6657df	-0.22494458
58	0xbe7ac38b	-0.24488656
59	0xbe9653dc	-0.29360855
60	0xbe5bf9b8	-0.21481979
61	0xbe1c165b	-0.15242903
62	0xbe36785c	-0.17819351
63	0x3eab1aa8	0.33418775
64	0xbee73ea0	-0.45164967
65	0xbe9447fd	-0.28961173
66	0x3e2bc934	0.16775972
67	0xbe8267bb	-0.25469765
68	0xbcff13fd	-0.03113746
69	0xbede27a3	-0.43389615
70	0x3e3f185c	0.18661636
71	0x3e9827a6	0.2971775
72	0x3cd61044	0.026130803
73	0x3d42b3a1	0.04753459
74	0xbf042af8	-0.51628065
75	0xbd07c406	-0.033145927
76	0xbe853e1d	-0.2602395
77	0xbdc4a8be	-0.096024975
78	0xbdb62f93	-0.08895793
79	0xbe165bb5	-0.14683421
80	0x3dee9a44	0.116505176
81	0x3f0a0cf6	0.53926027
82	0xbb00bce2	-0.0019643833
83	0xbeda6c4c	-0.4266075
84	0x3e6e00ab	0.23242442
85	0xbee0a0fc	-0.4387282
86	0xbec21b54	-0.37911475
87	0x3ec9d6b3	0.39421615
88	0xbbf4fe6e	-0.0074766194
89	0xbf149c99	-0.5805145
90	0xbd9b7ff7	-0.07592767
91	0xbf076874	-0.5289376
92	0x3d5dcf43	0.05415274
93	0x3e67a486	0.22621354
94	0xbf29c048	-0.6630902
95	0xbce780b6	-0.028259616
96	0x3ef83342	0.48476607
97	0x3ee64bf3	0.4497982
98	0xbc864c0a	-0.01639368
99	0xbe012bb6	-0.1261433
100	0x3e25b4cc	0.1618225
101	0xbefa0c15	-0.48837343
102	0x3f2cd676	0.6751474
103	0xbe9a4c09	-0.30136135
104	0xbdccddf5	-0.100032724
105	0xbde96ffb	-0.11398312
106	0x3f07d38c	0.5305717
107	0x3d15f0aa	0.03660647
108	0xbe92dfb0	-0.28686285
109	0x3ed8c754	0.42339575
110	0xbf04a481	-0.51813513
111	0x3eab37d6	0.33441037
112	0x3dccbe60	0.09997249
113	0x3efc6869	0.4929841
114	0xbe303f74	-0.17211705
115	0x3e36ec58	0.17863595
116	0x3f6fcb88	0.9366994
117	0x3e4cb8e4	0.19992405
118	0xbecc0eae	-0.3985495
119	0x3de49d96	0.1116287
120	0x3eb2d514	0.3492819
121	0xbf206d28	-0.6266656
122	0x3d730103	0.059327137
123	0x3cb1bcea	0.021696527
124	0x3efd7407	0.49502584
125	0x3e18e11e	0.14929625
126	0x3e55fd7f	0.20897482
127	0x3e9f57a5	0.31121555
128	0xbeae9fe0	-0.3410635
129	0xbe4d6297	-0.2005714
130	0xbd7ce707	-0.061743762
131	0xbe87d907	-0.26532766
132	0x3d128002	0.03576661
133	0x3e72c901	0.2370949
134	0xbee06d4d	-0.4383339
135	0x3df74d1b	0.120752536
136	0x3e4ced13	0.20012312
137	0xbe9a5caa	-0.30148822
138	0xbe02cb18	-0.12772787
139	0x3ead46bf	0.33843037
140	0xbed80dca	-0.4219802
141	0xbec24326	-0.37941855
142	0x3edb6d3b	0.42856774
143	0x3ea93459	0.3304775
144	0xbe3b934a	-0.18317905
145	0x3dde5c5d	0.10857461
146	0x3e09520b	0.13410203
147	0x3e466d7c	0.19377702
148	0xbf3d9e9e	-0.74070156
149	0xbeb1d331	-0.3473144
150	0xbe998079	-0.2998083
151	0xbe8b42c1	-0.27199367
152	0xbea55e09	-0.32298306
153	0xbecce5d0	-0.40019083
154	0xbf07282a	-0.5279566
155	0xbdd47974	-0.10374728
156	0xbee20c0b	-0.44149813
157	0x3ed858df	0.42255303
158	0xbf1164cb	-0.5679442
159	0xbecf65c4	-0.4050733
160	0xbda46036	-0.08026163
161	0x3df2a7c8	0.11848408
162	0xbf206520	-0.62654305
163	0xbf04ff57	-0.5195212
164	0x3e0b15dd	0.13582559
165	0xbf0bdc50	-0.54633045
166	0x3e22cc36	0.15898213
167	0xbebf64c6	-0.37381572
168	0x3dd0d2ff	0.10196494
169	0xbe581786	-0.21102723
170	0xbf1be672	-0.60898507
171	0xbcec94f3	-0.028879618
172	0x3ec86217	0.39137337
173	0xbeb17d4c	-0.34665906
174	0x3e5b2baa	0.21403375
175	0x3e92ea2b	0.2869428
176	0x3ec574bd	0.38565627
177	0x3ef690b4	0.48157275
178	0x3ea7fc36	0.3280961
179	0xbf1fe12b	-0.62452954
180	0x3e89cfcd	0.26916352
181	0x3ece603f	0.40307805
182	0xbdf50d69	-0.119654484
183	0xbecb2168	-0.39673924
184	0xbf4c53c3	-0.7981531
185	0x3d878c66	0.06618576
186	0x3ed64316	0.41848058
187	0x3d4a61b7	0.049409594
188	0xbdd703b1	-0.10498751
189	0x3d0af44b	0.033924382
190	0xbc75a5ea	-0.01499317
191	0x3f53212c	0.8247249
192	0xbe9365e0	-0.28788662
193	0xbe18eefa	-0.14934912
194	0x3ef9e3b7	0.48806545
195	0x3d3d5c68	0.046230704
196	0xbda2cab8	-0.07948822
197	0xbdf02fc2	-0.11727859
198	0x3eb17bf6	0.34664887
199	0xbe62350c	-0.22090548
200	0x3ee43a2d	0.44575635
201	0x3edaa650	0.4270501
202	0x3f0af33c	0.54277396
203	0x3d1e3470	0.038624227
204	0xbe1686bd	-0.14699836
205	0xbe0d6f69	-0.13812031
206	0xbdad200c	-0.08453378
207	0x3ee4f5de	0.44718832
208	0x3ee039d2	0.43794113
209	0x3f0a5e6b	0.5405032
210	0xbe826669	-0.25468758
211	0xbdc02adb	-0.09383174
212	0x3efb4da6	0.4908268
213	0x3efa0e84	0.488392
214	0xbd8c3cd5	-0.0684754
215	0x3d065537	0.03279611
216	0xbe391430	-0.18074107
217	0xbe8d9384	-0.27651608
218	0xbe91ac29	-0.2845166
219	0xbda8ebfd	-0.08248136
220	0xbde30e4b	-0.110867105
221	0x3dcd25b5	0.10016958
222	0x3c7996d6	0.015233716
223	0xbea8128e	-0.32826656
224	0xbe80d734	-0.25164187
225	0xbd94dfaf	-0.07269227
226	0xbf104cb7	-0.5636706
227	0x3e4471f3	0.19184093
228	0xbe07bd02	-0.13255695
229	0x3eaf0a4d	0.34187546
230	0x3e1eecc5	0.15520008
231	0x3b0ade37	0.002118958
232	0xbdb8285d	-0.08992074
233	0x3f20061d	0.6250933
234	0x3e50ecda	0.20402852
235	0x3e44a51a	0.19203606
236	0xbf1e5686	-0.61850774
237	0x3e155a18	0.1458515
238	0x3edd564b	0.432299
239	0xbe1552f3	-0.14582424
240	0xbec1de8b	-0.378651
241	0xbf11f37c	-0.5701215
242	0xbf054bd8	-0.52068853
243	0xbe760695	-0.24025948
244	0xbe3b6924	-0.18301827
245	0xbe94c230	-0.29054403
246	0xbe84abce	-0.25912327
247	0x3dd0bbeb	0.101920925
248	0x3eec7587	0.46183416
249	0x3cee9df3	0.02912805
250	0x3d31f86e	0.04344981
251	0x3f2585ef	0.6465749
252	0x3f1afef6	0.6054529
253	0xbcae4d99	-0.021277236
254	0x3cca5679	0.024699437
255	0x3c84d0de	0.016212877

network_body.linear_encoder.seq_layers.0.bias f4 [128]
0	0x3b3a8582	0.0028460925
1	0x3bf77f2c	0.007553002
2	0x3ab712eb	0.001396743
3	0xbbbcd75b	-0.005762977
4	0x3b208a49	0.0024496487
5	0x3b3bef91	0.0028676728
6	0x3bb5d2cb	0.00554881
7	0xbb002ad7	-0.0019556785
8	0x3ba23aad	0.0049508424
9	0xbc182460	-0.009286016
10	0x3b2b0ca5	0.0026100066
11	0xbae2d8e2	-0.0017307068
12	0xb8133125	-3.50933e-05
13	0x3c222dfb	0.009898658
14	0xb9fa96a8	-0.00047795963
15	0x3a54638a	0.00081019907
16	0xbb8c539b	-0.0042824275
17	0x3be67b8e	0.007033772
18	0xb95a05c5	-0.0002079225
19	0x3b9a7957	0.004714172
20	0x3be6ac74	0.007039601
21	0x3cc2ce71	0.02378008
22	0x3c8595ee	0.016306844
23	0x3c54a77f	0.012979387
24	0x3cab19b2	0.020886276
25	0x3b7e64ec	0.0038817478
26	0x3c4a7011	0.01235582
27	0xbc8b3e4b	-0.016997477
28	0xbb943a7d	-0.004523574
29	0x3bd34112	0.006446966
30	0x3bc60866	0.0060434816
31	0x3b8d997c	0.0043212753
32	0x3bd23280	0.0064147115
33	0xbc054e5e	-0.00813636
34	0x3adfbdc4	0.0017070104
35	0x3bc0e57b	0.005886731
36	0xbae3881f	-0.0017359293
37	0xbb8c29d5	-0.0042774477
38	0xbab2cebb	-0.0013641933
39	0x3bd685e5	0.006546723
40	0xbbc2138a	-0.0059227394
41	0x3c71ef42	0.014766516
42	0xba2c59f8	-0.00065746857
43	0x3b795714	0.0038046287
44	0xba055de4	-0.0005087538
45	0xbb8e02ac	-0.0043338146
46	0x3b5c4a31	0.0033613557
47	0x3c6f8e80	0.014621377
48	0xbb859209	-0.0040762466
49	0xbc688d94	-0.014193911
50	0x3b4db2d4	0.0031387107
51	0xbb0842da	-0.00207918
52	0xbcb52428	-0.022111967
53	0x3b954ae7	0.004556048
54	0x3c83adb4	0.016074039
55	0xbb39b327	-0.0028335543
56	0x39e41e21	0.00043509997
57	0x3b5cf2f3	0.0033714145
58	0x3a8ec0e1	0.0010891223
59	0xbab99995	-0.0014160151
60	0x3bf04f68	0.0073336847
61	0x3b95d708	0.004572753
62	0xbbb54c6a	-0.005532791
63	0x3b935979	0.00449675
64	0x3aae4e37	0.0013298456
65	0xbacb8bf8	-0.0015529385
66	0xbb95a114	-0.004566321
67	0xbc006043	-0.007835451
68	0x3c14711b	0.00906017
69	0x3c5af345	0.013363664
70	0x3ad24469	0.0016042116
71	0x3bd0f9da	0.006377441
72	0x3b3c39ed	0.002872105
73	0xbce363a2	-0.02775747
74	0xbb9ae5ef	-0.0047271173
75	0x3b96bff7	0.0046005207
76	0x3bceacc1	0.006307215
77	0x3c740f7b	0.014896269
78	0x3c8e32a8	0.01735814
79	0xbb117939	-0.0022197498
80	0xbbb288e2	-0.0054484466
81	0xbc0831d7	-0.008312664
82	0xbb31b138	-0.0027113687
83	0x3bc83907	0.006110314
84	0x3b213541	0.0024598392
85	0xb89b4237	-7.4033094e-05
86	0x3a2a9191	0.00065066764
87	0xbb635143	-0.0034685887
88	0x39e9a4dd	0.00044564056
89	0xbbdffa37	-0.006835248
90	0x3a934624	0.0011236113
91	0xbc50458d	-0.012711895
92	0xbb8a6424	-0.0042233635
93	0x3b0c7392	0.002143119
94	0x3b6628a3	0.0035119436
95	0xbb8f3027	-0.004369754
96	0x3c32b6fc	0.010907885
97	0x3be68ee7	0.0070360783
98	0x3ae61ebd	0.0017556768
99	0xbab95430	-0.001413947
100	0xbabdff8f	-0.0014495718
101	0x3a4abfc4	0.0007734264
102	0x3a8ba634	0.0010654391
103	0x3bbcdd28	0.0057636686
104	0xbab10e31	-0.0013508258
105	0xbb96241a	-0.0045819404
106	0xbb93625d	-0.00449781
107	0x3c3e7a88	0.011625893
108	0x3b50e4e3	0.0031874708
109	0x3ac0d7b0	0.0014712717
110	0x3b529135	0.0032130007
111	0x3aef9687	0.0018279114
112	0x3b889dfc	0.004169224
113	0x3b918ed9	0.0044420776
114	0xbbdce425	-0.006741064
115	0x3b6ec9c7	0.0036436187
116	0x3b16ad8d	0.0022991628
117	0x3a8df47a	0.0010830306
118	0x3b148515	0.002266233
119	0x3c6b24c1	0.0143520245
120	0xbbe18464	-0.0068822373
121	0x3d0d9566	0.034566306
122	0xbad237ac	-0.001603832
123	0x3ca38399	0.019960212
124	0x3be08dfb	0.006852863
125	0x3ca1eebc	0.019767158
126	0xba39e08d	-0.00070906506
127	0x3baac16e	0.005211047

network_body.linear_encoder.seq_layers.2.weight f4 [128, 128]
0	0xbd4dcc05	-0.050243396
1	0x3e047f92	0.12939289
2	0xbdb953b5	-0.09049169
3	0xbd062a2d	-0.032755066
4	0x3dcbf208	0.09958273
5	0xbc8bd2e7	-0.01706834
6	0x3d70e7d4	0.05881484
7	0x3d8c7094	0.0685741
8	0x3ddf8a51	0.10915054
9	0x3df2ed11	0.11861623
10	0x3d6baa1d	0.05753528
11	0xbbb3d1ff	-0.00548768
12	0x3c6e9747	0.0145624345
13	0xbdce1d56	-0.10064189
14	0x3ccae6cf	0.024768261
15	0x3dbd1b83	0.09233763
16	0x3c6e9784	0.014562491
17	0xbd846214	-0.064640194
18	0x3e263123	0.16229682
19	0xbc842af3	-0.016133761
20	0x3b2cf726	0.002639243
21	0x3e1f22bb	0.15540592
22	0xbd278130	-0.040894687
23	0xbdd6480c	-0.104629606
24	0x3dfa7aa6	0.122304246
25	0xbdf25438	-0.1183247
26	0xbe107edd	-0.14110895
27	0x3df1e771	0.11811722
28	0xbddc8522	-0.107675806
29	0xbd76fb46	-0.060298227
30	0x3d1ea20c	0.03872876
31	0xbdd658e9	-0.10466177
32	0x3d11bffa	0.035583474
33	0xbc184795	-0.00929441
34	0xbd436418	-0.04770288
35	0xbd337c75	-0.043819863
36	0x3d566cdc	0.05234991
37	0xbe57c651	-0.21071745
38	0x3e033708	0.12813962
39	0xbddb056a	-0.10694392
40	0xbddd7a84	-0.108143836
41	0x3daf058c	0.0854598
42	0x3dcbbb22	0.09947802
43	0xbddc246f	-0.10749137
44	0x3d860d97	0.06545561
45	0xbdac2fca	-0.084075525
46	0xbd6bf95e	-0.057610862
47	0xbd9c2f40	-0.076262
48	0xbe59712b	-0.21234576
49	0x3e762bc2	0.2404013
50	0xbbaaf366	-0.0052170036
51	0x3e266ee0	0.16253233
52	0xbd6989e1	-0.057016257
53	0x3dbca17c	0.09210488
54	0xbe52cab1	-0.20585133
55	0xbccc0fa5	-0.024909804
56	0x3e3fea35	0.18741687
57	0x3cba47d2	0.022739325
58	0x3ca98399	0.020692633
59	0x3e157baf	0.14597963
60	0xbc855e5d	-0.016280347
61	0x3e680740	0.22659016
62	0xbe5fff9f	-0.21874855
63	0xbdb1527e	-0.08658312
64	0xbc049f1b	-0.008094574
65	0xbe4d7edb	-0.20067923
66	0x3ce40afa	0.027837265
67	0xbced3e11	-0.02896026
68	0x3dfe16e4	0.1240671
69	0x3d563012	0.052291937
70	0x3d83bf2f	0.0643295
71	0x3e163243	0.14667611
72	0x3d19dd35	0.037564475
73	0xbe2cc8fd	-0.16873546
74	0xbd1538e3	-0.036431205
75	0x3d02b494	0.031910494
76	0xbbc94a02	-0.0061428556
77	0x3e19dd0d	0.1502573
78	0x3c3f9237	0.011692575
79	0x3d515a16	0.051111303
80	0xbd397aae	-0.045283012
81	0xbdeb3a66	-0.11485748
82	0x3d71da73	0.05904622
83	0xbdb884bb	-0.09009691
84	0xbe0d8947	-0.13821898
85	0xbd69a19a	-0.05703888
86	0xbca504be	-0.020143863
87	0x3cdd0fc0	0.02698505
88	0x3d8ded97	0.06930082
89	0x3ce9cf1a	0.028541137
90	0x3d7aa7d6	0.061195217
91	0xbd00a67d	-0.031408776
92	0xbd109634	-0.035299495
93	0x3ce4863b	0.027896037
94	0xbdd1d57d	-0.10245798
95	0xbca6ac65	-0.020345876
96	0x3df924a8	0.12165195
97	0x3d795fa4	0.060882226
98	0xbcfa8f19	-0.030585812
99	0xbc62c9b9	-0.01384204
100	0xbd4df657	-0.050283756
101	0x3da11310	0.07864964
102	0x3d93a5e7	0.07209378
103	0x3d13a660	0.03604734
104	0xbcc35acd	-0.023847008
105	0x3d434495	0.047672827
106	0xbab8cb24	-0.0014098627
107	0xbe2ac38d	-0.16676159
108	0x3ad3315f	0.0016112736
109	0x3cf5f090	0.030021936
110	0xbad550b4	-0.0016274662
111	0x3d39c742	0.045356043
112	0x3e0b7d90	0.13622117
113	0xbbf8e747	-0.00759593
114	0xbdb95c4d	-0.09050808
115	0x3bdd20ee	0.0067483103
116	0xbdc1ee2a	-0.09469254
117	0x3c5b223c	0.013374861
118	0xbc1f17f0	-0.009710297
119	0x3cfc80f0	0.030823201
120	0x3df09f0d	0.117490865
121	0x3d856819	0.06513996
122	0x3c39851a	0.011323238
123	0xbe08dcf4	-0.13365537
124	0x3e036333	0.1283081
125	0x3e005fa6	0.12536487
126	0xbd1563db	-0.036472183
127	0xbdb0715a	-0.0861537
128	0x3d958ca7	0.07302218
129	0x3cece8b0	0.028919548
130	0x3c3ca904	0.011514906
131	0x3d31d56f	0.043416437
132	0x3c1bac88	0.009501584
133	0xbb73b211	-0.0037184993
134	0xbdc1d5bc	-0.09464595
135	0x3e035708	0.12826169
136	0xbd1b5737	-0.03792497
137	0xbd357a8e	-0.04430633
138	0xbda32aa1	-0.07967115
139	0x3d973571	0.0738324
140	0xbe833c55	-0.25631967
141	0x3e466538	0.1937455
142	0x3d2ced4f	0.042218503
143	0xbd2d3c07	-0.042293575
144	0x3d22d285	0.03975155
145	0xbdef3a1e	-0.11681007
146	0x3c82783f	0.015926478
147	0xbdbf367a	-0.093365625
148	0xbcd9146d	-0.026498998
149	0xbc01a04b	-0.007911752
150	0x3d25a10f	0.0404368
151	0x3dd59fee	0.10430895
152	0xbe16cf00	-0.14727402
153	0xbd8aacbb	-0.06771227
154	0x3d0e1612	0.034689017
155	0xbe06c887	-0.13162433
156	0xbbe66562	-0.0070311287
157	0x3d55163c	0.052023157
158	0x3d35709c	0.044296846
159	0x3ca48b4c	0.020085953
160	0xbbbc058a	-0.005737965
161	0xbd95b631	-0.07310141
162	0x3dc2ad04	0.09505656
163	0xbddf577d	-0.10905359
164	0xbdae61fb	-0.08514782
165	0xbcb05f9a	-0.021529961
166	0xbd0793e6	-0.03310003
167	0xbddcce3b	-0.10781523
168	0xbd579c5b	-0.052639347
169	0xbd2ce96a	-0.04221479
170	0xbdaf41b2	-0.08557452
171	0x3dba87ff	0.091079704
172	0xbd0a11ba	-0.03370831
173	0x3dc641f0	0.09680545
174	0x3cfdf967	0.031002713
175	0x3e333369	0.1750008
176	0xbcd87f68	-0.02642794
177	0x3e332fb9	0.17498673
178	0xbd7370b8	-0.05943367
179	0x3e06a1f8	0.13147724
180	0xbdd3d4fd	-0.10343359
181	0x3d638d6c	0.055554792
182	0xbd478ce1	-0.048718337
183	0x3e09a8da	0.13443318
184	0xbd07b028	-0.03312698
185	0xbe54fe32	-0.20800093
186	0x3cd20028	0.02563484
187	0xbddf67ba	-0.10908456
188	0x3d03d331	0.03218383
189	0xbd83a589	-0.06428058
190	0xbcc14d20	-0.023596346
191	0xbd5acdee	-0.053419046
192	0x3d2ba065	0.04190101
193	0xbdeea418	-0.11652392
194	0x3d310b0a	0.04322342
195	0x3d6e1bc5	0.05813195
196	0xbe0187c6	-0.1264945
197	0x3e098d43	0.13432793
198	0x3dd55501	0.10416604
199	0x3d782d06	0.060589813
200	0x3bff5c8c	0.007793015
201	0x3b90cbd0	0.0044188276
202	0xbe301a23	-0.1719747
203	0x3d04d3d1	0.032428566
204	0xbcf25246	-0.029580247
205	0xbd5b5a8e	-0.053553157
206	0xbdcaa318	-0.09894389
207	0x3d848084	0.06469825
208	0xbd1b4c12	-0.037914343
209	0xbde3371e	-0.11094497
210	0xbcea34f2	-0.0285897
211	0xbd684e91	-0.05671555
212	0xbc45da26	-0.012075936
213	0xbd3bd53c	-0.045857653
214	0xbda40260	-0.080082655
215	0xbe377ade	-0.17917964
216	0xbd591117	-0.052994814
217	0x3e045abe	0.1292524
218	0xbbd1d2fe	-0.006403326
219	0xbe5bc3b9	-0.21461381
220	0xbd90dc72	-0.070732966
221	0x3d853a00	0.06505203
222	0x3d7bb72e	0.06145399
223	0xbdb9e48c	-0.09076795
224	0x3d04daaf	0.032435115
225	0x3bed48ff	0.007241368
226	0xbe07fd88	-0.13280308
227	0x3d567291	0.052355353
228	0xbc7e17ea	-0.015508631
229	0xbe2b69dc	-0.16739601
230	0x3d868864	0.06568983
231	0xbd9b97f3	-0.075973414
232	0xbb4dab75	-0.0031382714
233	0x3dd06491	0.101754315
234	0x3d5906f8	0.05298516
235	0xbd82f851	-0.06395019
236	0x3d82fe7e	0.06396197
237	0xbd9f8656	-0.077892944
238	0xbd36aba3	-0.04459728
239	0xbe471277	-0.19440638
240	0xbd9b221b	-0.075748645
241	0xbdb38d46	-0.0876718
242	0x3d7331f5	0.059373815
243	0xbda95356	-0.08267848
244	0xbd393cc7	-0.045223977
245	0x3e049584	0.1294766
246	0xbd2d84ac	-0.042362854
247	0x3e5459f0	0.20737433
248	0x3d962141	0.073305614
249	0x3d5a1c59	0.05324969
250	0xbdb2bf05	-0.0872784
251	0x3db59e7b	0.088681184
252	0x3c449092	0.011997359
253	0xbd97c558	-0.07410687
254	0x3cd1745a	0.025568176
255	0xbcdc0dde	-0.026862081

network_body.linear_encoder.seq_layers.2.bias f4 [128]
0	0xbb0397ac	-0.0020079417
1	0x3a6f5b97	0.00091307744
2	0xbb2558c4	-0.002522991
3	0xba13d5a9	-0.0005639443
4	0x3bfb8a8f	0.0076764296
5	0x3b2c51ff	0.002629399
6	0x3bb9ddf2	0.00567221
7	0xbb965764	-0.0045880545
8	0x3b5ed4a5	0.0034001258
9	0xbb7cf8a6	-0.0038600354
10	0xbb8e32b0	-0.0043395385
11	0xbb662d3c	-0.0035122177
12	0xbb9a82e5	-0.004715311
13	0xbb48dfd4	-0.003065099
14	0x3b393640	0.0028261095
15	0x3b06530a	0.0020496272
16	0xbb3dca89	-0.0028959832
17	0x3c5ba699	0.013406419
18	0xbb628349	-0.0034563115
19	0xbb065ace	-0.00205009
20	0xbb9af21a	-0.004728568
21	0x3ae6268d	0.0017559096
22	0x3aa4873e	0.0012552512
23	0x3be131aa	0.0068723755
24	0xbac8a957	-0.0015309256
25	0xbb317e2e	-0.0027083266
26	0xbc09a375	-0.008400788
27	0x3a852e9d	0.0010160987
28	0x3c03099c	0.0079978965
29	0xbb6ddfa6	-0.0036296635
30	0x39903b45	0.0002750998
31	0xbbbb61a2	-0.005718426
32	0xbae7ce61	-0.0017685407
33	0x3a6d5ca0	0.0009054635
34	0x3c5196b4	0.012792278
35	0x3bd26e97	0.0064218747
36	0xbb40c850	-0.002941627
37	0x3a57e716	0.00082360336
38	0x3c0b6868	0.008508779
39	0xbb9e887c	-0.0048380475
40	0xb8360da8	-4.34049e-05
41	0x3bb74b3f	0.005593687
42	0xbb0c38c6	-0.0021396144
43	0xbaa46b52	-0.0012544191
44	0x3b3928a8	0.0028252993
45	0x3b4a9cc6	0.0030916198
46	0xbb4745ea	-0.0030406662
47	0x3b05eb45	0.002043442
48	0xbbbd272c	-0.005772492
49	0xbbb18927	-0.005417961
50	0x3bb78ce0	0.0056015104
51	0x3b6339dd	0.003467194
52	0xbbb1cfbb	-0.0054263747
53	0x3adb0225	0.0016709013
54	0x3c227892	0.0099164415
55	0xbc1f5fa1	-0.00972739
56	0xb9c63c88	-0.00037810602
57	0xbb88b956	-0.0041724844
58	0xbbfa4654	-0.0076377783
59	0x3b6e6e05	0.0036381495
60	0x3c500814	0.0126972385
61	0x3759dbe4	1.2985405e-05
62	0x3b355925	0.0027671542
63	0xbbb199e7	-0.005419958
64	0xbc082404	-0.008309368
65	0x3c09cd2d	0.008410734
66	0x3b6f4b41	0.003651336
67	0x3c27b0a0	0.010234982
68	0x3a855d9b	0.0010174991
69	0xbbcf9d06	-0.0063358573
70	0xbb991d7c	-0.0046727043
71	0xbbbee896	-0.0058260662
72	0xba7a4e56	-0.0009548416
73	0x3b3af08b	0.0028524722
74	0x3b2e9e76	0.0026644743
75	0x3c70ea7f	0.014704346
76	0xbb985cb5	-0.0046497234
77	0xbace657b	-0.0015746796
78	0x3aaa7b39	0.0013006694
79	0xbb301371	-0.0026867057
80	0xbc001a8f	-0.007818832
81	0x3c2768dc	0.0102178715
82	0xbbbdc211	-0.005790957
83	0x3baf208e	0.005344457
84	0x3ac84113	0.0015278183
85	0xba317316	-0.00067691633
86	0x3b5d292b	0.0033746462
87	0x3af74125	0.0018864019
88	0xbbc3f028	-0.0059795566
89	0xbb8cde6e	-0.0042989766
90	0x3b167068	0.0022955183
91	0x3b35de99	0.0027751087
92	0xbaf24170	-0.0018482637
93	0x3b7eb7a1	0.0038866776
94	0xbb41d9fa	-0.0029579387
95	0xbb85665d	-0.0040710405
96	0xbc14064f	-0.009034707
97	0xbc1a8def	-0.009433254
98	0xbb1d04ab	-0.002395908
99	0xbb964de7	-0.0045869234
100	0x3b849fc0	0.004047364
101	0xbb5b853c	-0.0033496162
102	0xbbc3f0f3	-0.005979651
103	0x3b1867d8	0.0023255255
104	0x3bcea813	0.006306657
105	0x3bed206e	0.007236532
106	0xbb4dc096	-0.0031395308
107	0xba4162db	-0.00073770963
108	0x3b14cea6	0.002270618
109	0xbbd55381	-0.0065101986
110	0x3aecb513	0.0018059335
111	0x3bf81632	0.0075710053
112	0xba87d826	-0.00103641
113	0xbb8890d8	-0.0041676573
114	0x3b4f9b1f	0.0031678153
115	0x3aa167e2	0.0012314285
116	0xbb8c561e	-0.004282727
117	0xbb85f087	-0.004087511
118	0xbb8aacc7	-0.0042320224
119	0xbbd7a049	-0.006580387
120	0xbbecdf76	-0.007228787
121	0x3c32224a	0.010872433
122	0x3c265d49	0.010154077
123	0xbb09498b	-0.0020948376
124	0xb990934e	-0.0002757557
125	0x3a7ac568	0.0009566159
126	0xbb91af4d	-0.0044459463
127	0xbb86bc9d	-0.00411184

action_model._continuous_distribution.log_sigma f4 [1, 2]
0	0xbbbbc1a8	-0.0057298727
1	0xbbcaabc3	-0.0061850264

action_model._continuous_distribution.mu.weight f4 [2, 128]
0	0x37a3f5d3	1.9545585e-05
1	0x3cab2c43	0.02089513
2	0x3ccc8479	0.024965512
3	0x3d18f94e	0.03734713
4	0xbc2e84c8	-0.010651775
5	0xba5aca25	-0.0008346162
6	0xbc429cbd	-0.01187819
7	0x3bd08b47	0.0063642594
8	0x3c8aae86	0.016928922
9	0xbc1b2823	-0.009470019
10	0x3b1a5ae6	0.0023552715
11	0xbc81322a	-0.01577099
12	0xbb659b57	-0.0035035217
13	0x3c43e1cc	0.01195569
14	0xbd0ef964	-0.034905806
15	0x3c597643	0.013272825
16	0x3c826fb9	0.015922414
17	0xbbf1b0b4	-0.007375801
18	0xbc56c9a0	-0.013109595
19	0xbc803e02	-0.015654568
20	0x3cf5d9d3	0.030011093
21	0x3ca2f1a3	0.019890612
22	0x3c40601e	0.011741666
23	0x3b936086	0.0044975905
24	0x3c834600	0.01602459
25	0x3cda1cc2	0.02662504
26	0x3aa04c11	0.0012229701
27	0xbbc6b537	-0.006064083
28	0x3c7870fe	0.015163658
29	0xbbdcedb2	-0.0067422027
30	0x3d02d9bb	0.031945925
31	0x3b4b5d01	0.0031030776
32	0xbc01389b	-0.007887031
33	0xb9f2ac65	-0.0004628628
34	0x3cec5b50	0.028852135
35	0x3d1c868d	0.038214255
36	0xbc0899f7	-0.008337489
37	0x3d0fca95	0.035105307
38	0x3cc51011	0.024055513
39	0xbad9cf94	-0.0016617649
40	0xbcc7bd5d	-0.024382288
41	0xbc2e5220	-0.010639697
42	0x3c276305	0.010216479
43	0x3d02ab23	0.03190149
44	0x3c2cbb3c	0.010542687
45	0xbcc4a822	-0.024005953
46	0xbc3e7dd2	-0.011626678
47	0x3bd40753	0.0064705997
48	0xbb9c9a4a	-0.004779135
49	0x3b99d509	0.004694585
50	0x3c197d58	0.009368263
51	0xbc82a345	-0.015946994
52	0x3a8f0500	0.0010911524
53	0x3c223bab	0.009901921
54	0x3b1adef5	0.0023631428
55	0xbcbe6b0a	-0.0232444
56	0xbc230f9c	-0.009952452
57	0x3c87bc4f	0.016569285
58	0x3c801ad5	0.015637795
59	0xbcd70257	-0.026246233
60	0xbc55e773	-0.01305567
61	0x3cbff866	0.023433875
62	0x3ccc7d9c	0.024962239
63	0x3a4650ee	0.000756516
64	0xbc73669a	-0.014856005
65	0xbbd92fd3	-0.0066280155
66	0xbb947c66	-0.004531431
67	0x3b53b7c0	0.0032305568
68	0xbc7fa6f1	-0.015603767
69	0xbbd399a6	-0.0064575253
70	0x3b7872ce	0.0037910226
71	0x3c091d3c	0.008368786
72	0xbcd0504b	-0.025428912
73	0xbbf4139e	-0.0074486276
74	0xbcd1704d	-0.025566244
75	0x3c324f08	0.0108831
76	0x3ba60e90	0.005067654
77	0xbb8423bb	-0.0040325797
78	0xbd3b238c	-0.045688197
79	0x3c38ef21	0.0112874815
80	0xbc34fede	-0.011047093
81	0x3c665c25	0.014060055
82	0xbafc9c9a	-0.0019272745
83	0x3c5bd4c1	0.013417424
84	0x3d0f0c48	0.03492382
85	0xbcbffc36	-0.023435693
86	0xbcef5c8a	-0.02921893
87	0xbb0d0414	-0.0021517323
88	0xbc6ce9b0	-0.014460012
89	0x3c5ae8b6	0.013361147
90	0x3c42014a	0.011841128
91	0xbba555f1	-0.0050456454
92	0x3d0cad00	0.034344673
93	0x3bbb46e3	0.0057152375
94	0xbcbc7f87	-0.023010029
95	0xbc27273b	-0.010202224
96	0xbb044975	-0.0020185385
97	0xbc8b658f	-0.0170162
98	0x3c02154b	0.007939647
99	0x3aa611c1	0.0012670086
100	0x3a8c507c	0.0010705139
101	0x3cb2f37f	0.021844624
102	0x3984206a	0.00025201152
103	0xbc409207	-0.011753566
104	0x3beebe5e	0.007285877
105	0x3d02cdb3	0.03193445
106	0xb94320e3	-0.000186089
107	0x3be48895	0.0069742897
108	0xbc9057cd	-0.017619992
109	0x3ba6204a	0.005069767
110	0x3c5b4132	0.013382243
111	0x3c64a0a4	0.013954315
112	0x3b3730b3	0.002795261
113	0x3c318cdb	0.010836805
114	0x3c51defb	0.01280951
115	0xbca14534	-0.019686319
116	0x3ba952cc	0.005167341
117	0x3c357c78	0.011077039
118	0x3c3b2585	0.01142252
119	0x3c1ec48d	0.009690416
120	0xbb48f9e7	-0.0030666532
121	0xbc0524f6	-0.008126488
122	0x3c07699f	0.008264928
123	0x3cb60fb1	0.02222428
124	0x3d15b5dd	0.03655039
125	0xbcf2c4e8	-0.029634908
126	0x3c67a5e2	0.014138671
127	0xbc0270ef	-0.007961496
128	0x3c84d471	0.016214581
129	0xbbca78a4	-0.0061789323
130	0xbce9ce5b	-0.02854078
131	0x3b811c50	0.0039401427
132	0x3c7e9380	0.015538096
133	0x3d1210b6	0.035660468
134	0x3c9bf8f8	0.019039616
135	0x3c47ae68	0.012187578
136	0x3d21c979	0.03949878
137	0x3c824035	0.015899757
138	0xbcdf585c	-0.027263813
139	0x3c9b139b	0.018930247
140	0xbcd7748d	-0.026300693
141	0xbba6ba9b	-0.005088163
142	0x3b6ad739	0.003583385
143	0x3cf0e30d	0.029405141
144	0x3a9b900c	0.0011868491
145	0xbd3a8fb9	-0.04554722
146	0xbc37e39d	-0.011223701
147	0xbb327234	-0.0027228715
148	0xbc98f752	-0.018672619
149	0x3cf86ef8	0.030326352
150	0xbc0f6bea	-0.008753756
151	0xbceedb67	-0.029157354
152	0xbb0b9ffd	-0.0021305077
153	0xbb95bc61	-0.0045695757
154	0x3bdeb677	0.006796654
155	0x3c8c8538	0.017153367
156	0xbc9c7aa9	-0.019101458
157	0xbb7fe62f	-0.0039047112
158	0xbbe42c0f	-0.00696326
159	0xbc71b8d4	-0.014753539
160	0xbbe50183	-0.0069887056
161	0xbd44b48a	-0.048023738
162	0xbd526869	-0.051369105
163	0xbc5b96c0	-0.013402641
164	0xbb6d5dde	-0.003621928
165	0x3ced678a	0.028980035
166	0xbd25805e	-0.040405624
167	0xbba5df06	-0.005061987
168	0x3bd0d9f1	0.006373637
169	0xbd46c171	-0.048524324
170	0xbcfde81f	-0.030994473
171	0xbc4c5f56	-0.012473902
172	0x3d1ae254	0.0378135
173	0x3cfc03b2	0.03076348
174	0xbd0f65d3	-0.035009217
175	0x3cf0d67b	0.029399147
176	0xbb631af5	-0.0034653519
177	0x39b23491	0.0003398997
178	0xbd013a59	-0.031549785
179	0x3c93adc8	0.018027201
180	0xbcb88db0	-0.0225285
181	0x3cacf0aa	0.021110851
182	0x3d4669a5	0.048440594
183	0x3cf9f7c1	0.030513646
184	0xbca5da7b	-0.020245781
185	0x3ca50931	0.020145984
186	0x3c8eadca	0.017416853
187	0xbcd7c4bf	-0.026338933
188	0x3d03aaef	0.032145437
189	0xbc8bd1e6	-0.01706786
190	0x3cf69254	0.030099072
191	0xb9256478	-0.00015773054
192	0x3c70764c	0.014676642
193	0xbd3b1093	-0.045670103
194	0x3d0aa6f9	0.033850644
195	0x3c4d5bf3	0.012534129
196	0xbb45298c	-0.0030084578
197	0x3c643bd7	0.013930283
198	0x3ba8ede3	0.0051553114
199	0xbbc87558	-0.006117504
200	0xbc871456	-0.01648919
201	0xbb94aeb5	-0.0045374283
202	0x3cb67cfd	0.022276396
203	0xbd233f73	-0.03985543
204	0xbbef974c	-0.007311737
205	0x3bc273c9	0.005934213
206	0xbd53e56d	-0.05173247
207	0xbcbfa6df	-0.023395
208	0x3c5d2f74	0.013500083
209	0x3cc3b7fc	0.023891442
210	0xbbbdb57a	-0.005789456
211	0x3c9eab61	0.01936883
212	0xbcc81fcf	-0.02442923
213	0xbc24a55a	-0.0100491885
214	0x3d0848ef	0.03327268
215	0x3c66fb53	0.014098006
216	0x3c88274b	0.016620299
217	0xbbc390ea	-0.005968203
218	0x3d11f7df	0.03563678
219	0x3c496a28	0.012293376
220	0xbc39745e	-0.011319248
221	0x3cc6a746	0.024249684
222	0xbcb3c68f	-0.021945266
223	0xbb9b6235	-0.004741932
224	0xb8a77070	-7.984124e-05
225	0x3c329c96	0.010901591
226	0x3b55d703	0.0032629378
227	0xbc1f685c	-0.009729471
228	0x39d2ee31	0.00040231788
229	0xbc8cd1d3	-0.017189896
230	0xbb11a5dd	-0.0022224106
231	0x3c849d20	0.016188204
232	0x3cefbe10	0.029265434
233	0x3d0ed799	0.03487358
234	0x3c24bab3	0.010054278
235	0x3be6da0f	0.0070450376
236	0x3c9681ec	0.018372498
237	0x3c2a0d4d	0.010379148
238	0xbc7d7c08	-0.015471466
239	0xbcf31cee	-0.02967688
240	0x3c86359c	0.016382985
241	0xbb420e8f	-0.0029610728
242	0x3d38fa01	0.045160297
243	0xbd06331d	-0.03276359
244	0x3b94d12d	0.0045415373
245	0xbd08269f	-0.033239957
246	0xbc2e36a4	-0.0106331445
247	0x3c3133b5	0.010815551
248	0x3c82174c	0.01588025
249	0x3ce1cfbe	0.02756488
250	0x3c9b54ee	0.018961396
251	0x3c31254b	0.010812114
252	0x3b7d0c0e	0.0038611921
253	0x3c34de49	0.011039325
254	0xbc6cbd42	-0.014449419
255	0x3cd0d9d8	0.025494501

action_model._continuous_distribution.mu.bias f4 [2]
0	0xba4ae160	-0.0007739272
1	0x3b54bab2	0.0032459912
