AdvancedToolsMachineLearningUnity/Assets/NNModels/CoopJumping/FirstTry/BlueAgent.onnx (onnx, 77181 bytes, 10 tensors)

network_body.linear_encoder.seq_layers.0.weight f4 [128, 4]
-0.19730625 -0.6312229 0.21649373 0.22102223 0.23960109 0.05412057 -0.3980155 -0.35074592
-0.13077419 -0.8123024 -0.41339213 0.35148203 0.43772954 0.63133 -0.30490586 0.003430824
0.1803511 0.47741163 -0.3087246 0.2773806 0.26532096 0.4363871 0.5891634 -0.6467109
-0.6902962 0.29804862 -0.06621336 0.36235163 -0.58901083 0.008554854 0.012212718 0.10666567
0.1071082 0.24082692 -0.5116818 -0.2418833 -0.8397756 0.45642978 0.7117973 0.95173556
0.077997744 0.36110008 -0.0889858 0.822551 0.7256385 -1.0711594 -0.41996992 0.07499813
-0.2985161 -0.4132605 0.22818403 -0.0814258 -0.27212784 -0.2600758 -0.7239842 -0.17980635
0.738808 -0.55849975 0.30354053 0.17112789 0.03044901 -0.067167364 -0.6008329 -0.019895796
-0.68750113 0.03132745 -0.835065 0.6508949 0.13606885 -0.03111062 0.69403446 -0.40462607
0.17975605 -0.05509504 -0.4741879 0.6506187 -0.72643226 -0.8063696 -1.057323 -0.75690424
-0.7455862 0.5086357 0.5972156 0.14012 -0.646132 -0.333524 -0.052941684 -0.0960424
0.43498018 0.2122513 0.25501764 0.036418002 -0.061492905 0.09851381 0.36521047 0.15589537
0.5506551 -0.4506591 1.0084933 -0.89695954 0.0049684676 -0.2204413 0.57367325 1.2558026
-0.011066164 0.19844949 -0.22168493 -0.11990569 0.11228268 -0.5700433 0.41624928 0.29948717
0.50359994 -0.1136475 1.1901003 -0.3509234 -0.5777283 0.7066603 0.19658652 0.04613626
0.6932745 0.7185261 -0.79690385 -0.18803287 0.29549083 0.022126626 -0.0043367916 0.4858591
-0.8902655 0.59550774 0.41382995 0.35406294 -0.30528447 0.5032636 0.008633121 -0.1288725
-0.38986632 -0.6511751 1.2684568 -1.2221581 0.28791073 0.1471942 -0.22039008 0.15416868
0.13014576 0.02513388 -0.9260733 -1.021387 0.5033389 -0.014313217 0.7700673 0.25633815
-0.3777913 1.0551217 0.5018691 0.8596218 0.22517644 0.7171538 0.17416836 0.38728252
0.5922804 0.34180373 -0.39993957 0.517736 -0.564368 -0.48652866 -0.089795545 -0.6451407
-0.7400906 -0.7088276 0.07896541 -0.1666462 0.65347 -0.16012715 -0.466733 0.5832011
-0.12954184 -0.60583764 -0.77627236 0.9736764 0.059418667 0.027970148 0.6360464 -0.044273816
-0.11474097 -0.52285546 -0.057056993 -0.5403135 0.47172055 -0.7145617 -0.44644874 -0.076126784
0.3186884 0.1402251 -0.2495088 0.057426095 -0.9996324 0.22457442 -0.34823662 0.57010174
0.0105329035 -0.15170528 -0.08080908 -0.5753499 -0.36273602 -0.42823097 0.58410203 0.96612453
-0.04094148 0.7786639 0.29537284 0.07461529 -0.42915207 -0.7494731 -0.390054 0.21960564
0.40286103 0.22526722 0.78216076 -0.25029135 -0.14978056 0.102585346 0.47931418 -0.42660645
0.141888 -0.80149275 0.8081091 -0.36503673 -0.11887358 -0.7334891 -0.24816112 0.6444818
-0.02224746 -0.48411462 -0.36197573 0.30435768 0.5029218 -0.33293146 -0.41459402 -0.3134255
-0.1814519 -0.07996853 0.16960482 0.30920845 0.2582436 0.45240903 -0.54397565 0.24417016
-0.3481062 -0.21151057 -0.44038433 -0.17852587 0.4535539 -0.31783697 0.21141227 -1.1446128
00000000: a60a 4abe d397 21bf 88b0 5d3e a753 623e
00000010: fd59 753e 88ad 5d3d b0c8 cbbe f894 b3be
00000020: abe9 05be 0df3 4fbf 22a8 d3be 74f5 b33e
00000030: 161e e03e d89e 213f 9f1c 9cbe add7 603b
00000040: f5ad 383e 4c6f f43e 2711 9ebe d404 8e3e
00000050: 26d8 873e 216e df3e 6ad3 163f d88e 25bf
00000060: 40b7 30bf d499 983e df9a 87bd 2786 b93e
00000070: 6ac9 16bf a929 0c3c da17 483c 8873 da3d
00000080: 8b5b db3d 559b 763e 94fd 02bf 41b0 77be
00000090: 89fb 56bf 2ab1 e93e 5938 363f f1a4 733f
000000a0: 48bd 9f3d 1ce2 b83e 303e b6bd b492 523f
000000b0: 72c3 393f c01b 89bf 4c06 d7be 9f98 993d
000000c0: 1ad7 98be e196 d3be 13a9 693e 92c2 a6bd
000000d0: 5754 8bbe a828 85be 0757 39bf 281f 38be
000000e0: 8522 3d3f d7f9 0ebf aa69 9b3e 263c 2f3e
000000f0: 3470 f93c 0b8f 89bd 2fd0 19bf 82fc a2bc
00000100: 1300 30bf 3651 003d d2c6 55bf 0ca1 263f
00000110: a255 0b3e b3db febc 3eac 313f 262b cfbe
00000120: f811 383e 56ab 61bd c2c8 f2be f28e 263f
00000130: 77f7 39bf 3d6e 4ebf 5c56 87bf 7ac4 41bf
00000140: bdde 3ebf f335 023f 1fe3 183f 9e7b 0f3e
00000150: e868 25bf a8c3 aabe 61d9 58bd e1b1 c4bd
00000160: b9b5 de3e 6858 593e ac91 823e 0b2b 153d
00000170: fcdf 7bbd 9cc1 c93d defc ba3e 09a3 1f3e
00000180: bcf7 0c3f cabc e6be 4f16 813f 249f 65bf
00000190: 87ce a23b 5dbb 61be 40dc 123f 24be a03f
000001a0: db4e 35bc 5836 4b3e 6001 63be 1d91 f5bd
000001b0: 76f4 e53d 5cee 11bf a01e d53e 6256 993e
000001c0: edeb 003f 05c0 e8bd 3555 983f 3bac b3be
000001d0: 00e6 13bf b0e7 343f fa4d 493e 60f9 3c3d
000001e0: 707a 313f 54f1 373f e401 4cbf b08b 40be
000001f0: 934a 973e e642 b53c a51b 8ebb 86c2 f83e
00000200: 71e8 63bf 3273 183f 85e1 d33e bd47 b53e
00000210: 3f4e 9cbe e2d5 003f ef71 0d3c 27f7 03be
00000220: 8f9c c7be 69b3 26bf cb5c a23f ad6f 9cbf
00000230: 0969 933e 14ba 163e f0ad 61be 65de 1d3e
00000240: ee44 053e 91e5 cd3c 2413 6dbf cfbc 82bf
00000250: d1da 003f fc81 6abc 2123 453f c13e 833e
00000260: dc6d c1be 3a0e 873f 7e7a 003f 2d10 5c3f
00000270: a794 663e 6497 373f 3159 323e e549 c63e
00000280: b09f 173f e600 af3e e1c4 ccbe 598a 043f
00000290: 6c7a 10bf 491a f9be bae6 b7bd f127 25bf
000002a0: 9476 3dbf ba75 35bf 9eb8 a13d 4da5 2abe
000002b0: cf49 273f 5ff8 23be a1f7 eebe ab4c 153f
000002c0: 9ea6 04be 2d18 1bbf c9b9 46bf db42 793f
000002d0: fd60 733d a721 e53c f0d3 223f 7658 35bd
000002e0: 50fd eabd dbd9 05bf 98b4 69bd fc51 0abf
000002f0: 5b85 f13e 84ed 36bf ee94 e4be 5ce8 9bbd
00000300: 202b a33e 2b97 0f3e 3c7f 7fbe a037 6b3d
00000310: e9e7 7fbf d6f6 653e 124c b2be 30f2 113f
00000320: 3392 2c3c a158 1bbe 3b7f a5bd 224a 13bf
00000330: 89b8 b9be 1741 dbbe b687 153f f053 773f
00000340: 41b2 27bd 8456 473f 1c3b 973e e7cf 983d
00000350: d2b9 dbbe 78dd 3fbf 28b5 c7be 4de0 603e
00000360: cd43 ce3e 73ac 663e b03b 483f 3026 80be
00000370: 1360 19be 4418 d23d ab68 f53e 296c dabe
00000380: 164b 113e a12e 4dbf 3de0 4e3f 18e6 babe
00000390: fe73 f3bd f1c5 3bbf f31d 7ebe c2fc 243f
000003a0: 4e40 b6bc dfdd f7be e254 b9be c5d4 9b3e
000003b0: 7cbf 003f fe75 aabe ab45 d4be 4f79 a0be
000003c0: 87ce 39be 8ac6 a3bd e3ac 2d3e 9250 9e3e
000003d0: 8138 843e 28a2 e73e fd41 0bbf be07 7a3e
000003e0: fa3a b2be 3a96 58be 0e7a e1be 7ccf 36be
000003f0: 3738 e83e 87bb a2be 757c 583e ac82 92bf

network_body.linear_encoder.seq_layers.0.bias f4 [128]
-0.002590063 0.00682828 -0.0035311398 0.0016032867 -0.005029617 -0.00030752772 0.0028584574 -0.0005863731
0.0008629888 -0.0012727194 0.0012210294 0.00060028565 0.00037827055 0.0018796503 -0.0023281614 -0.001836584
0.0028999937 -0.0011177092 0.0024559053 -0.00065544137 -0.00056151376 -0.001613998 -0.0045399624 -0.007056088
0.0026281471 0.0055549 -0.0016123417 -0.0025088459 -0.0006823251 -0.00036483127 0.00021329091 0.0034048022
-0.008221477 0.0004795157 -0.00306678 0.0008089879 -0.0024586162 -0.0012589998 0.0013748609 -0.0011248189
0.0034663703 0.003263333 -0.0006628117 0.0026739012 0.0021191246 -7.827184e-06 0.00030563827 0.0058521857
-0.005974406 0.0027612937 0.0032520585 0.003025758 0.0007606388 -0.0010319382 -0.00044400484 -0.00021581046
6.566459e-05 0.006686977 0.0010703187 -0.0034330764 -0.0028410214 -0.002118947 0.0071359426 0.007521643
-0.00070229865 0.0029900218 -0.005347254 0.0013278062 0.0013106775 -0.0032171782 -0.0009400285 0.0040899264
-0.0017168786 0.0011556698 -0.0045404695 -0.0007435752 0.00046668013 0.0001999821 -0.0016113281 0.00037964564
0.0010936847 -0.005538813 0.0026502248 -0.0013075684 0.0040671676 0.0005337327 0.0007164093 -4.67144e-05
-0.0018474945 0.0029891927 0.0026153529 -0.00015082443 -0.0044616424 -0.0010498143 0.007800332 0.00042065044
-0.009597263 -0.0038161017 -0.0015740234 -0.0044632973 -0.0037926312 -0.006227962 -0.0014079746 0.008880144
0.004442968 0.0007689834 0.0008983879 -0.0006390276 -0.00615444 0.0013375423 0.0020293011 0.00029847742
-0.007926777 -0.0063838754 0.0019985698 -0.0041443813 -0.0021302064 0.0027826696 -0.0025390978 -0.003943173
-0.00022292361 0.0022063127 0.0012062422 -0.0036267764 0.00028665806 -0.0010619125 -0.00013918601 -0.0029678019
00000000: 0cbe 29bb c4bf df3b b26a 67bb 6025 d23a
00000010: 7ccf a4bb ac3b a1b9 f554 3b3b d5b6 19ba
00000020: 333a 623a 60d1 a6ba f30a a03a 7d5c 1d3a
00000030: 9d52 c639 995e f63a 1194 18bb 88b9 f0ba
00000040: d20d 3e3b 1980 92ba 41f3 203b edd1 2bba
00000050: 8d32 13ba c98c d3ba f7c3 94bb c236 e7bb
00000060: fe3c 2c3b e105 b63b 3655 d3ba 736b 24bb
00000070: 10de 32ba d346 bfb9 d8a6 5f39 1a23 5f3b
00000080: 60b3 06bc 8267 fb39 08fc 48bb 4212 543a
00000090: bc20 21bb 0605 a5ba ad34 b43a a96e 93ba
000000a0: 0b2c 633b a5dd 553b 8ac0 2dba 9e3c 2f3b
000000b0: 03e1 0a3b 8051 03b7 133e a039 b1c3 bf3b
000000c0: f3c4 c3bb d2f6 343b 7d20 553b cc4b 463b
000000d0: 9b65 473a 1a42 87ba 52c9 e8b9 2e4b 62b9
000000e0: 69b5 8938 6e1e db3b f049 8c3a 77fd 60bb
000000f0: 6e30 3abb 08de 0abb a0d4 e93b 1d78 f63b
00000100: 771a 38ba 3ef4 433b 0538 afbb c809 ae3a
00000110: 0acb ab3a 4bd7 52bb 3f6c 76ba ca04 863b
00000120: e308 e1ba d879 973a 38c8 94bb 7dec 42ba
00000130: bfac f439 49b2 5139 3333 d3ba 2d0b c739
00000140: f859 8f3a ee7e b5bb 65af 2d3b b762 abba
00000150: e045 853b 32ea 0b3a 6acd 3b3a 34ef 43b8
00000160: a127 f2ba 55e6 433b 5766 2b3b a026 1eb9
00000170: f832 92bb ec99 89ba ed99 ff3b bf8a dc39
00000180: d73d 1dbc 9017 7abb 764f ceba da40 92bb
00000190: cb8d 78bb ef13 ccbb ca8b b8ba 067e 113c
000001a0: 5196 913b 9a95 493a cb81 6b3a 6b84 27ba
000001b0: 2fab c9bb 7950 af3a 06fe 043b f67c 9c39
000001c0: 50df 01bc d42f d1bb 70fa 023b 97cd 87bb
000001d0: ef9a 0bbb 735d 363b fe66 26bb bc35 81bb
000001e0: 9ac0 69b9 c997 103b c61a 9e3a 36af 6dbb
000001f0: 984a 9639 df2f 8bba 76f2 11b9 747f 42bb

network_body.linear_encoder.seq_layers.2.weight f4 [128, 128]
0.06677235 0.03432985 0.03274044 -0.09593217 0.11846369 0.046188336 0.09904551 0.08694279
0.07696303 -0.10748049 0.03418215 0.107987985 -0.016862582 -0.0401976 -0.0020170228 0.008155162
-0.0052898987 0.07915107 -0.09538018 -0.021726202 -0.02852465 -0.010047185 0.18296523 0.012249711
-0.061294157 -0.0462063 0.08755049 0.06420301 -0.034908105 0.10774039 0.24980935 -0.094642
6.14927e-05 0.11329745 -0.039321918 -0.11708641 -0.05115705 -0.18692969 -0.02596138 -0.011056099
-0.08875902 0.07479315 -0.005406274 -0.043792743 -0.2038648 0.043233033 -0.106338196 0.045505524
0.02700331 0.014002569 0.09251758 0.10904819 0.10562876 -0.021520564 0.12940212 -0.024859501
0.006512899 -0.07565088 0.12279618 0.026466224 -0.1559105 0.06309573 -0.07571167 -0.087247476
0.09169716 -0.20710886 0.034827955 0.026745459 -0.09737098 0.063078776 -0.0005617654 -0.023883542
-0.0782211 -0.089251176 0.062711604 0.11801298 -0.071424715 0.04189585 0.14218958 0.109882094
-0.0668552 -0.0015177793 0.033961758 0.08874819 0.02068264 0.018979745 0.08322485 0.07327102
0.0068039508 0.029653491 0.08160277 -0.050781902 0.07068217 0.06355975 0.11566231 -0.110075
0.14298269 0.078240596 0.07176618 -0.020358454 -0.14610699 0.0837823 -0.01723861 -0.12208027
-0.09935602 0.06046042 -0.12864889 -0.06673058 -0.04802969 0.010181934 -0.016240701 -0.06463683
0.10104692 0.13895267 -0.010358474 -0.10294134 -0.014783616 0.11407096 0.02088329 -0.031458914
-0.07912643 -0.03601577 0.077973194 -0.090409376 -0.064224206 0.048496276 0.122896634 -0.014751351
-0.022774853 0.1009863 0.027571518 -0.064409934 0.037167545 -0.14265886 -0.06673703 0.114394836
0.018570462 -0.15497048 0.13167109 0.10549592 0.0386046 0.1677116 0.08061048 -0.04119224
0.17848602 -0.04556471 -0.053460933 0.10017615 -0.21366979 0.051689897 0.18228684 0.105744086
-0.05611171 0.008207016 0.047026165 0.0983961 0.07704528 0.03849607 0.073617555 -0.081175335
0.09217689 0.16073744 0.16920231 -0.00374077 0.12015899 -0.058756765 -0.19392475 -0.086984344
0.087639146 0.07590384 0.023650272 -0.047086325 -0.1939835 0.041763466 -0.06379595 0.054484475
-0.16192736 0.009568863 0.07531284 -0.074690245 -0.030905468 0.071771525 -0.021031842 -0.08236286
0.003551643 -0.026519503 -0.086155325 -0.10780267 -0.047486097 0.14673875 0.03380254 0.0060134516
-0.07656309 0.0647618 -0.029742276 -0.17903048 -0.08848106 -0.21428894 0.19095275 -0.107413284
0.11120312 -0.01443855 0.014894738 -0.1806608 0.083227105 -0.02815215 0.035881765 -0.087252714
-0.065256506 -0.077984236 0.09758624 -0.022312373 0.018616024 -0.11189205 -0.08886074 -0.0913307
-0.048336074 0.04621215 -0.0887561 0.038787276 -0.046768747 0.02911529 -0.009147273 0.128918
0.020481734 0.012219561 0.18091153 -0.06041465 -0.06631109 -0.05570278 0.05068081 0.05778556
-0.04394021 0.099572875 -0.11181767 0.08324292 0.064322256 0.14550318 0.15339753 0.28058225
0.026805598 0.06624969 0.068850756 0.20119411 0.077984996 -0.060889456 0.09252581 -0.10944509
-0.027755849 -0.12477948 0.22392833 -0.032232046 -0.0051664216 -0.08683847 -0.084467575 -0.030032825
00000000: f1bf 883d 759d 0c3d d71a 063d 1678 c4bd
00000010: 179d f23d fb2f 3d3d 5fd8 ca3d 100f b23d
00000020: cb9e 9d3d bb1e dcbd 9502 0c3d ce28 dd3d
00000030: 6623 8abc 3da6 24bd 0730 04bb 3b9d 053c
00000040: e356 adbb f519 a23d af56 c3bd 26fb b1bc
00000050: 87ac e9bc f39c 24bc 3d5b 3b3e 03b3 483c
00000060: 950f 7bbd d142 3dbd ac4d b33d de7c 833d
00000070: cdfb 0ebd fea6 dc3d 06ce 7f3e aad3 c1bd
00000080: a4f5 8038 7e08 e83d 0510 21bd 00cb efbd
00000090: 0e8a 51bd 7f6a 3fbe f6ac d4bc a424 35bc
000000a0: 4ac7 b5bd 272d 993d 1d27 b1bb 0560 33bd
000000b0: efc1 50be 1f15 313d d7c7 d9bd 0064 3a3d
000000c0: 0c36 dd3c 086b 653c db79 bd3d a854 df3d
000000d0: e453 d83d e54b b0bc fd81 043e 27a6 cbbc
000000e0: 286a d53b d9ee 9abd 907c fb3d b2cf d83c
000000f0: 01a7 1fbe 5638 813d b80e 9bbd ceae b2bd
00000100: b8cb bb3d 5814 54be c2a7 0e3d 4b19 db3c
00000110: 706a c7bd 722f 813d 7043 13ba 6ba7 c3bc
00000120: 6232 a0bd 52c9 b6bd f16e 803d cab0 f13d
00000130: 1f47 92bd fc9a 2b3d 259a 113e dd09 e13d
00000140: 61eb 88bd 39f0 c6ba 7c1b 0b3d 9cc1 b53d
00000150: a46e a93c 697b 9b3c ca71 aa3d 1e0f 963d
00000160: adf3 de3b e1eb f23c 5a1f a73d af00 50bd
00000170: d0c1 903d 9d2b 823d 5ce0 ec3d 006f e1bd
00000180: 0e6a 123e 9b3c a03d 26fa 923d c6c6 a6bc
00000190: 129d 15be 0e96 ab3d fc37 8dbc 3805 fabd
000001a0: 2b7b cbbd 58a5 773d 89bc 03be 0baa 88bd
000001b0: c8ba 44bd 20d2 263c 380b 85bc 5060 84bd
000001c0: b0f1 ce3d 9c49 0e3e 97b6 29bc e9d2 d2bd
000001d0: fb36 72bc 099e e93d 6f13 ab3c 10db 00bd
000001e0: 0a0d a2bd 4685 13bd 69b0 9f3d 8d28 b9bd
000001f0: fb87 83bd 08a4 463d 3bb1 fb3d a7af 71bc
00000200: 5492 babc e8d1 ce3d aadd e13c 5be9 83bd
00000210: ff3c 183d 2a15 12be 6dad 88bd d747 ea3d
00000220: 1521 983c 95b0 1ebe c9d4 063e 3f0e d83d
00000230: db1f 1e3d 97bc 2b3e 1b17 a53d 32b9 28bd
00000240: 0ac5 363e 10a2 3abd daf9 5abd 2729 cd3d
00000250: 41cc 5abe c9b8 533d 67a9 3a3e 5b90 d83d
00000260: 64d5 65bd b876 063c 829e 403d e583 c93d
00000270: eac9 9d3d 0eae 1d3d cdc4 963d 413f a6bd
00000280: 3dc7 bc3d 5b98 243e 5f43 2d3e b527 75bb
00000290: eb15 f63d efaa 70bd 3694 46be d924 b2bd
000002a0: 277c b33d 7973 9b3d 37be c13c 97dd 40bd
000002b0: 9ca3 46be 2b10 2b3d 73a7 82bd 1d2b 5f3d
000002c0: 49d0 25be b8c6 1c3c 9e3d 9a3d 33f7 98bd
000002d0: 772d fdbc f3fc 923d f84a acbc dcad a8bd
000002e0: afc2 683b 6e3f d9bc 3472 b0bd a5c7 dcbd
000002f0: c880 42bd af42 163e 8874 0a3d 7d0c c53b
00000300: 1ccd 9cbd d6a1 843d 13a6 f3bc c453 37be
00000310: 8f35 b5bd 8f6e 5bbe 1e89 433e 7ffb dbbd
00000320: 76be e33d ab8f 6cbc 0f09 743c 25ff 38be
00000330: f972 aa3d 569f e6bc c2f8 123d 8db1 b2bd
00000340: 34a5 85bd 33b6 9fbd 4bdb c73d 70c8 b6bc
00000350: a280 983c a927 e5bd 9ffc b5bd 970b bbbd
00000360: 0cfc 45bd f448 3d3d c2c5 b5bd 68df 1e3d
00000370: 9690 3fbd 3083 ee3c 72de 15bc 1503 043e
00000380: 4fc9 a73c 8e34 483c df40 393e 5a75 77bd
00000390: 1cce 87bd 9928 64bd ae96 4f3d 8db0 6c3d
000003a0: a6fa 33bd ddec cb3d aa00 e5bd 447b aa3d
000003b0: 63bb 833d c9fe 143e 3e14 1d3e 7aa8 8f3e
000003c0: 6a97 db3c ebad 873d a001 8d3d d405 4e3e
000003d0: 99b6 9f3d 3967 79bd 2c7e bd3d bf24 e0bd
000003e0: 3c60 e3bc 628c ffbd 784d 653e c005 04bd
000003f0: 164b a9bb 5ed8 b1bd 56fd acbd 6607 f6bc

network_body.linear_encoder.seq_layers.2.bias f4 [128]
-0.0020080805 -0.0024372246 0.0051085846 0.005427732 -0.0011032763 -0.0016789054 -0.004527493 -0.006311218
0.005544258 -0.0034856482 0.000811761 0.0025454985 -0.0029020233 -0.00444942 -0.00029084072 0.0046351072
0.0009132012 -0.00033517965 0.006102799 9.7169526e-05 -0.0009830589 -0.00420158 -0.0022455303 -0.0050579323
0.0004926548 -0.00045971907 -0.0032060936 0.008253732 -0.00045104852 0.0058996417 -0.0012618541 -0.0005578738
0.0030757172 0.003334803 0.0045792903 0.0045450125 -0.002308563 -0.003079487 -0.0033778178 -0.005139668
0.00334654 0.0028542245 -3.1024974e-05 -0.000885956 0.00053168397 -0.004881646 -0.0005092627 -0.00047400466
0.0055207633 -0.0031046108 -0.0016249043 0.0020478957 0.0052306503 -0.003953155 -0.00056681805 -0.00184831
-0.0001029542 0.0032248094 -0.0046172026 0.0007426163 -0.0016967648 0.0015918444 -0.0013733604 0.0043800008
0.00455377 -0.0043225116 0.0002393367 0.0035997278 -0.0058203894 -0.0047621075 -0.0008929451 -0.0010257225
0.006173599 -0.0013799662 0.0020276615 0.00093241746 0.0017088125 -0.0035550818 -0.000938243 -0.0013378446
-0.0033147458 -0.000455369 0.00705309 -0.0016983508 -0.0031543248 0.005508956 0.006593525 0.0006142976
0.0014463082 -0.0011095649 -0.0005820734 -0.0013202535 0.0046632895 -0.0022072631 -0.001942347 0.0023180102
0.00078180345 -0.004349529 0.0046082432 0.00021373009 0.0033324668 -0.0070662927 -0.0019309613 0.0012826077
-0.000117125535 0.005331185 0.0038040676 -0.00269838 -0.00063688535 0.0004961656 0.004249095 -0.0018973334
0.00048619317 -0.002037792 -2.3334844e-05 -0.0019696513 0.0016141653 -0.0022079325 -0.0031443385 -0.002327109
3.423021e-05 0.0027478444 -0.0006098215 -0.0005078664 0.0024253675 -0.0019652671 0.0032303769 0.0002903611
00000000: 009a 03bb d8b9 1fbb ea65 a73b 1edb b13b
00000010: cf9b 90ba b80e dcba 5d5b 94bb 55ce cebb
00000020: 9bac b53b 796f 64bb 5ccc 543a 61d2 263b
00000030: df2f 3ebb 71cc 91bb fb7b 98b9 19e2 973b
00000040: e563 6f3a 0dbb afb9 fdf9 c73b 7ec7 cb38
00000050: fcd9 80ba 68ad 89bb bf29 13bb 03bd a5bb
00000060: 8125 013a 7306 f1b9 531d 52bb a93a 073c
00000070: b57a ecb9 c851 c13b cc64 a5ba 473e 12ba
00000080: f991 493b b68c 5a3b df0d 963b 54ee 943b
00000090: 434b 17bb 38d1 49bb 615e 5dbb a96a a8bb
000000a0: a051 5b3b f10d 3b3b d020 02b8 803f 68ba
000000b0: b560 0b3a 37f6 9fbb 0b80 05ba d483 f8b9
000000c0: 85e7 b43b ba76 4bbb befa d4ba fd35 063b
000000d0: e065 ab3b 7889 81bb 8496 14ba fe42 f2ba
000000e0: 1ee9 d7b8 5357 533b e74b 97bb 23ac 423a
000000f0: fb65 deba 6fa5 d03a 5402 b4ba 1c86 8f3b
00000100: cb37 953b dba3 8dbb 75f6 7a39 69e9 6b3b
00000110: f7b8 bebb 740b 9cbb 8814 6aba 8971 86ba
00000120: e74b ca3b fbdf b4ba 84e2 043b 7a6d 743a
00000130: 3cfa df3a 60fc 68bb 6cf4 75ba 9e5a afba
00000140: 353c 59bb 98be eeb9 9b1d e73b 329b deba
00000150: cab8 4ebb 7984 b43b 7f0e d83b d008 213a
00000160: 0d92 bd3a d26e 91ba 4996 18ba 5b0c adba
00000170: 82ce 983b bba7 10bb 5a96 feba c2e9 173b
00000180: f1f1 4c3a 7e86 8ebb bf00 973b bc1c 6039
00000190: 8465 5a3b 5c8c e7bb 4f18 fdba 2c1d a83a
000001a0: 4ba1 f5b8 39b1 ae3b aa4d 793b 4ed7 30bb
000001b0: a7f4 26ba 1c11 023a fe3b 8b3b f2af f8ba
000001c0: bee7 fe39 7a8c 05bb 32bf c3b7 4415 01bb
000001d0: 6692 d33a f6b2 10bb 3f11 4ebb 6982 18bb
000001e0: 6892 0f38 2e15 343b 6edc 1fba 5622 05ba
000001f0: eaf2 1e3b b6cb 00bb bbb4 533b 9b3b 9839

action_model._discrete_distribution.branches.0.weight f4 [3, 128]
-0.004025889 -0.0058057164 0.004072915 0.01872328 -0.015588976 -0.018146051 -0.010861571 0.006040273
0.015844794 -0.019687345 -0.001034228 -0.0034294014 -0.02079122 -0.012354443 -0.0017390398 0.010478948
-0.0018683566 -0.0029772576 -0.0038616573 -0.0035064882 -0.004253071 -0.011909421 0.0023980634 -0.014309909
-0.01712454 0.0035471388 -0.007248638 0.008678235 0.0036792886 0.0047183833 -0.007032364 -0.028134273
-0.0008210308 0.011906208 0.001187159 0.008192697 -0.0017874544 -0.0010278302 -0.019609062 -0.0194942
0.01626028 0.01567779 0.01045851 -0.0053575393 -0.014620187 -0.008751376 0.012684738 0.0077132327
-0.0014838822 0.005641476 -0.002473676 -0.0004954013 0.0016208732 0.0024804547 0.0023452535 -0.010679682
-0.0012008911 0.0027384919 -0.011121753 0.01690381 0.0036734324 0.010235658 -0.0016360533 0.00672896
0.0042259884 -0.020422356 -0.0056970776 0.0056722816 0.0025699653 0.009624892 -0.009947514 -0.006630696
0.003258959 0.0005873297 0.0031262708 0.012714655 0.019974137 -0.014712155 -0.008464693 0.00085185684
-0.014142434 -0.0064361393 -0.0010551458 -0.007202399 -0.009264234 -0.01709257 0.0031679182 0.015325418
0.0031656316 -0.0139762405 0.0007273847 0.0017517228 0.0031278394 -0.007872691 -0.008686199 0.004759318
-2.5042871e-05 0.009899483 0.015563909 0.0014661616 0.018647384 0.00257871 -0.010727022 -0.006744542
-0.005396339 -0.007906201 0.0027556631 -0.001519117 -0.01119354 -0.007401723 0.01284413 0.0070368643
0.0047745546 -0.0024745723 -0.008466046 0.004778134 0.0026301339 -0.007859019 -0.0022893448 -0.008593335
-0.003204178 0.005683628 -0.011127819 0.002662247 -0.0030425042 0.0055882325 0.0138888955 0.018593835
-0.012640388 0.0025841116 -0.0014946866 0.004523694 0.024242733 -0.0062023043 0.0063173235 0.0023827064
0.009341737 -0.012908604 -0.0005918311 -0.007320953 0.008605416 -0.0056967707 -0.0043380237 -0.0036676712
-0.0024554892 -0.0014003342 0.0030703985 5.182594e-05 -0.012361764 -0.0074514416 -0.007158094 0.002737591
0.0042532454 0.0037693977 -0.0005374289 0.0139956055 0.004805663 0.012586867 -0.0018368857 0.0019132782
-5.5401935e-05 -0.0051802457 -0.010356054 0.006171485 -0.008186606 0.001071408 -0.013443631 0.0019126561
0.0032659804 0.005031981 -0.005036509 0.0037621553 -0.002461203 0.0074221264 -0.012100848 0.010515689
0.0053838342 0.006613623 -0.00027365243 9.2901973e-07 -0.005996797 -0.0064611956 -0.014693141 -0.008789122
0.013689434 0.007877329 -0.02103959 -0.020219684 -0.005138967 -0.009244053 -0.007428849 -0.006106167
0.0044644186 -0.0115475785 0.0043668216 -0.010417777 0.010727834 -0.012740036 0.01802144 -0.012094498
0.011609318 -0.011486296 0.017545836 0.0031676083 0.0193977 0.0021523254 -0.015879031 -0.0010741598
0.0043194513 -0.00881456 0.0070455945 0.00023846868 -0.012943125 0.0031248736 -0.005493348 0.0029941034
4.5132045e-05 -0.0038435417 -0.0070990613 -0.008084976 -0.005094661 0.008987867 -0.0041371738 0.0024388891
-0.005030651 -0.008495151 0.012930816 0.020105649 0.0027315395 -0.0026953197 -0.014705118 -0.00050061406
0.0067371367 0.0052245473 7.6553755e-05 -0.000676375 0.0043886793 0.00038538993 0.0069735292 0.014828225
-0.006875125 -0.0055449586 0.0056088124 -0.016577022 -0.015980788 -0.005071297 0.0019692266 0.0050422307
-0.005251725 0.00935162 -0.001204262 0.016771361 -0.004898285 -0.0020729387 -0.0009137059 0.0008841369
00000000: 9beb 83bb e13d bebb 1676 853b 9061 993c
00000010: e868 7fbc 07a7 94bc bbf4 31bc 7bed c53b
00000020: f1cc 813c 5b47 a1bc ef8e 87ba cfbf 60bb
00000030: 5952 aabc 4a6a 4abc 7ef0 e3ba e5af 2b3c
00000040: a5e3 f4ba 181e 43bb dc13 7dbb 1ccd 65bb
00000050: 585d 8bbb bb1f 43bc d428 1d3b 1c74 6abc
00000060: c348 8cbc 1d77 683b fc85 edbb 282f 0e3c
00000070: 3820 713b ab9c 9a3b bf6f e6bb d979 e6bc
00000080: 723a 57ba 4112 433c 729a 9b3a a93a 063c
00000090: 0449 eaba 42b8 86ba 2fa3 a0bc 4db2 9fbc
000000a0: 4734 853c b56e 803c 2c5a 2b3c 4c8e afbb
000000b0: 8289 6fbc ee61 0fbc a6d3 4f3c 49bf fc3b
000000c0: d37e c2ba 21dc b83b 661d 22bb d2dd 01ba
000000d0: 7b73 d43a 208f 223b d3b2 193b d5f9 2ebc
000000e0: 3867 9dba 4578 333b 0338 36bc dc79 8a3c
000000f0: f8bd 703b 76b3 273c d770 d6ba 9c7e dc3b
00000100: 297a 8a3b c94c a7bc 8dae babb 8cde b93b
00000110: dd6c 283b b9b1 1d3c e6fa 22bc 4f46 d9bb
00000120: 4294 553b 07f7 193a 1fe2 4c3b 2151 503c
00000130: cda0 a33c 400b 71bc 7faf 0abc 254f 5f3a
00000140: abb5 67bc 40e6 d2bb d14c 8aba 1a02 ecbb
00000150: 04c9 17bc b805 8cbc d99c 4f3b 7617 7b3c
00000160: 7c76 4f3b 9afc 64bc f6ad 3e3a 109a e53a
00000170: 70fc 4c3b 76fc 00bc 8f50 0ebc 0ef4 9b3b
00000180: 2813 d2b7 7131 223c c4ff 7e3c 382c c03a
00000190: 66c2 983c 93ff 283b 64c0 2fbc 5201 ddbb
000001a0: c6d3 b0bb 0389 01bc 5b98 343b 1c1d c7ba
000001b0: 1c65 37bc 278a f2bb 3070 523c 7f95 e63b
000001c0: de73 9c3b 6f2c 22bb 2cb5 0abc e591 9c3b
000001d0: 535e 2c3b 1dc3 00bc d508 16bb 0fcb 0cbc
000001e0: 30fd 51bb ba3d ba3b 7551 36bc 1879 2e3b
000001f0: c064 47bb 7e1d b73b 408e 633c 1952 983c
00000200: a119 4fbc 335a 293b 5ce9 c3ba 7f3b 943b
00000210: b298 c63c b33c cbbb 8d01 cf3b 2e27 1c3b
00000220: 160e 193c 9c7e 53bc 1d25 1bba 9be4 efbb
00000230: bbfd 0c3c faab babb fb25 8ebb 505d 70bb
00000240: 46ec 20bb 6b8b b7ba bd38 493b ae5f 5938
00000250: ff88 4abc 392b f4bb 728e eabb 2869 333b
00000260: cf5e 8b3b 0008 773b 3ee2 0cba d34d 653c
00000270: d378 9d3b 2639 4e3c a8c3 f0ba f7c6 fa3a
00000280: 605f 68b8 0dbf a9bb 70ac 29bc 2b3a ca3b
00000290: 1d21 06bc 7d6e 8c3a ad42 5cbc 17b2 fa3a
000002a0: 0f0a 563b 51e3 a43b 4d09 a5bb 7e8e 763b
000002b0: 224c 21bb 4f35 f33b a342 46bc ff49 2c3c
000002c0: e06a b03b 17b7 d83b 0279 8fb9 c061 7935
000002d0: c780 c4bb 70b8 d3bb 80bb 70bc 4000 10bc
000002e0: a649 603c ea0f 013c 385b acbc c0a3 a5bc
000002f0: c864 a8bb 5e74 17bc b46d f3bb 3e16 c8bb
00000300: 424a 923b 0e32 3dbc 8e17 8f3b 53af 2abc
00000310: ccc3 2f3c 95bb 50bc b3a1 933c 0028 46bc
00000320: 0235 3e3c 0431 3cbc 49bc 8f3c a697 4f3b
00000330: ede7 9e3c 070e 0d3b be14 82bc d2ca 8cba
00000340: 2f8a 8d3b f26a 10bc bbde e63b 730d 7a39
00000350: 670f 54bc aeca 4c3b 8b01 b4bb b838 443b
00000360: 2a4c 3d38 eee3 7bbb 3e9f e8bb d976 04bc
00000370: 1df1 a6bb d941 133c 2191 87bb c5d5 1f3b
00000380: 29d8 a4bb 3f2f 0bbc c6db 533c 9ab4 a43c
00000390: a103 333b f6a3 30bb bced 70bc a43b 03ba
000003a0: 33c3 dc3b ae32 ab3b 7c8b a038 c24e 31ba
000003b0: e9ce 8f3b 290e ca39 3482 e43b 15f2 723c
000003c0: bb48 e1bb 7cb2 b5bb 21ca b73b 89cc 87bc
000003d0: 24ea 82bc 1f2d a6bb 240e 013b 4c39 a53b
000003e0: aa16 acbb 8a37 193c 54d8 9dba 1864 893c
000003f0: cb81 a0bb 24da 07bb c485 6fba 6cc5 673a

action_model._discrete_distribution.branches.0.bias f4 [3]
0.003815563 0.00044937758 -0.0055123684
00000000: 860e 7a3b 709a eb39 19a1 b4bb

action_model._discrete_distribution.branches.1.weight f4 [3, 128]
-0.00010085028 -0.006992692 0.006125983 -0.009675371 0.0092895385 -0.0055549247 0.0031136596 0.016142873
-0.009092249 0.0023932392 -0.0017224416 -0.006252146 0.0026561196 0.010375967 -0.0013197312 -0.0062211966
0.001421671 -0.025857043 -0.0023316965 -0.007258363 0.00028317518 -0.0022141642 0.008641227 0.0010712929
-0.013044622 0.01011396 0.020349294 -0.014687029 -0.0022259455 -0.017768405 0.010398547 0.0042628427
-0.00095995114 -0.018426798 -0.02318814 -0.0103684245 0.0039811307 0.003812683 -0.007394325 0.0122466395
-0.003239263 -2.6835098e-05 -0.005048026 0.0073587853 0.0045598187 -0.00975731 -0.01315591 -0.001934052
-0.004549203 0.0066460436 0.002977793 -0.01354343 -0.0042345063 0.009393462 0.006431556 0.009982588
-0.01540579 0.010867338 0.009852868 -0.017039603 -0.0040230323 -0.0034309467 0.008175492 0.012777751
-0.014227913 0.0055974578 -0.0122120185 -0.025611633 -0.0037905923 0.0034273912 0.0042410507 0.00024151847
-0.015134772 -0.0010781344 0.00986913 -0.004090393 -0.0065122196 0.005152897 0.005332353 0.011165803
0.00769523 -0.01813205 -0.004735471 0.0050970847 0.0018185728 -0.013123037 0.0013437928 -0.012130794
0.018313859 0.026552718 0.006528873 -0.016391171 -0.0014669703 0.00797034 0.00070236507 -0.018526215
0.0099974815 0.0019689787 -0.003475766 -0.01658553 0.003520774 0.009362703 -0.0076343664 -0.015269523
-0.0027602618 -0.0035532892 0.0051224646 -0.0049855243 -0.005288192 -0.0037598747 -0.017718637 0.011500102
-0.010152005 -0.0050854697 -0.004770913 -0.0030237294 0.0016481448 -0.0068191006 -0.0018780852 0.0064411866
-0.0066327094 -0.005581228 0.007355751 0.00042817916 -0.004778834 -0.006647833 0.0010729535 -0.0067336797
-0.0016353977 -0.0042393664 0.013291196 0.019583208 -0.010047047 -0.007247565 -0.002717049 -0.010738656
0.0023863637 -0.0075671105 -0.006843213 -0.0006163047 -0.007064228 0.0010944519 0.016302824 0.0004179633
-0.022897467 -0.010827862 0.008187133 0.009256361 0.00015981791 -0.023287162 0.0055244127 -0.01059621
0.016566202 -0.006186911 0.004172932 0.022769345 0.025487486 0.015725037 -0.006989686 0.008926108
0.016143288 -0.0013022013 -0.00035764693 -0.00059232075 -0.019258294 -0.012502454 0.0015718132 -0.011432473
0.017629912 0.016160509 -0.0008283241 -0.0010133213 -0.008984702 -0.0050673117 -0.004511884 0.016120726
0.00947816 -0.0044374657 0.008319595 0.0064384565 0.020059446 -0.016406488 0.011342075 0.008008279
-0.0009605005 0.00405518 -0.003664962 -0.019781834 0.007999764 0.019159706 0.0001129708 0.008718631
-0.0035368642 0.0022699349 -0.007303243 -0.008795001 0.0025545144 0.0045796367 -0.0023646483 -0.0028242874
-0.00961385 -0.012556776 0.0016437455 -0.0035055755 0.003924771 -0.0031212505 -0.0011518155 0.0006362303
-0.00122641 -0.011857151 0.011820144 -0.004900047 -0.008330482 0.004161916 0.0019820123 -0.00023846744
0.014824494 -0.006390274 -0.013219713 0.0041047917 0.013067246 0.0020433948 -0.010412493 0.012581816
-0.0040656934 -0.0075591286 0.012932943 -0.003034808 0.015959937 0.014174521 0.008794896 -0.0029652107
0.016032314 0.01631477 0.011655461 0.01749939 0.0043915845 -0.0060062325 0.0096637895 -0.0041516656
0.0073963525 0.00777455 -0.00071916595 -0.0062429886 -0.0057061417 0.007094353 -0.0012755243 0.01721287
-0.0034766549 0.0022855217 -0.0017743572 -0.0017335273 0.0003611675 -0.0057430496 0.00596033 -0.008348294
00000000: 957f d3b8 f422 e5bb 78bc c83b 7385 1ebc
00000010: 2633 183c 1606 b6bb 8a0e 4c3b 0f3e 843c
00000020: a8f7 14bc e4d7 1c3b 8dc3 e1ba cdde ccbb
00000030: 4b12 2e3b f6ff 293c d5fa acba 2edb cbbb
00000040: 5d57 ba3a 26d2 d3bc 60cf 18bb 90d7 edbb
00000050: 2177 9439 831b 11bb ef93 0d3c a06a 8c3a
00000060: 1cb9 55bc 06b5 253c 90b3 a63c dda1 70bc
00000070: 2be1 11bb 0c8f 91bc ab5e 2a3c 51af 8b3b
00000080: 3ba5 7bba ccf3 96bc 0ef5 bdbc 53e0 29bc
00000090: 2574 823b 35de 793b 184c f2bb 21a6 483c
000000a0: d149 54bb ef1b e1b7 e969 a5bb f721 f13b
000000b0: 886a 953b 20dd 1fbc e38b 57bc 0480 fdba
000000c0: 7b11 95bb 0ec7 d93b 1427 433b 43e5 5dbc
000000d0: 9dc1 8abb 09e7 193c cdbf d23b 028e 233c
000000e0: 9168 7cbc eb0c 323c ec6d 213c a396 8bbc
000000f0: a4d3 83bb bcd9 60bb 80f2 053c c659 513c
00000100: 311c 69bc e16a b73b eb14 48bc 7dcf d1bc
00000110: 966b 78bb 159e 603b 83f8 8a3b 1f40 7d39
00000120: d6f7 77bc 3050 8dba 22b2 213c b408 86bb
00000130: 7564 d5bb a2d9 a83b 05bb ae3b c6f0 363c
00000140: 4528 fc3b aa89 94bc 032c 9bbb 7205 a73b
00000150: 2d5d ee3a 0202 57bc 3422 b03a 3dc0 46bc
00000160: f206 963c 1685 d93c 28f0 d53b c746 86bc
00000170: 5b47 c0ba 0796 023c ec1e 383a 4ac4 97bc
00000180: 7acc 233c fb09 013b adc9 63bb 61de 87bc
00000190: c9bc 663b 0666 193c b529 fabb 052d 7abc
000001a0: 82e5 34bb 4dde 68bb 59da a73b 9c5d a3bb
000001b0: 9248 adbb 3b68 76bb ad26 91bc ec6a 3c3c
000001c0: 9854 26bc 03a4 a6bb 5255 9cbb c329 46bb
000001d0: 9006 d83a c372 dfbb 152a f6ba 9710 d33b
000001e0: 3357 d9bb bce2 b6bb 8308 f13b 3c7d e039
000001f0: c497 9cbb 11d6 d9bb 58a2 8c3a 33a6 dcbb
00000200: d75a d6ba 62ea 8abb 51c3 593c f76c a03c
00000210: 5f9c 24bc fb7c edbb 8510 32bb 30f1 2fbc
00000220: 8a64 1c3b 86f5 f7bb 083d e0bb 828f 21ba
00000230: 0a7b e7bb b673 8f3a 808d 853c 1622 db39
00000240: 7893 bbbc 5867 31bc 5323 063c fea7 173c
00000250: cb94 2739 b8c4 bebc 2206 b53b ba9b 2dbc
00000260: d8b5 873c 92bb cabb 17bd 883b c786 ba3c
00000270: 22cb d03c cbd1 803c bc09 e5bb cf3e 123c
00000280: ee3e 843c a0ae aaba 8f82 bbb9 f945 1bba
00000290: 92c3 9dbc 18d7 4cbc 4d05 ce3a 444f 3bbc
000002a0: 9b6c 903c 0b63 843c e423 59ba 6cd1 84ba
000002b0: 9234 13bc b10b a6bb 6dd8 93bb 9d0f 843c
000002c0: 494a 1b3c 2968 91bb e94e 083c b0f9 d23b
000002d0: b553 a43c e666 86bc 1cd4 393c 2835 033c
000002e0: 19ca 7bba 51e1 843b dc2f 70bb 830d a2bc
000002f0: 7111 033c d1f4 9c3c bdea ec38 97d8 0e3c
00000300: bcca 67bb 30c3 143b 0b50 efbb e818 10bc
00000310: a469 273b c710 963b 37f8 1abb ae17 39bb
00000320: 6983 1dbc f0ba 4dbc f272 d73a ccbd 65bb
00000330: 5e9b 803b e58d 4cbb 84f8 96ba b1c8 263a
00000340: 7ebf a0ba 7f44 42bc 47a9 413c 9390 a0bb
00000350: 937c 08bc af60 883b a6e4 013b 1e0d 7ab9
00000360: 6fe2 723c 8165 d1bb 7f97 58bc 7d81 863b
00000370: 0118 563c 7aea 053b 2999 2abc f623 4e3c
00000380: 8239 85bb 91b2 f7bb b2e4 533c a1e3 46bb
00000390: 6abe 823c 403c 683c 7818 103c fb53 42bb
000003a0: 3356 833c 8da6 853c 8cf6 3e3c e15a 8f3c
000003b0: 48e7 8f3b eecf c4bb df54 1e3c b20a 88bb
000003c0: 1a5d f23b a7c1 fe3b 6986 3cba fc91 ccbb
000003d0: 96fa babb bf77 e83b 7e2f a7ba 0102 8d3c
000003e0: 97d8 63bb b1c8 153b 8c91 e8ba 8637 e3ba
000003f0: 155b bd39 3130 bcbb df4e c33b 48c7 08bc

action_model._discrete_distribution.branches.1.bias f4 [3]
-0.004742199 0.0035132726 0.0010149988
00000000: 7364 9bbb ef3e 663b b509 853a

action_model._discrete_distribution.branches.2.weight f4 [3, 128]
0.012777782 0.009757034 -0.0015949084 0.0038350709 0.0034692097 0.0062280167 -0.00078860373 -0.006367326
0.0069893766 -0.0044353935 -0.0017710361 0.001220664 0.0049562273 0.005442394 -0.004609582 0.011333015
0.0041719507 -0.00063013117 0.014113464 -0.0024143744 0.000880507 0.007930329 2.8698094e-05 -0.0024807244
-0.0075843865 0.0049497993 -0.0005580744 0.010528249 0.01657455 0.003675838 0.007873396 0.0051594744
0.0046439827 -0.009413806 -0.0035735518 0.008341147 0.0012534821 -0.0001239698 0.0073164375 0.0057045296
0.010184469 0.0022913676 0.0064794286 0.000995206 -0.0018056261 0.012819924 0.01087073 -0.0025593413
0.0045349738 0.0033657243 0.015076948 -0.0056256093 -0.00071257516 0.006380631 0.010485947 -0.00083706086
-0.0011517813 0.008463578 -0.004278661 -0.0029750164 -0.015758343 -0.00685594 0.0034783394 -0.00038794545
0.00079449493 -0.003847375 0.0045291916 -0.0025404766 -0.01277364 0.0015998641 -0.008537404 -0.011460778
0.005491366 -0.000534938 -0.00064524537 -0.0032782368 -0.00070181274 -0.002861165 0.0060290494 -0.0047840485
-0.003553644 0.00016804138 0.0044721994 0.0045002475 -0.004400357 0.0018906184 0.008798272 -0.029246699
-0.007501933 0.003782627 1.09910616e-07 0.00034931325 -0.0027837798 0.015022333 0.004509068 -0.0052830973
-0.0073550404 -0.013828098 -0.0037144395 -0.0060475348 -0.003121947 0.0024770543 -0.0019545332 -0.0009699771
0.0006671561 0.017859953 0.006404378 0.0048287422 -0.0128714945 0.002381534 -0.019770592 0.012196309
-0.006338461 0.0048937504 0.0062455917 -0.02494347 -0.0065800617 -0.0045552286 0.002618659 -0.016242342
-0.015706282 -0.013033353 -0.0018473289 -0.00036677363 -0.0005458866 -0.004237673 0.004714924 0.0045863576
-0.0059611285 0.014291139 -0.011484478 -0.0076768915 0.003843084 -0.0066876016 -0.013705738 0.0020791353
0.0036171125 0.0064286105 0.006087983 -0.006602411 0.0021253757 -0.004299026 -0.005437313 0.0046983613
0.007911306 0.0045716236 -0.0014257194 -0.0013534746 -0.005681386 -0.0014154867 0.0046942984 -0.0059244577
0.0006356747 0.0056413086 -0.007178877 0.00832006 -0.012468839 0.0020413338 -0.0035005722 0.0100573385
0.0005869075 0.012178759 -0.00020467587 0.00271511 0.0051575676 -0.0012351195 -0.0062123584 -0.0002565969
0.0003550738 -0.011333081 0.00790146 -0.012951886 0.009228812 0.0036452555 0.01732151 -0.0071503962
0.0014422246 -0.0010001345 -0.02111111 -0.00073178887 0.010649211 0.001062506 0.010544908 0.007080487
0.0045194123 0.0052608415 -0.0055415086 0.0039228434 -0.00958086 0.007045418 -0.008395539 -0.0009922291
5.2940333e-05 -0.00807268 0.0017657988 0.0028128615 -0.006477632 0.0072955494 0.0063122525 -0.008375251
0.01821807 -0.016430777 0.0041062706 0.00035603245 0.005443555 0.002497786 -0.009748293 -0.010820451
-0.0029283634 -0.00592068 0.0057150964 -0.002757198 0.0027666762 0.0058293995 -0.00025493983 -0.006092375
0.005063032 -0.000433576 0.0017759586 -0.0056073046 0.002863605 -0.008414087 -0.010769508 -0.020650374
-0.0008795962 -0.0013320133 0.0026781016 0.009939887 -0.015256342 0.0051313774 -0.0025465966 0.002215617
-0.015864855 -0.0035789716 -0.011209052 0.012620374 0.011010445 0.0033503205 -0.0016257605 0.015709026
-0.0071594003 0.006889613 0.0016901995 0.00998035 0.006501074 0.005558509 -0.012884254 -0.018251158
0.006177821 -0.0051869866 0.012626411 -0.016149675 -0.010554275 -0.013336717 -0.0054660426 -0.015456106
00000000: e759 513c f7db 1f3c 3f0c d1ba d055 7b3b
00000010: ae5b 633b 6414 cc3b 4dba 4eba 00a5 d0bb
00000020: 2407 e53b c756 91bb 1c22 e8ba b0fe 9f3a
00000030: d967 a23b 1c56 b23b fa0b 97bb 1cae 393c
00000040: dcb4 883b 632f 25ba 293c 673c 7b3a 1ebb
00000050: d3d1 663a 36ee 013c b0bc f037 a693 22bb
00000060: 7286 f8bb ed31 a23b bd4b 12ba ad7e 2c3c
00000070: 5ac7 873c 54e6 703b 6bff 003c cf10 a93b
00000080: 8d2c 983b 5d3c 1abc 4032 6abb 4ea9 083c
00000090: e14b a43a e4fd 01b9 babe ef3b 10ed ba3b
000000a0: c2dc 263c c52a 163b 6351 d43b 9271 823a
000000b0: c2aa ecba a90a 523c 251b 323c 9fba 27bb
000000c0: 1e9a 943b 7c93 5c3b 4e05 773c 0857 b8bb
000000d0: 1ccc 3aba 9d14 d13b 40cd 2b3c 346e 5bba
000000e0: 5ef7 96ba d2aa 0a3c 0334 8cbb 7ef8 42bb
000000f0: a417 81bc cba7 e0bb daf4 633b 2865 cbb9
00000100: a745 503a 3e24 7cbb 9d69 943b 207e 26bb
00000110: 8848 51bc 88b2 d13a 78e0 0bbc fdc5 3bbc
00000120: ebf0 b33b 153b 0cba af25 29ba b0d7 56bb
00000130: dbf9 37ba 6282 3bbb 558f c53b 82c3 9cbb
00000140: 41e4 68bb 4434 3039 878b 923b d076 933b
00000150: df30 90bb a0ce f73a a126 103c c696 efbc
00000160: c6d2 f5bb f3e5 773b 0008 ec33 0824 b739
00000170: 1370 36bb 3b20 763c cec0 933b d51d adbb
00000180: 8d02 f1bb 3f8f 62bc f46d 73bb 662a c6bb
00000190: 9499 4cbb 1356 223b a017 00bb 1046 7eba
000001a0: 17e4 2e3a 094f 923c d1db d13b 6d3a 9e3b
000001b0: f6e2 52bc 8313 1c3b f0f5 a1bc 07d3 473c
000001c0: ddb2 cfbb c15b a03b d2a7 cc3b 3f56 ccbc
000001d0: 8f9d d7bb 0744 95bb cf9d 2b3b a90e 85bc
000001e0: 76aa 80bc d889 55bc 1222 f2ba 864b c0b9
000001f0: d419 0fba 2ddc 8abb a67f 9a3b 2849 963b
00000200: 9255 c3bb 6225 6a3c 6429 3cbc 6f8e fbbb
00000210: 40dc 7b3b ab23 dbbb 088e 60bc 1a42 083b
00000220: 140d 6d3b 18a7 d23b b47d c73b 0a59 d8bb
00000230: e349 0b3b d8de 8cbb 7d2b b2bb b6f4 993b
00000240: 6c9e 013c 8fcd 953b 34df baba 1267 b1ba
00000250: ec2a babb da87 b9ba a1d2 993b f421 c2bb
00000260: 68a3 263a bada b83b c93c ebbb dc50 083c
00000270: 1a4a 4cbc e6c7 053b db69 65bb 89c7 243c
00000280: b2da 193a 6b89 473c 439e 56b9 fdef 313b
00000290: d000 a93b bce3 a1ba 0a91 cbbb da87 86b9
000002a0: 3329 ba39 63ae 39bc 2075 013c 2634 54bc
000002b0: 7134 173c 3de5 6e3b d7e5 8d3c df4d eabb
000002c0: 0709 bd3a f216 83ba 35f1 acbc 85d5 3fba
000002d0: 077a 2e3c c943 8b3a 8dc4 2c3c 6e03 e83b
000002e0: 9417 943b 2363 ac3b 8b95 b5bb 328b 803b
000002f0: 0af9 1cbc 40dd e63b 718d 09bc af0d 82ba
00000300: 400c 5e38 4643 04bc 6072 e73a fc57 383b
00000310: 5142 d4bb 810f ef3b 03d7 ce3b 5938 09bc
00000320: 103e 953c d699 86bc e58d 863b dea9 ba39
00000330: d95f b23b e5b1 233b 4eb7 1fbc 4348 31bc
00000340: c9e9 3fbb 4302 c2bb b445 bb3b 1bb2 34bb
00000350: 2051 353b 8c04 bf3b 72a9 85b9 8ca2 c7bb
00000360: cae7 a53b 9651 e3b9 48c7 e83a 7bbd b7bb
00000370: 52ab 3b3b 3ddb 09bc 9772 30bc f92a a9bc
00000380: b494 66ba f396 aeba 1783 2f3b e8da 223c
00000390: bcf5 79bc 1d25 a83b cde4 26bb e333 113b
000003a0: 03f7 81bc 2e8d 6abb 2ca6 37bc afc5 4e3c
000003b0: 2765 343c 0d91 5b3b 7817 d5ba 37b0 803c
000003c0: 6799 eabb 43c2 e13b af89 dd3a 9f84 233c
000003d0: f606 d53b 2724 b63b 7a18 53bc 7483 95bc
000003e0: 526f ca3b 99f7 a9bb 02df 4e3c 534c 84bc
000003f0: d6eb 2cbc 3f82 5abc 7d1c b3bb 9b3b 7dbc

action_model._discrete_distribution.branches.2.bias f4 [3]
0.0012067885 0.00068406883 -0.0017659741
00000000: 1a2d 9e3a 1553 333a 4278 e7ba
