AdvancedToolsMachineLearningUnity/Assets/NNModels/CoopJumping/FirstTry/PurpleAgent.onnx (onnx, 77181 bytes, 10 tensors)

network_body.linear_encoder.seq_layers.0.weight f4 [128, 4]
-0.0109352395 -0.6712112 0.39305225 -0.36251053 -0.66287285 0.43372416 0.31855452 0.9844937
-0.33175895 -1.3313762 0.2267775 -0.37601408 -0.38750586 -0.37286192 -0.9857338 -0.33871707
0.45511648 -0.45739135 0.1535118 0.45954812 0.35971892 -0.16123542 -0.219825 1.0049766
-0.84819865 0.53287065 -0.30161518 0.15689689 -1.0185418 -0.3766675 0.09753934 -0.37538567
0.2132307 0.14325717 0.27498135 -0.10919904 1.3025829 -0.4793696 -0.31218624 1.2933904
0.38758498 0.06853767 0.3082899 -0.4898682 0.2954965 -0.68113595 0.679192 -0.5185928
0.13269368 -0.12043894 -0.6627505 0.0067669563 -0.16971461 -0.07374398 0.51065797 -0.6950407
0.1264624 -0.07714842 0.6119829 0.7653049 0.062868804 0.43070444 -0.19467485 -0.5173863
-0.64380866 0.65787786 -0.97811747 -0.38541484 0.47595286 0.34029302 0.47493973 -0.18212707
-0.4857717 -0.8013777 0.2916709 0.111430325 -0.51792586 -0.28707954 -0.8362357 0.8152388
-0.7126069 0.1441323 -0.39122018 -0.06617873 0.2893382 -0.14521573 -0.38319242 -0.6535305
-0.3340421 0.026290957 0.8952934 -0.3725262 0.1670124 0.13356341 -0.86360323 -0.98030853
-0.11607847 -0.09749761 -0.671882 0.69727266 0.10554571 -0.068977706 -0.20287871 0.5219713
0.092357956 -0.2787587 -0.23471333 0.29264456 0.83228356 0.54483336 -0.50487614 0.21840163
1.0828248 0.015436747 1.0680547 -0.056567665 0.22326075 -0.06399308 0.017311227 0.1954455
-0.51292473 -0.45704326 0.38337967 -0.27425 -0.053232435 -0.5013379 0.64678985 0.8645412
-0.17597531 -1.1616281 -0.30889392 -0.11936314 -0.46968174 -0.27486762 0.21451156 -0.73335105
-0.04352853 0.67924494 0.63775784 -0.1675395 -0.437308 0.018261641 -0.3728638 -0.37281004
0.34618217 -0.20817031 -0.6266142 -0.72487855 0.6831018 -0.011322611 -0.9749671 0.017016303
-0.20267864 0.44279382 0.63201743 -0.35478514 0.124486625 -0.018658755 -0.98984873 -0.36484706
-0.72317505 -0.69814366 -0.30710763 0.17303783 -0.15855514 -0.37494856 0.13057646 0.33621258
1.2274548 0.06802334 -0.76974106 -0.060322057 1.1671069 0.18991318 0.79101896 -0.017951535
-0.45830646 -0.321533 -0.31527054 -0.38731238 0.23800258 0.14192095 0.5995927 -0.26363882
0.08409356 0.5134867 0.04767895 0.6361375 -0.58294815 0.08124121 -0.06249448 -0.178513
0.5480225 0.5555091 0.3306756 0.07439236 -0.29797515 0.14483191 0.19542837 -0.28713745
-0.8513157 -0.10699642 -0.17536086 0.25946787 0.27160394 0.08549485 -0.071115226 -0.010241622
-0.036450636 -0.5407295 0.6214387 0.5249717 -0.23552306 -0.048130102 0.043455906 -0.36493647
0.4527194 0.591582 0.6815365 0.27981338 -0.22537449 -0.07348032 -0.09998973 -0.033059735
-0.12650183 -1.0746207 -0.17829108 -1.2955835 0.47208846 -1.4379073 0.009013578 0.6729369
-0.7632671 0.39687538 -0.56387454 0.17833896 0.3912726 0.91319656 1.09516 0.005675507
-0.15838952 -0.8616007 -0.008051942 -0.38244212 -0.42366502 -0.28243667 0.31313354 0.018659087
-0.044988275 -0.12461802 -0.1602404 -0.038258795 0.80772 0.3505363 -0.20068353 0.39816824
00000000: b829 33bc 7fd4 2bbf 253e c93e fb9a b9be
00000010: 09b2 29bf 1811 de3e 9419 a33e c707 7c3f
00000020: 4fdc a9be 896a aabf 5c38 683e eb84 c0be
00000030: 2b67 c6be c2e7 bebe 0d59 7cbf 536c adbe
00000040: 0705 e93e 332f eabe 3332 1d3e e449 eb3e
00000050: 142d b83e e61a 25be ce19 61be 13a3 803f
00000060: 8c23 59bf 366a 083f 4e6d 9abe 94a9 203e
00000070: 945f 82bf 90da c0be b5c2 c73d 8d32 c0be
00000080: 2659 5a3e 02b2 123e 5bca 8c3e bfa3 dfbd
00000090: 09bb a63f ef6f f5be e0d6 9fbe d18d a53f
000000a0: 8a71 c63e 7a5d 8c3d 2cd8 9d3e 01d0 fabe
000000b0: 514b 973e ed5e 2ebf 87df 2d3f 7fc2 04bf
000000c0: dae0 073e b1a8 f6bd 04aa 29bf 58bd dd3b
000000d0: abc9 2dbe 1507 97bd 7bba 023f 30ee 31bf
000000e0: 5c7f 013e feff 9dbd e9aa 1c3f 06eb 433f
000000f0: 5cc1 803d 4b85 dc3e d858 47be 6e73 04bf
00000100: a5d0 24bf af6a 283f e865 7abf 1855 c5be
00000110: 18b0 f33e e33a ae3e 4d2b f33e 857f 3abe
00000120: 11b7 f8be 1727 4dbf e355 953e 9535 e43d
00000130: ca96 04bf 17fc 92be 8b13 56bf 7db3 503f
00000140: 686d 36bf 6b97 133e 034e c8be b788 87bd
00000150: 2324 943e 6fb3 14be cc31 c4be c64d 27bf
00000160: 9107 abbe 2260 d73c f331 653f c1bb bebe
00000170: 4c05 2b3e d9c4 083e 1a15 5dbf 80f5 7abf
00000180: 8dba edbd d4ac c7bd 7500 2cbf 7680 323f
00000190: 5928 d83d 2f44 8dbd 70bf 4fbe e99f 053f
000001a0: 2b26 bd3d 76b9 8ebe b158 70be 82d5 953e
000001b0: 8910 553f 337a 0b3f 903f 01bf ada4 5f3e
000001c0: 019a 8a3f 69ea 7c3c 04b6 883f 7fb3 67bd
000001d0: 779e 643e ce0e 83bd 46d0 8d3c dd22 483e
000001e0: 094f 03bf 9301 eabe 574a c43e 7f6a 8cbe
000001f0: 410a 5abd ae57 00bf 0594 253f 9252 5d3f
00000200: df32 34be 3bb0 94bf 5827 9ebe a974 f4bd
00000210: 207a f0be 73bb 8cbe eba8 5b3e e5bc 3bbf
00000220: f94a 32bd ffe2 2d3f 1944 233f 7a8f 2bbe
00000230: d6e6 dfbe 7099 953c 01e8 bebe f5e0 bebe
00000240: ca3e b13e 992a 55be ca69 20bf a491 39bf
00000250: c2df 2e3f 7982 39bc 7297 79bf c665 8b3c
00000260: fd8a 4fbe dfb5 e23e e5cb 213f 66a6 b5be
00000270: d8f2 fe3d 3fda 98bc ba66 7dbf 3ccd babe
00000280: 0022 39bf 8bb9 32bf 363d 9dbe d430 313e
00000290: 475c 22be 42f9 bfbe d6b5 053e 0e24 ac3e
000002a0: 3d1d 9d3f d24f 8b3d c00d 45bf 4314 77bd
000002b0: c263 953f 9a78 423e 3880 4a3f 190f 93bc
000002c0: 25a7 eabe f99f a4be 246b a1be cf4d c6be
000002d0: f3b6 733e ba53 113e e87e 193f abfb 86be
000002e0: 3f39 ac3d dd73 033f 014b 433d e8d9 223f
000002f0: 173c 15bf cb61 a63d 36fa 7fbd 1dcc 36be
00000300: 344b 0c3f d835 0e3f 504e a93e 065b 983d
00000310: 3390 98be d14e 143e 601e 483e ae03 93be
00000320: d3ef 59bf f020 dbbd cc91 33be f9d8 843e
00000330: ac0f 8b3e ed17 af3d dca4 91bd 7acc 27bc
00000340: 434d 15bd 406d 0abf 9b16 1f3f 8c64 063f
00000350: f52c 71be 1224 45bd d2fe 313d f4d8 babe
00000360: d6ca e73e eb71 173f 2d79 2e3f b343 8f3e
00000370: 92c8 66be da7c 96bd 6ac7 ccbd a569 07bd
00000380: b289 01be 2c8d 89bf f091 36be aed5 a5bf
00000390: 94b5 f13e 590d b8bf b0ad 133c 9845 2c3f
000003a0: 7965 43bf 4033 cb3e 155a 10bf 7d9e 363e
000003b0: e254 c83e 40c7 693f 342e 8c3f 9af9 b93b
000003c0: dd30 22be dd91 5cbf 4bec 03bc 74cf c3be
000003d0: 9fea d8be 8a9b 90be 0a53 a03e f1da 983c
000003e0: a045 38bd bc37 ffbd 0f16 24be 41b5 1cbd
000003f0: bdc6 4e3f 7e79 b33e fc7f 4dbe b5dc cb3e

network_body.linear_encoder.seq_layers.0.bias f4 [128]
0.0027661321 -0.00035622527 0.0012343286 -0.0018533735 -0.009488947 0.0019158155 0.001656551 0.0030290307
-0.0070242938 0.006758542 0.00056860223 0.0013479014 0.0008381144 -0.0026542812 0.0015645812 0.0032739763
0.003965412 0.0071245166 -0.00018661363 0.005784332 0.002770108 0.0037336166 -0.002576164 0.00023578436
-0.0011858355 -0.0029073714 0.0005425051 0.0038858317 -0.00067886227 0.0036158273 0.0024332453 0.0015379757
0.0031579589 -0.00016372146 -0.0065731513 0.0011647572 -0.0010093907 -0.0018019837 -0.004743067 -0.0023480265
0.0011021998 -0.0013141998 0.002958965 0.0028508021 -0.0008243159 -0.0014671336 0.007465349 0.0018290249
0.0007377253 -0.0054419176 0.0028418817 0.0067237616 0.003320717 0.0035948853 7.994495e-05 -0.0012411072
-0.004923235 0.0037836663 -0.00042553575 -0.0008952527 0.0022648606 0.00308954 0.003429158 0.0015879287
0.0056414725 0.00056134904 -0.0007040794 -0.0029881583 -0.00036800763 -0.0025472986 0.005397339 -0.004202436
-0.001373069 -2.1069965e-05 -0.006315107 0.001860507 0.0008554818 0.00043130087 -0.0015885285 0.0057264804
-0.0042213937 0.005642479 -0.0033038647 -0.00089261786 0.0040657427 -0.0044265487 0.0015893987 0.0010622038
0.0012229807 -0.003075809 -0.004099739 0.0037693572 0.003575537 -0.002251436 -0.0008930048 -0.0029856272
-0.00037045442 -0.0026559513 0.0059563876 -0.0049022054 0.0031758728 0.006765313 0.0038374392 -0.0009524677
0.0013268355 -0.0026309553 -0.002506583 0.0028647971 -0.001698432 -0.0019717396 0.0034252591 -0.0021239598
-0.0024746142 0.0024629072 0.0037948284 0.008159579 -0.0040556854 0.0043143504 -0.005876236 0.0015190104
-0.005531483 0.0006553263 -0.0036813458 -0.00089633156 0.0041198744 0.0007781194 -0.0008754625 -0.0009936099
00000000: ff47 353b bfc3 bab9 32c9 a13a e5ec f2ba
00000010: 8777 1bbc 1a1c fb3a a120 d93a b482 463b
00000020: 0c2c e6bb c276 dd3b 400e 153a 11ac b03a
00000030: e8b4 5b3a 73f3 2dbb a212 cd3a 3590 563b
00000040: 49f0 813b c774 e93b b7ad 43b9 7e8a bd3b
00000050: b38a 353b b1af 743b dcd4 28bb e23c 7739
00000060: 096e 9bba 9989 3ebb e736 0e3a 70a9 7e3b
00000070: adf5 31ba 84f7 6c3b 1577 1f3b e795 c93a
00000080: c2f5 4e3b a5ac 2bb9 9763 d7bb c4aa 983a
00000090: 884d 84ba 8a30 ecba bb6b 9bbb 59e1 19bb
000000a0: b077 903a 3a41 acba 32eb 413b 86d4 3a3b
000000b0: e716 58ba d64c c0ba e39f f43b e4bb ef3a
000000c0: e863 413a 1d52 b2bb dd3e 3a3b 0053 dc3b
000000d0: 63a0 593b 2b98 6b3b 1ea8 a738 a6ac a2ba
000000e0: 1753 a1bb 63f7 773b 711a dfb9 64af 6aba
000000f0: 0e6e 143b e179 4a3b b9bb 603b 0c22 d03a
00000100: 1adc b83b 7f27 133a f891 38ba fad4 43bb
00000110: 26f1 c0b9 94f0 26bb 29dc b03b 97b4 89bb
00000120: 8df8 b3ba 68bf b0b7 f5ee cebb 41dc f33a
00000130: 6942 603a 3920 e239 2c36 d0ba 33a5 bb3b
00000140: 9e53 8abb 8be4 b83b a785 58bb 92fe 69ba
00000150: ec39 853b 950c 91bb 5f53 d03a a539 8b3a
00000160: 6c4c a03a 8393 49bb 1a57 86bb 5207 773b
00000170: 8e53 6a3b d48c 13bb 8a18 6aba 83aa 43bb
00000180: 8d39 c2b9 780f 2ebb cd2d c33b aea2 a0bb
00000190: 4e22 503b 8faf dd3b 8c7d 7b3b 06af 79ba
000001a0: 36e9 ad3a 1b6c 2cbb 7c45 24bb 52bf 3b3b
000001b0: ec9d deba 4d38 01bb 507a 603b 2232 0bbb
000001c0: 232d 22bb ba68 213b a8b2 783b c1af 053c
000001d0: 8ee5 84bb 655f 8d3b 718d c0bb 8819 c73a
000001e0: 7141 b5bb 34ca 2b3a bc42 71bb cbf7 6aba
000001f0: 0300 873b b6fa 4b3a 4b7f 65ba 043c 82ba

network_body.linear_encoder.seq_layers.2.weight f4 [128, 128]
0.07796457 0.036540587 -0.06423512 -0.11441137 0.037915874 0.14176042 0.17519696 0.07461182
0.16238928 -0.11374033 0.06804656 -0.1456297 0.08586854 0.04847943 -0.012111107 0.014765139
0.09470248 -0.01739759 -0.018385977 -0.20431547 0.14402728 -0.038228616 0.21504138 -0.017582875
0.0667807 -0.13691556 -0.056374814 -0.099746875 -0.06936122 -0.0951594 -0.25394154 -0.10075545
-0.10446794 -0.06533726 0.05553642 0.06823488 -0.2195907 0.012193578 -0.044847537 0.081895575
-0.26808825 -0.104885876 -0.15425025 0.09647784 -0.06471 0.06038997 -0.08056568 -0.073203
-0.035501838 0.06877656 -0.06503473 -0.020368371 -0.06369536 0.025073845 -0.04971697 -0.064231455
0.059774887 0.005684275 0.032736886 -0.04706088 -0.055341627 -0.051526945 -0.012204885 0.06627183
-0.045932595 -0.10197622 -0.003744226 -0.023218324 0.110938735 0.03556484 0.05190772 0.08626138
-0.047603413 0.005606556 -0.09693727 0.006732502 -0.005509714 0.019626835 0.042459745 -0.06968378
-0.13143767 -0.044452403 0.20089722 -0.042438205 -0.19004045 0.052667297 0.035904747 -0.009913605
-0.1524696 0.11988297 0.01970899 0.040384017 -0.02147291 0.17678006 -0.22176109 0.18482122
-0.084776536 -0.0065080165 0.05446639 -0.08186218 -0.087156005 -0.09716937 0.0394018 0.077021815
0.14316273 -0.054639064 0.09841377 -0.0018290378 -0.11290743 -0.040684003 0.146233 -0.271533
0.0871046 -0.021476807 0.10148476 -0.11092568 0.06612502 0.021325553 -0.08543503 -0.1600314
0.104592256 0.097137645 -0.093751095 -0.052397117 0.026794102 0.055980332 0.043527856 -0.121895924
-0.12188713 0.105728425 -0.13920866 0.04478926 0.06857986 -0.039515823 0.031604264 -0.05977462
-0.02477865 0.11214374 -0.14646527 0.061739095 -0.035054877 0.0489043 -0.119877435 0.049251944
-0.050448008 -0.007825705 0.06321594 -0.021314926 0.23033372 0.054429717 0.03566317 0.21686171
-0.010551268 0.13226478 0.107431136 0.030614672 -0.11177865 0.07840573 0.02490543 0.18950512
-0.06960192 -0.08583928 0.12593275 0.04706721 -0.012612361 -0.107754156 0.10182604 0.04144721
-0.15273727 0.047829047 -0.048265845 -0.06922138 0.11936597 0.08621084 0.05898415 0.013326057
-0.075818464 -0.07340816 0.006439096 0.01572292 0.14664128 -0.04318565 0.031594247 -0.08971142
-0.06161465 0.03420635 0.023007268 -0.06629746 0.04531665 0.103060864 -0.06473783 -0.07478566
0.11172627 -0.08571644 -0.1553996 -0.15506305 -0.13140272 -0.041383907 0.026960313 0.00072649156
0.1558984 -0.12965213 0.119832814 -0.1273453 -0.073884085 -0.055070322 -0.14506523 -0.023147106
0.1486386 -0.08601886 0.14536281 -0.075266 0.1814731 0.08105373 0.030412352 0.02357516
-0.059585102 0.03417412 0.01955748 0.055427354 -0.054172594 0.08537067 -0.011027477 -0.05271667
0.17597792 0.039253138 0.056074828 0.021520326 0.025735578 0.015404958 0.043470338 -0.035925657
-0.023923969 0.013581103 0.016055869 0.06000193 0.030464677 0.17350303 -0.13626288 0.001181455
-0.1451186 0.06863155 -0.0064927544 0.026783068 -0.017799985 -0.10944998 0.025878156 0.11636181
0.09975869 -0.105033346 0.08992849 0.07513322 -0.1510393 0.05653679 0.048988853 -0.061726727
00000000: e3ab 9f3d 95ab 153d b48d 83bd 8250 eabd
00000010: ad4d 1b3d a529 113e d566 333e 15ce 983d
00000020: 6049 263e b1f0 e8bd ff5b 8b3d f41f 15be
00000030: d8db af3d 5e92 463d aa6d 46bc 7be9 713c
00000040: 60f3 c13d 6485 8ebc 309e 96bc 1338 51be
00000050: e37b 133e 9c95 1cbd cf33 5c3e f609 90bc
00000060: 52c4 883d 9833 0cbe 47e9 66bd 1748 ccbd
00000070: 410d 8ebd eee2 c2bd a004 82be e058 cebd
00000080: 4af3 d5bd 8bcf 85bd 287a 633d bbbe 8b3d
00000090: 62dc 60be 93c7 473c 0db2 37bd deb8 a73d
000000a0: dd42 89be 68ce d6bd c7f3 1dbe 2c96 c53d
000000b0: ad86 84bd 795b 773d 9fff a4bd 74eb 95bd
000000c0: 606a 11bd bada 8c3d ee30 85bd 92db a6bc
000000d0: b772 82bd aa67 cd3c 06a4 4bbd c88b 83bd
000000e0: 83d6 743d 2843 ba3b 1d17 063d e9c2 40bd
000000f0: e7ad 62bd eb0d 53bd fff6 47bc 86b9 873d
00000100: d123 3cbd e9d8 d0bd b061 75bb 5b34 bebc
00000110: d933 e33d 70ac 113d 309d 543d cea9 b03d
00000120: ccfb 42bd 33b7 b73b 0c87 c6bd 529c dc3b
00000130: d58a b4bb 75c8 a03c 45ea 2d3d 5fb6 8ebd
00000140: 9997 06be b913 36bd 00b8 4d3e afd3 2dbd
00000150: f799 42be aab9 573d db10 133d ac6c 22bc
00000160: fe20 1cbe 3485 f53d bf74 a13c b669 253d
00000170: f5e7 afbc d505 353e 5715 63be c641 3d3e
00000180: 529f adbd 3341 d5bb 2618 5f3d 5ca7 a7bd
00000190: d97e b2bd bc00 c7bd c863 213d 9dbd 9d3d
000001a0: 4099 123e 36cd 5fbd 298d c93d 53bc efba
000001b0: 033c e7bd 45a4 26bd 1bbe 153e 6006 8bbe
000001c0: e663 b23d 21f0 afbc 3ed7 cf3d 012d e3bd
000001d0: 8e6c 873d edb2 ae3c 90f8 aebd 45df 23be
000001e0: 7734 d63d 1af0 c63d 9300 c0bd 5c9e 56bd
000001f0: 4e7f db3c a24b 653d 444a 323d 92a4 f9bd
00000200: f69f f9bd 2588 d83d b78c 0ebe f174 373d
00000210: 9973 8c3d 58db 21bd 7973 013d 3bd6 74bd
00000220: 98fc cabc 9eab e53d fefa 15be 22e2 7c3d
00000230: b495 0fbd e04f 483d 4d82 f5bd 68bc 493d
00000240: 92a2 4ebd 6337 00bc 5c77 813d a49c aebc
00000250: 9adc 6b3e b2f1 5e3d 8b13 123d ff10 5e3e
00000260: 3adf 2cbc 6b70 073e db04 dc3d 9fcb fa3c
00000270: 34ec e4bd 2f93 a03d 7906 cc3c a10d 423e
00000280: 748b 8ebd 81cc afbd 84f4 003e 8cc9 403d
00000290: 14a4 4ebc 36ae dcbd 2c8a d03d 8dc4 293d
000002a0: 2967 1cbe 64e8 433d 68b2 45bd f0c3 8dbd
000002b0: 2576 f43d 4f8f b03d 5d99 713d 8955 5a3c
000002c0: b646 9bbd 0457 96bd 0dff d23b 5acd 803c
000002d0: 2229 163e 70e3 30bd f868 013d 9fba b7bd
000002e0: a55f 7cbd f51b 0c3d bd79 bc3c f6c6 87bd
000002f0: f49d 393d 9311 d33d 4495 84bd 3929 99bd
00000300: bed0 e43d 1a8c afbd 1321 1fbe d9c8 1ebe
00000310: 6f8e 06be 2c82 29bd e0db dc3c 0672 3e3a
00000320: d5a3 1f3e 87c3 04be e86a f53d ce66 02be
00000330: 8a50 97bd 6b91 61bd fb8b 14be 009f bdbc
00000340: b834 183e a82a b0bd fdd9 143e 1025 9abd
00000350: 16d4 393e 7fff a53d 5323 f93c b220 c13c
00000360: 820f 74bd 29fa 0b3d 0237 a03c cb07 633d
00000370: 15e4 5dbd d1d6 ae3d 97ac 34bc 6fed 57bd
00000380: 8e33 343e e6c7 203d b8ae 653d 654b b03c
00000390: 6bd3 d23c 1465 7c3c f40d 323d c826 13bd
000003a0: 33fc c3bc 4683 5e3c 9987 833c 95c4 753d
000003b0: 0f91 f93c c7aa 313e 7f88 0bbe 0ddb 9a3a
000003c0: f899 14be b38e 8c3d 2cc1 d4bb 2a68 db3c
000003d0: 46d1 91bc 5027 e0bd 6dfe d33c 1a4f ee3d
000003e0: 494e cc3d b91b d7bd 6e2c b83d 72df 993d
000003f0: 0caa 1abe 1f93 673d 89a8 483d 2ad5 7cbd

network_body.linear_encoder.seq_layers.2.bias f4 [128]
-0.0023422495 0.00083364657 -0.003008484 2.177535e-05 -0.001414567 0.00030892633 0.00071062613 0.00015378016
-0.0035626022 0.0015373786 -0.0032489842 -0.0021092873 -0.003638069 -0.00029980042 0.0017816649 0.0035934804
-0.0042818333 -0.0041075065 -0.00080902607 -0.0060689915 -0.00093392975 -9.805295e-05 0.0004550905 0.001722031
-0.0021855952 -0.00069598475 -0.0005997339 -0.0009962891 0.0038006604 -0.004796964 -0.0014827163 0.00023546808
0.0061360914 0.00020238876 3.3270117e-06 -0.0036668011 0.0005417871 0.0012787062 -0.0034949305 -0.00097057247
-0.0023554189 0.0009854134 0.003228241 -0.00023288929 -0.003760737 0.004400419 0.0014144783 0.0038493602
0.00025195698 -0.00019559122 -0.0034873975 -0.004668526 0.004407285 0.0016607591 0.0027716155 -0.0049974862
-0.0026859837 -0.002883061 -0.0036072175 -0.0032405548 -9.827397e-05 -0.004068796 -0.0023502787 -0.005734875
-0.002973229 0.0052209753 -0.0029522832 -0.001970825 -0.0018008819 -0.005109737 0.0028691846 8.794211e-05
-0.0012591835 -3.506693e-05 -0.0038538524 0.0003737849 0.006355999 -0.0060382364 0.0004841241 0.00026896398
0.0036364964 0.0026431335 -0.0058134114 0.0018857503 -0.0039232024 0.0025505435 -0.0012043577 0.0007358834
0.003710791 -0.002824695 0.0036747176 -0.0038607921 -0.002001491 -0.0062053115 0.004388316 0.0027695012
0.0011722211 0.0013856199 -0.0016589562 -0.001758276 0.0027740912 0.00082155224 -0.0021416428 -0.0008032736
-0.002832749 0.002623474 0.00087538455 0.0056343134 -9.65753e-05 0.0023548764 0.001212769 -0.001782559
-0.002855987 0.0070334477 -0.0039824517 -0.0027432865 -0.003191507 0.0013490218 -0.0001262807 0.0015378394
-0.004150958 -0.0017213013 -0.00094416173 0.0037044757 0.0007017754 0.0017806751 0.0028084696 -0.0031256431
00000000: 6d80 19bb 1389 5a3a fc29 45bb 35aa b637
00000010: fe68 b9ba 64f7 a139 5049 3a3a 0c40 2139
00000020: 8c7a 69bb de81 c93a e9ec 54bb f83b 0abb
00000030: ab6c 6ebb 882e 9db9 c186 e93a 9980 6b3b
00000040: 9f4e 8cbb 4398 86bb d214 54ba 64de c6bb
00000050: f7d2 74ba c7a1 cdb8 3799 ee39 c6b5 e13a
00000060: 343c 0fbb bf72 36ba 7637 1dba ea95 82ba
00000070: 8014 793b da2f 9dbb b457 c2ba fbe7 7639
00000080: 4411 c93b 5238 5439 a045 5f36 b74e 70bb
00000090: b806 0e3a 439a a73a 340b 65bb 046e 7eba
000000a0: 5f5d 1abb fd28 813a e690 533b be33 74b9
000000b0: b276 76bb 6431 903b 0466 b93a 8c45 7c3b
000000c0: 1819 8439 9e17 4db9 d28c 64bb 6ffa 98bb
000000d0: fc6a 903b d4ad d93a fea3 353b f4c1 a3bb
000000e0: 5407 30bb bdf1 3cbb 1167 6cbb 7d5f 54bb
000000f0: 7018 ceb8 8953 85bb 2207 1abb 9eeb bbbb
00000100: 81da 42bb b714 ab3b 187b 41bb f528 01bb
00000110: 920b ecba 956f a7bb ee08 3c3b 906d b838
00000120: 300b a5ba d414 13b8 ea90 7cbb 8ff8 c339
00000130: fc45 d03b 66dc c5bb 09d2 fd39 bc03 8d39
00000140: 4952 6e3b 6c38 2d3b 6e7e bebb 482b f73a
00000150: 358e 80bb 0527 273b 8adb 9dba 4de8 403a
00000160: be30 733b 851e 39bb 88d3 703b 5805 7dbb
00000170: 722b 03bb ed55 cbbb ddcb 8f3b 8580 353b
00000180: 37a5 993a b09d b53a 5571 d9ba f475 e6ba
00000190: 87cd 353b 705d 573a ce5a 0cbb c792 52ba
000001a0: a4a5 39bb 97ee 2b3b 107a 653a 0ca0 b83b
000001b0: 7888 cab8 4554 1a3b c6f5 9e3a c1a4 e9ba
000001c0: 832b 3bbb d678 e63b 3a7f 82bb b6c8 33bb
000001d0: 9a28 51bb a9d1 b03a 386a 04b9 5491 c93a
000001e0: c204 88bb 4a9d e1ba 9f81 77ba cac6 723b
000001f0: 5af7 373a 8b65 e93a 4d0e 383b 97d7 4cbb

action_model._discrete_distribution.branches.0.weight f4 [3, 128]
-0.0054765334 0.011061208 -0.008273772 0.0038299586 -0.008666966 -0.01591271 -0.006019142 0.006021626
0.009433222 -0.012563815 0.009163708 0.0026027085 0.0034382811 0.0066092233 -0.0013423081 0.0018647196
0.00051419105 -0.0017928912 0.0044155098 -0.0040967367 -0.010506504 0.005663902 -0.015530295 -0.00044625608
-0.020596705 -0.008468122 0.005464096 0.011135812 -0.0015804863 -0.009625228 0.0109012555 0.008795557
0.0069735935 -0.005810427 -0.015836889 2.4538233e-05 0.015851727 -0.0035052486 -0.004129849 -0.0076189158
0.0078057456 -0.012087787 -0.007959987 -0.0021278346 -0.00624918 0.0031240056 0.0040170243 -0.006471787
-0.0060002245 -0.010282209 -0.010463485 0.0056746234 0.0017299587 -0.004474327 -0.014790972 -0.0042854357
-0.007599896 -0.024294816 -0.014697483 -0.0081511 -0.01243 -0.018106584 -0.007824715 0.0007121483
-0.010285397 -0.0025824283 0.004413475 -0.012341703 0.00024317745 0.0036282449 -0.0009663594 0.00655634
-0.008528726 -0.009041735 -0.006002561 -0.0010563488 -0.0019664865 -0.006827137 0.0043775905 0.0043099592
-0.008355707 0.01206013 0.0088834725 0.006432376 -0.014843772 0.012973072 0.009840229 0.005396777
-0.0013553908 0.0013516534 0.003977924 -0.014473944 0.011691544 -0.0070778914 0.00047733952 0.007515206
-0.0166187 -0.01596373 -0.002500953 0.00023729065 0.0010830485 -0.008872512 -0.012988513 -0.019397559
-0.018172184 -0.008629625 -0.0006455338 0.0042070597 -0.003350757 -0.0010902717 -0.018672092 0.0040658424
0.0070855175 0.0047938367 -0.0038496754 0.00394021 -0.011239753 -0.008702918 -0.0085859755 -0.004115527
0.0062973467 -0.0021244255 -0.0036199777 -0.009584149 -0.031866428 0.010405731 0.004782137 0.0065582944
-0.0029913469 0.0052742544 0.0005536672 0.0038387214 0.00072241755 0.0069424342 0.0013125781 0.014078933
0.00090023887 0.022736419 0.0008267187 0.0017192767 0.005449555 -0.0016422177 -0.0030121503 0.0055819633
0.007901628 -0.00019523894 0.00044206093 -0.009939322 8.276816e-05 -0.011392473 -0.0022139598 0.0118492935
-0.005046303 0.0040057143 0.009263063 -0.012090906 0.006483152 -0.00079371914 0.0031245349 -0.009574685
0.0040772366 -0.015108609 -0.005492061 -0.011715468 0.008373616 0.005801412 0.0037115847 -0.0015367002
-0.013711662 -0.0039467644 0.016501017 -0.019304527 -0.00097413996 0.0051211985 0.009760574 -0.007442696
-0.008607703 -0.0014742519 -0.00075859646 -0.0012569104 -0.0065167313 -0.0030908184 -0.004071806 0.0106293745
-0.009896901 0.0088521745 0.008678496 0.00048244983 -0.010697158 0.0016147837 -0.019770332 0.008288606
-0.0008288825 0.00017269535 -0.014320953 -0.0018082855 -0.01141753 -0.0055840933 0.00816471 -0.004027396
-0.015457348 0.01325206 0.010938773 0.011036261 -0.005857234 -0.014754166 0.008123505 -0.000527261
0.018859366 0.008286429 0.0022732068 0.012301699 0.008433459 -0.010910597 -0.0068569933 0.008583923
-0.00038878695 0.0009997741 0.02002002 -0.018182077 0.012719678 -0.020444395 0.008375711 0.0066922973
0.013970894 -0.008209215 0.010457696 -0.0019677072 -0.0033111519 0.004708048 0.00830651 -0.031408377
-0.0037009418 -0.0076817395 0.0031511204 -0.00015516841 0.000294837 0.019571256 0.0017427242 0.010755955
0.00919413 -0.000625231 -0.0038309928 -0.0023510735 -0.017266149 0.015754694 0.0035341608 0.019562822
-0.0064889626 -0.011166439 -0.011212007 0.0050549586 0.00039731705 0.0055998745 -0.0036432978 -0.001574979
00000000: 7e74 b3bb 123a 353c b78e 07bc 0b00 7b3b
00000010: e4ff 0dbc 5f5b 82bc 393c c5bb 0f51 c53b
00000020: cd8d 1a3c 76d8 4dbc 6123 163c 3492 2a3b
00000030: c954 613b 2f92 d83b 63f0 afba 9b69 f43a
00000040: c7ca 063a 72ff eaba fbaf 903b eb3d 86bb
00000050: 7923 2cbc 4198 b93b c772 7ebc 7af7 e9b9
00000060: 6cba a8bc e1bd 0abc 290c b33b fb72 363c
00000070: 5228 cfba 22b3 1dbc 2e9b 323c 3d1b 103c
00000080: be82 e43b 6565 bebb 5dbc 81bc 74d7 cd37
00000090: 7bdb 813c 50b8 65bb af53 87bb 19a8 f9bb
000000a0: 57c7 ff3b da0b 46bc 9b6a 02bc 2473 0bbb
000000b0: ecc5 ccbb 1ebc 4c3b 3ea1 833b 4911 d4bb
000000c0: 889d c4bb b676 28bc 096f 2bbc 31f2 b93b
000000d0: c8bf e23a 609d 92bb d555 72bc d76c 8cbb
000000e0: 8c08 f9bb ec05 c7bc b6cd 70bc 318c 05bc
000000f0: 33a7 4bbc 4254 94bc 3c33 00bc 77af 3a3a
00000100: 1584 28bc f53d 29bb e99e 903b db34 4abc
00000110: 73fd 7e39 d9c7 6d3b 4853 7dba 91d6 d63b
00000120: 12bc 0bbc c923 14bc 22b1 c4bb 2f75 8aba
00000130: 2be0 00bb 2db6 dfbb e471 8f3b 8f3a 8d3b
00000140: 60e6 08bc da97 453c fc8b 113c aec6 d23b
00000150: 4b33 73bc 028d 543c e938 213c 72d7 b03b
00000160: 5ea7 b1ba f629 b13a 3f59 823b 1f24 6dbc
00000170: e48d 3f3c a8ed e7bb 6d43 fa39 1e42 f63b
00000180: f123 88bc 5ec6 82bc 07e7 23bb 39d1 7839
00000190: 14f5 8d3a 035e 11bc c6cd 54bc a1e7 9ebc
000001a0: d5dd 94bc 4563 0dbc 0a39 29ba 60db 893b
000001b0: 6098 5bbb 73e7 8eba 37f6 98bc c23a 853b
000001c0: a12d e83b 9e15 9d3b d64a 7cbb e11c 813b
000001d0: f126 38bc af96 0ebc 31ac 0cbc 8bdb 86bb
000001e0: f959 ce3b f239 0bbb 263d 6dbb d606 1dbc
000001f0: 5f86 02bd cd7c 2a3c 79b3 9c3b f6e6 d63b
00000200: 790a 44bb a7d3 ac3b fa23 113a 0f93 7b3b
00000210: 9f60 3d3a 5c7d e33b d00a ac3a 53ab 663c
00000220: 02fe 6b3a ba41 ba3c 27b8 583a 5a59 e13a
00000230: 2e92 b23b af3f d7ba 7f67 45bb e7e8 b63b
00000240: d475 013c 0eb9 4cb9 6ac4 e739 8ad8 22bc
00000250: d193 ad38 7fa7 3abc 1518 11bb 8a23 423c
00000260: 755b a5bb 5e42 833b 1ac4 173c ef18 46bc
00000270: 9f70 d43b 9711 50ba ffc4 4c3b 24df 1cbc
00000280: 579a 853b 198a 77bc bff6 b3bb 3cf2 3fbc
00000290: 7e31 093c c519 be3b 0f3e 733b 1a6b c9ba
000002a0: e1a6 60bc dc53 81bb 242d 873c 8724 9ebc
000002b0: 6d5d 7fba bacf a73b d1ea 1f3c dce1 f3bb
000002c0: 5307 0dbc af3b c1ba 8cdc 46ba eabe a4ba
000002d0: 4e8a d5bb 548f 4abb c96c 85bb d426 2e3c
000002e0: 9d26 22bc b608 113c 4030 0e3c 52f1 fc39
000002f0: 2243 2fbc 26a7 d33a 64f5 a1bc efcc 073c
00000300: 5d49 59ba 8e15 3539 6ea2 6abc fe03 edba
00000310: 9710 3bbc c5fa b6bb 47c5 053c 3ff8 83bb
00000320: d140 7dbc 2b1f 593c 8a38 333c 6fd1 343c
00000330: 0aee bfbb 75bb 71bc 7318 053c e337 0aba
00000340: f57e 9a3c cdc3 073c 15fa 143b 118d 493c
00000350: 7e2c 0a3c 5cc2 32bc a1b0 e0bb 95a3 0c3c
00000360: 1ad6 cbb9 da0a 833a 0601 a43c 94f2 94bc
00000370: 3266 503c 017b a7bc 473a 093c 0f4b db3b
00000380: 2de6 643c f17f 06bc c256 2b3c a6f4 00bb
00000390: e9ff 58bb f845 9a3b 0718 083c 12a6 00bd
000003a0: 808b 72bb 1ab7 fbbb 0783 4e3b b4b4 22b9
000003b0: 5a94 9a39 e653 a03c 1f6c e43a bf39 303c
000003c0: faa2 163c 8be6 23ba 6511 7bbb 7814 1abb
000003d0: bd71 8dbc fd0f 813c 619d 673b 3642 a03c
000003e0: 5da1 d4bb 71f3 36bc 91b2 37bc 11a4 a53b
000003f0: fe4e d039 277f b73b 65c4 6ebb 876f ceba

action_model._discrete_distribution.branches.0.bias f4 [3]
0.0009282034 0.0028495577 -0.0030643272
00000000: ad52 733a a5bf 3a3b e1d2 48bb

action_model._discrete_distribution.branches.1.weight f4 [3, 128]
-0.010188438 -0.003645313 0.0017554727 -0.004465832 0.0046212664 -0.0037358433 -0.004200149 0.000956198
-0.010034256 0.022565497 0.01459427 -0.008323493 -0.012231883 0.014936653 0.0039034707 -0.010969646
0.0033775738 -0.0046552527 -0.0016166944 -0.0005564405 -0.007078102 -0.0048106923 -0.013839651 -0.021206973
-0.0037666983 -0.0023166316 -0.0037276535 -0.00077912677 0.0025173037 0.00094854017 -0.0111949975 0.023964873
0.0041046776 0.001061986 0.0031731487 0.010919526 -0.0011007299 -0.021097625 0.0019654469 0.010045694
-0.0037607655 0.00078369194 -0.0062076896 0.0042573255 0.004860635 -0.012030844 0.0062267166 0.006535536
-0.00017721804 0.013838213 -0.0056635444 0.0036836707 0.000985598 0.006204038 0.009190671 -0.004213227
0.0019753866 0.010509944 -0.0032973196 0.003944273 -0.0019873467 0.0016218725 -0.00048329122 0.017725375
-0.0005389122 0.0075758453 -0.008339369 -0.0037858593 -0.013431336 -0.016233332 0.008501451 -0.0076800985
-0.010820912 0.008962555 -0.001761602 -0.00800068 0.009248682 -0.006063954 0.014127876 -0.0066422266
0.012849648 0.011116039 0.010413856 0.0035838124 0.0055367667 0.016315525 -0.004676978 0.0018322489
0.012639755 -0.011622224 0.0023404292 0.0051499405 -0.009916636 -0.009101644 0.0073472345 0.0061453837
-0.007862261 0.015140886 0.014853182 0.009275257 0.007007474 -0.0030301597 0.0061547803 0.0084308125
-0.008829824 0.007952029 -0.0020567526 0.004732794 -0.007958439 0.007864467 -0.007881957 -0.0018501452
0.011760408 0.0014144686 -0.00015280656 -0.0127413375 -0.011726135 0.015867228 0.023629317 0.0056159594
0.0027428062 -0.004894675 0.0028412526 0.0029811754 0.004368596 -0.009437986 0.010841662 -0.0009385473
-0.0056893826 0.008601906 0.017458828 -0.007106187 -0.0093955705 -0.013764981 0.012225332 0.009042581
-0.0095322495 -0.008933152 -0.004441029 0.022233296 0.0025720266 -0.017106593 -0.020731842 0.024553841
0.0017589538 0.01630889 -0.0051020975 -0.011458768 0.012147847 0.006020695 0.015046795 0.004393139
-0.016456021 0.0013696707 -0.012009779 -0.011352864 -0.009286665 0.006680593 0.015146407 -0.005114277
-0.0076834816 -0.019152876 0.018051926 0.021838685 -0.0070107905 0.007348919 0.01135983 0.00048786635
0.0012824676 -0.0053262417 -0.020567449 -0.022756835 0.0045612417 0.0011610899 0.01920802 0.016963776
-0.0049238545 0.005368279 0.024236992 -0.007660732 0.0060809925 0.019866643 0.0034107692 0.0071164025
-0.0032954637 0.017809432 0.010089586 0.004095136 0.00090639625 0.013344764 0.01455449 0.007575937
0.011949801 -0.014469714 0.003533745 -0.006288646 0.0021559969 0.007266417 -0.016335718 -0.01974813
-0.017922152 -0.004871234 0.006161759 -0.015232782 -0.0177222 -0.0051076263 0.005863094 -0.0034310413
-0.02657296 -0.015831633 -0.0026490765 -0.0059945364 0.009535961 -0.0028524334 -0.012993747 -0.000346364
-0.002514894 0.0063860123 -0.010721787 0.005232976 0.003753735 0.02161067 -0.011270455 -0.009283551
-0.014819503 0.0027933705 0.00046000467 0.011782904 0.0046297037 0.014260499 0.009102741 0.0041762963
-1.2676239e-05 -0.0013514529 0.017053539 0.010189041 0.023768133 -0.0010509996 -0.00983314 0.0061970903
0.0032625545 -0.030482776 0.014623444 0.004190279 0.0129760485 0.0056379694 0.02592698 -0.021563359
0.0072360444 0.00053809024 0.005880268 -0.012819756 -0.016852437 0.0008195128 -0.01655707 -0.0066014705
00000000: 68ed 26bc 34e6 6ebb e417 e63a 1d56 92bb
00000010: fe6d 973b 0dd5 74bb 67a1 89bb 5da9 7a3a
00000020: b866 24bc 47db b83c ce1c 6f3c 435f 08bc
00000030: 3c68 48bc ddb8 743c 5fd1 7f3b 08ba 33bc
00000040: 495a 5d3b 178b 98bb 43e7 d3ba 17de 11ba
00000050: 6cef e7bb 03a3 9dbb b4bf 62bc 3fba adbc
00000060: b6da 76bb a1d2 17bb a64b 74bb 503e 4cba
00000070: 59f9 243b 74a7 783a 396b 37bc fb51 c43c
00000080: 8880 863b 5632 8b3a 9af4 4f3b d0e7 323c
00000090: 5e46 90ba edd4 acbc bace 003b b296 243c
000000a0: 2d77 76bb ad70 4d3a e069 cbbb 0981 8b3b
000000b0: f645 9f3b 041d 45bc 7c09 cc3b 0d28 d63b
000000c0: 9bd3 39b9 acb9 623c 4195 b9bb bd69 713b
000000d0: 2e2f 813a 3e4b cb3b 7894 163c 1c0f 8abb
000000e0: 7d75 013b e631 2c3c d817 58bb f63e 813b
000000f0: 253e 02bb 0395 d43a 4062 fdb9 ce34 913c
00000100: c945 0dba cc3e f83b d9a1 08bc 2e1c 78bb
00000110: 1b0f 5cbc c4fb 84bc ac49 0b3c 56a9 fbbb
00000120: 324a 31bc aed7 123c 8ee5 e6ba 4915 03bc
00000130: c987 173c 22b4 c6bb 9b78 673c 09a7 d9bb
00000140: 5487 523c 0c20 363c e19e 2a3c 65de 6a3b
00000150: c46d b53b 23a8 853c 5641 99bb 1228 f03a
00000160: fa16 4f3c 246b 3ebc e361 193b d5c0 a83b
00000170: 6379 22bc 101f 15bc 12c1 f03b 375f c93b
00000180: b6d0 00bc 7b11 783c c35a 733c 3ff7 173c
00000190: f49e e53b a595 46bb 0aae c93b 6421 0a3c
000001a0: f7aa 10bc 3a49 023c 95ca 06bb 8e15 9b3b
000001b0: 1d64 02bc f7d9 003c 5323 01bc 9280 f2ba
000001c0: baae 403c b165 b93a b33a 20b9 0bc1 50bc
000001d0: fa1e 40bc fdfb 813c 4592 c13c 1506 b83b
000001e0: a7c0 333b 8363 a0bb 4f34 3a3b d35f 433b
000001f0: 7026 8f3b c8a1 1abc 3aa1 313c d808 76ba
00000200: 006e babb 02ef 0c3c d105 8f3c 04db e8bb
00000210: e1ef 19bc 8486 61bc c24c 483c 5527 143c
00000220: 272d 1cbc 5b5c 12bc 0d86 91bb 9a22 b63c
00000230: 728f 283b 2023 8cbc d3d5 a9bc 2325 c93c
00000240: b28c e63a 399a 853c 7f2f a7bb 8ebd 3bbc
00000250: c307 473c 4049 c53b d586 763c 52f4 8f3b
00000260: c7ce 86bc 8686 b33a aac4 44bc 5d01 3abc
00000270: 1927 18bc e0e8 da3b a328 783c aa95 a7bb
00000280: b7c5 fbbb 7ee6 9cbc a2e1 933c 0be7 b23c
00000290: c6ba e5bb 33cf f03b 951e 3a3c 50c8 ff39
000002a0: 7918 a83a c187 aebb 117d a8bc 8b6c babc
000002b0: 7876 953b b62f 983a 235a 9d3c 9ef7 8a3c
000002c0: 4958 a1bb 63e8 af3b a88c c63c e106 fbbb
000002d0: 1043 c73b 5fbf a23c 3687 5f3b b630 e93b
000002e0: b5f8 57bb 16e5 913c ca4e 253c 7e30 863b
000002f0: 399b 6d3a ffa3 5a3c f575 6e3c 913f f83b
00000300: 19c9 433c 6112 6dbc 6796 673b fc10 cebb
00000310: a04b 0d3b 201b ee3b 7cd2 85bc d5c6 a1bc
00000320: 7ad1 92bc df9e 9fbb 95e8 c93b eb92 79bc
00000330: 262e 91bc e05d a7bb 321f c03b 52db 60bb
00000340: 89af d9bc 57b1 81bc 219c 2dbb d16d c4bb
00000350: b83c 1c3c e4ef 3abb bae3 54bc 3098 b5b9
00000360: ebd0 24bb c141 d13b 6faa 2fbc 6279 ab3b
00000370: 3901 763b dc08 b13c b7a7 38bc 091a 18bc
00000380: 80cd 72bc fb10 373b c82c f139 150d 413c
00000390: c5b4 973b dea4 693c aa23 153c 50d9 883b
000003a0: 08ac 54b7 3c23 b1ba ddb3 8b3c efef 263c
000003b0: 63b5 c23c b2c1 89ba 2e1b 21bc f610 cb3b
000003c0: 95d0 553b 04b7 f9bc 2b97 6f3c 9c4e 893b
000003d0: 7e99 543c b7be b83b d164 d43c a4a5 b0bc
000003e0: 571c ed3b a00e 0d3a 43af c03b f409 52bc
000003f0: 1f0e 8abc 93d4 563a b1a2 87bc 2651 d8bb

action_model._discrete_distribution.branches.1.bias f4 [3]
0.0021267151 -0.00639511 0.003674368
00000000: 5c60 0b3b 128e d1bb aacd 703b

action_model._discrete_distribution.branches.2.weight f4 [3, 128]
-0.0055550383 0.0047667404 0.0016379541 -0.0017989409 -0.004312782 0.018758904 0.004575755 -0.022620704
-0.0035603547 0.0033570384 -0.011121214 -0.021636423 -0.01157473 -0.0032871363 -0.004720517 -0.012281607
-0.0042407867 0.0027138868 0.013366813 0.017609542 -0.012491638 -0.0003326691 -0.0006478188 0.012777255
0.0061205416 0.0116965575 0.0070624086 0.0011856356 0.008969954 -0.009753526 0.01647525 -0.0013692982
0.008063671 -0.002303417 -0.002366846 -0.008861039 -0.004022123 0.008007954 -0.002841107 0.0015730386
0.0068883155 -0.0041518747 -0.0012968236 0.010150584 -0.0064875456 -0.014414339 0.014086693 -0.019895619
-0.002430364 0.018461186 -0.0028837514 -0.00045861086 -0.0020228783 0.005505524 0.011707233 -0.007337436
-0.0037912764 -0.0031309659 -0.0060643535 0.019556265 0.0024018276 -0.00023114878 0.0044421605 -0.013446139
-0.016398655 0.00021400998 -0.013372725 0.0055471975 -0.0072718677 -0.010085858 0.0062440187 -0.0038700472
0.0028913133 -0.006348401 0.0017189018 -0.0026030676 0.00873222 0.017516764 0.0072652474 0.0008192794
0.0027049629 -0.009524962 -0.0006516395 0.010169034 -0.0033523215 0.0030038778 -0.009898487 -0.021462787
-0.00258221 -0.011142243 0.01331655 -0.01575563 -0.005144821 0.004877675 0.011739652 0.0061708163
-5.7507325e-05 -0.007824425 0.012873608 -0.011794705 -0.0059068142 0.010365224 0.0053380523 -0.0003627101
-0.0092599215 -0.0193506 -0.013392555 0.0053783013 -0.004841989 0.009409901 -0.0049524247 0.005094228
0.00067909434 -0.0014450586 -0.0056653037 0.0026392932 -0.00138775 -0.016855698 0.011777701 0.0038534717
-0.018381415 0.001363381 -0.0022878086 0.007356687 0.0041012857 0.00047608477 0.0033332452 -0.0124639515
0.01704289 0.0038623926 -0.00019873463 -0.0060091126 0.0024601682 0.00063757866 -0.001969565 0.007001819
0.0077399975 -0.0021685648 0.0087203495 0.0048511866 0.0056055123 0.004130767 -0.0018407333 0.011085828
8.500593e-06 0.012419218 0.004048363 0.0142371 0.0025931438 0.010904303 0.00407334 -0.016281376
3.3687975e-06 0.006635753 0.013075719 0.009058456 -0.013465222 -0.003988215 -0.0058271233 -0.010338997
-0.014838172 -0.0074829557 0.00052091613 0.015978275 0.0016818884 -0.008268577 0.0056076297 -0.009390497
-0.0030411335 -0.008575627 -0.01702256 -0.0027506961 0.010035326 -0.006113013 0.004754052 0.004662186
-0.00381401 -0.015563946 -0.0013129307 0.011487162 -0.0021007487 0.0035322919 0.005558342 -0.0035625496
-0.007371956 0.004760518 -0.0103585515 -0.0023656841 0.0033726557 -0.007122693 -0.00090187974 0.0027270187
-0.013649196 -0.0027458298 0.015338663 -0.0020755667 0.009964763 0.00600068 -0.0007057929 -0.002829198
0.008425763 0.0047746515 0.0019291803 -0.0016125459 -0.017527068 0.0073748846 -0.012331487 0.002799844
0.0007160881 0.0035739634 0.012964455 -0.008658994 0.011077327 -0.008344359 0.00044245788 0.003273289
-0.021297308 0.016212054 -0.00060149364 -0.0015158328 0.00064986007 0.0079031745 -0.0038674988 0.0093073
-0.002460386 0.013061121 -0.0023605076 0.0030306051 0.0055022966 0.0021751917 -0.0021887769 0.004551466
-0.00040050602 0.006088948 0.005711025 -0.009881148 -0.005193473 -0.009462436 -0.013350118 -0.0005735353
0.005114116 -0.020652458 0.012697128 0.004011131 0.0031468736 0.0055691963 0.0029390333 0.0068616797
0.017778061 0.012121078 0.0040314244 -0.013637656 0.008921854 0.014562363 0.006383158 0.007301447
00000000: 0a07 b6bb 5132 9c3b 9fb0 d63a 71ca ebba
00000010: 3d52 8dbb 46ac 993c 37f0 953b 0e4f b9bc
00000020: d754 69bb c201 5c3b c135 36bc de3e b1bc
00000030: f0a3 3dbc ff6c 57bb 91ae 9abb cb38 49bc
00000040: 4cf6 8abb 77db 313b 7a00 5b3c e341 903c
00000050: baa9 4cbc 176a aeb9 62d2 29ba b157 513c
00000060: d38e c83b eba2 3f3c c76b e73b 5467 9b3a
00000070: b7f6 123c 41cd 1fbc 1af7 863c 067a b3ba
00000080: 7d1d 043c edf4 16bb 161d 1bbb e42d 11bc
00000090: 03cc 83bb cb33 033c de31 3abb 6b2e ce3a
000000a0: 61b7 e13b 730c 88bb 2efa a9ba a34e 263c
000000b0: 7a95 d4bb 1f2a 6cbc dfcb 663c 23fc a2bc
000000c0: be46 1fbb ea3b 973c 52fd 3cbb b571 f0b9
000000d0: 4492 04bb af67 b43b b2cf 3f3c e06e f0bb
000000e0: 1077 78bb e430 4dbb 7cb7 c6bb 7634 a03c
000000f0: fb67 1d3b 8760 72b9 8b8f 913b 324d 5cbc
00000100: 7956 86bc de67 6039 4619 5bbc 44c5 b53b
00000110: d948 eebb 283f 25bc a09a cc3b 9ea0 7dbb
00000120: 307c 3d3b 3f06 d0bb c64c e13a 3a98 2abb
00000130: 9611 0f3c 517f 8f3c 5011 ee3b e9c4 563a
00000140: bf45 313b 960e 1cbc c9d2 2aba 059c 263c
00000150: 9fb2 5bbb b5dc 443b 432d 22bc bad2 afbc
00000160: 4c3a 29bb f48d 36bc a92d 5a3c f311 81bc
00000170: e395 a8bb e7d4 9f3b ab57 403c 8f34 ca3b
00000180: 0534 71b8 0432 00bc d3eb 523c 943e 41bc
00000190: f38d c1bb e7d2 293c d4ea ae3b 202a beb9
000001a0: edb6 17bc 2685 9ebc 726c 5bbc 763c b03b
000001b0: 8ca9 9ebb fc2b 1a3c f347 a2bb 7bed a63b
000001c0: 4005 323a 1f68 bdba 03a4 b9bb fef7 2c3b
000001d0: 2ae5 b5ba f614 8abc 42f7 403c 878a 7c3b
000001e0: 9f94 96bc 7ab3 b23a 0fef 15bb 5d10 f13b
000001f0: 1464 863b 049b f939 9372 5a3b 9a35 4cbc
00000200: 889d 8b3c 3220 7d3b 6c63 50b9 17e8 c4bb
00000210: c63a 213b 2e23 273a d113 01bb 846f e53b
00000220: ce9f fd3b 7b1e 0ebb ccdf 0e3c b4f6 9e3b
00000230: 72ae b73b 635b 873b c344 f1ba 55a1 353c
00000240: c59d 0e37 fa79 4b3c 21a8 843b ba42 693c
00000250: bcf1 293b f6a7 323c a779 853b 8560 85bc
00000260: 8013 6236 bb70 d93b 8a3b 563c eb69 143c
00000270: 3c9d 5cbc 92af 82bb 74f1 bebb e564 29bc
00000280: ce1b 73bc 9533 f5bb 178e 083a dfe4 823c
00000290: cf72 dc3a ed78 07bc 35c0 b73b 99da 19bc
000002a0: c14d 47bb c980 0cbc e572 8bbc 0645 34bb
000002b0: 356b 243c ab4f c8bb e1c7 9b3b 40c5 983b
000002c0: 78f4 79bb ecff 7ebc a516 acba a634 3c3c
000002d0: b7ac 09bb 067e 673b c122 b63b aa79 69bb
000002e0: 7390 f1bb 1ffe 9b3b eab6 29bc 9809 1bbb
000002f0: c607 5d3b 7b65 e9bb 206c 6cba c8b7 323b
00000300: e1a0 5fbc 61f3 33bb 044f 7b3c 3b06 08bb
00000310: 3f43 233c 5aa1 c43b f604 39ba 116a 39bb
00000320: 360c 0a3c ae74 9c3b 8ddc fc3a 105c d3ba
00000330: ed94 8fbc 04a9 f13b 010a 4abc 967d 373b
00000340: dcb7 3b3a 2839 6a3b de68 543c 74de 0dbc
00000350: ad7d 353c c7b6 08bc b1f9 e739 ad84 563b
00000360: b177 aebc 24cf 843c 8ead 1dba e9ae c6ba
00000370: 5f5b 2a3a 517c 013c dd75 7dbb a57d 183c
00000380: 6d3e 21bb 50fe 553c bfb2 1abb 1e9d 463b
00000390: 9c4c b43b a98d 0e3b 9571 0fbb 7724 953b
000003a0: 02fb d1b9 cc85 c73b 8d23 bb3b 8ae4 21bc
000003b0: 022e aabb 5508 1bbc 74ba 5abc 4d59 16ba
000003c0: 5094 a73b 582f a9bc 9d07 503c ce6f 833b
000003d0: c73b 4e3b ce7d b63b cc9c 403b f1d7 e03b
000003e0: 4ca3 913c 7c97 463c 0a1a 843b 7a70 5fbc
000003f0: f82c 123c fa96 6e3c cf29 d13b fa40 ef3b

action_model._discrete_distribution.branches.2.bias f4 [3]
0.0019696518 -0.0040330803 0.002151323
00000000: 4615 013b ee27 84bb 36fd 0c3b
